name: "VGG_ILSVRC_16_layer"
layer {
  name: "data"
  type: "Data"
  top: "data"
  top: "label"
  include {
    phase: TRAIN
  }
  transform_param {
    crop_size: 224
    mean_value: 104
    mean_value: 117
    mean_value: 123
    mirror: true
    resize_short_side_min: 256
    resize_short_side_max: 512
  }
  data_param {
    source: "/home/zyan3/local/data/imagenet/ilsvrc12/ilsvrc12_train_encoded_lmdb"
	batch_size: 10
    backend: LMDB
    selective_list: "/home/zyan3/proj/caffe_private_hdcnn/data/ilsvrc12/train.txt"
  }
}
layer {
  name: "data"
  type: "Data"
  top: "data"
  top: "label"
  include {
    phase: TEST
  }
  transform_param {
    crop_size: 224
    mean_value: 104
    mean_value: 117
    mean_value: 123
    mirror: false
    resize_short_side_min: 384
    resize_short_side_max: 384
  }
  data_param {
    source: "/home/zyan3/local/data/imagenet/ilsvrc12/ilsvrc12_val_encoded_lmdb"
	batch_size: 50
    backend: LMDB
    selective_list: ""
  }
}

layer {
  bottom: "data"
  top: "conv1_1"
  name: "conv1_1"
  type: "Convolution"
  param {
    lr_mult: 1
    decay_mult: 1
  }
  param {
    lr_mult: 2
    decay_mult: 0
  }  
  convolution_param {
    num_output: 64
    pad: 1
    kernel_size: 3
  }
  conserve_gpu_memory_test: true  
}

layer {
  bottom: "conv1_1"
  top: "conv1_1"
  name: "Relu1_1"
  type: "ReLU"
}
layer {
  bottom: "conv1_1"
  top: "conv1_2"
  name: "conv1_2"
  type: "Convolution"
  param {
    lr_mult: 1
    decay_mult: 1
  }
  param {
    lr_mult: 2
    decay_mult: 0
  }  
  convolution_param {
    num_output: 64
    pad: 1
    kernel_size: 3
  }
  conserve_gpu_memory_test: true  
}
layer {
  bottom: "conv1_2"
  top: "conv1_2"
  name: "Relu1_2"
  type: "ReLU"
}
layer {
  bottom: "conv1_2"
  top: "pool1"
  name: "pool1"
  type: "Pooling"
  pooling_param {
    pool: MAX
    kernel_size: 2
    stride: 2
  }
}
layer {
  bottom: "pool1"
  top: "conv2_1"
  name: "conv2_1"
  type: "Convolution"
  param {
    lr_mult: 1
    decay_mult: 1
  }
  param {
    lr_mult: 2
    decay_mult: 0
  }  
  convolution_param {
    num_output: 128
    pad: 1
    kernel_size: 3
  }
  conserve_gpu_memory_test: true  
}
layer {
  bottom: "conv2_1"
  top: "conv2_1"
  name: "Relu2_1"
  type: "ReLU"
}
layer {
  bottom: "conv2_1"
  top: "conv2_2"
  name: "conv2_2"
  type: "Convolution"
  param {
    lr_mult: 1
    decay_mult: 1
  }
  param {
    lr_mult: 2
    decay_mult: 0
  }  
  convolution_param {
    num_output: 128
    pad: 1
    kernel_size: 3
  }
  conserve_gpu_memory_test: true  
}
layer {
  bottom: "conv2_2"
  top: "conv2_2"
  name: "Relu2_2"
  type: "ReLU"
}
layer {
  bottom: "conv2_2"
  top: "pool2"
  name: "pool2"
  type: "Pooling"
  pooling_param {
    pool: MAX
    kernel_size: 2
    stride: 2
  }
}
layer {
  bottom: "pool2"
  top: "conv3_1"
  name: "conv3_1"
  type: "Convolution"
  param {
    lr_mult: 1
    decay_mult: 1
  }
  param {
    lr_mult: 2
    decay_mult: 0
  }  
  convolution_param {
    num_output: 256
    pad: 1
    kernel_size: 3
  }
  conserve_gpu_memory_test: true  
}
layer {
  bottom: "conv3_1"
  top: "conv3_1"
  name: "Relu3_1"
  type: "ReLU"
}
layer {
  bottom: "conv3_1"
  top: "conv3_2"
  name: "conv3_2"
  type: "Convolution"
  param {
    lr_mult: 1
    decay_mult: 1
  }
  param {
    lr_mult: 2
    decay_mult: 0
  }  
  convolution_param {
    num_output: 256
    pad: 1
    kernel_size: 3
  }
  conserve_gpu_memory_test: true  
}
layer {
  bottom: "conv3_2"
  top: "conv3_2"
  name: "Relu3_2"
  type: "ReLU"
}
layer {
  bottom: "conv3_2"
  top: "conv3_3"
  name: "conv3_3"
  type: "Convolution"
  param {
    lr_mult: 1
    decay_mult: 1
  }
  param {
    lr_mult: 2
    decay_mult: 0
  }  
  convolution_param {
    num_output: 256
    pad: 1
    kernel_size: 3
  }
  conserve_gpu_memory_test: true  
}
layer {
  bottom: "conv3_3"
  top: "conv3_3"
  name: "Relu3_3"
  type: "ReLU"
}
layer {
  bottom: "conv3_3"
  top: "pool3"
  name: "pool3"
  type: "Pooling"
  pooling_param {
    pool: MAX
    kernel_size: 2
    stride: 2
  }
}
layer {
  bottom: "pool3"
  top: "conv4_1"
  name: "conv4_1"
  type: "Convolution"
  param {
    lr_mult: 1
    decay_mult: 1
  }
  param {
    lr_mult: 2
    decay_mult: 0
  }  
  convolution_param {
    num_output: 512
    pad: 1
    kernel_size: 3
  }
  conserve_gpu_memory_test: true  
}
layer {
  bottom: "conv4_1"
  top: "conv4_1"
  name: "Relu4_1"
  type: "ReLU"
}
layer {
  bottom: "conv4_1"
  top: "conv4_2"
  name: "conv4_2"
  type: "Convolution"
  param {
    lr_mult: 1
    decay_mult: 1
  }
  param {
    lr_mult: 2
    decay_mult: 0
  }  
  convolution_param {
    num_output: 512
    pad: 1
    kernel_size: 3
  }
  conserve_gpu_memory_test: true  
}
layer {
  bottom: "conv4_2"
  top: "conv4_2"
  name: "Relu4_2"
  type: "ReLU"
}
layer {
  bottom: "conv4_2"
  top: "conv4_3"
  name: "conv4_3"
  type: "Convolution"
  param {
    lr_mult: 1
    decay_mult: 1
  }
  param {
    lr_mult: 2
    decay_mult: 0
  }  
  convolution_param {
    num_output: 512
    pad: 1
    kernel_size: 3
  }
  conserve_gpu_memory_test: true  
}
layer {
  bottom: "conv4_3"
  top: "conv4_3"
  name: "Relu4_3"
  type: "ReLU"
}
layer {
  bottom: "conv4_3"
  top: "pool4"
  name: "pool4"
  type: "Pooling"
  pooling_param {
    pool: MAX
    kernel_size: 2
    stride: 2
  }
}
layer {
  bottom: "pool4"
  top: "conv5_1"
  name: "conv5_1"
  type: "Convolution"
  param {
    lr_mult: 1
    decay_mult: 1
  }
  param {
    lr_mult: 2
    decay_mult: 0
  }  
  convolution_param {
    num_output: 512
    pad: 1
    kernel_size: 3
  }
  conserve_gpu_memory_test: true  
}
layer {
  bottom: "conv5_1"
  top: "conv5_1"
  name: "Relu5_1"
  type: "ReLU"
}
layer {
  bottom: "conv5_1"
  top: "conv5_2"
  name: "conv5_2"
  type: "Convolution"
  param {
    lr_mult: 1
    decay_mult: 1
  }
  param {
    lr_mult: 2
    decay_mult: 0
  }  
  convolution_param {
    num_output: 512
    pad: 1
    kernel_size: 3
  }
  conserve_gpu_memory_test: true  
}
layer {
  bottom: "conv5_2"
  top: "conv5_2"
  name: "Relu5_2"
  type: "ReLU"
}
layer {
  bottom: "conv5_2"
  top: "conv5_3"
  name: "conv5_3"
  type: "Convolution"
  param {
    lr_mult: 1
    decay_mult: 1
  }
  param {
    lr_mult: 2
    decay_mult: 0
  }  
  convolution_param {
    num_output: 512
    pad: 1
    kernel_size: 3
  }
  conserve_gpu_memory_test: true  
}
layer {
  bottom: "conv5_3"
  top: "conv5_3"
  name: "Relu5_3"
  type: "ReLU"
}
layer {
  bottom: "conv5_3"
  top: "pool5"
  name: "pool5"
  type: "Pooling"
  pooling_param {
    pool: MAX
    kernel_size: 2
    stride: 2
  }
}
layer {
  bottom: "pool5"
  top: "fc6"
  name: "fc6"
  type: "InnerProduct"
  param {
    lr_mult: 1
    decay_mult: 1
  }
  param {
    lr_mult: 2
    decay_mult: 0
  }  
  inner_product_param {
    num_output: 4096
    weight_filler {
      type: "gaussian"
      std: 0.1
    }
    bias_filler {
      type: "constant"
      value: 0
    }
    quantization_kmean_num_cluster: 64
    quantization_num_segment: 1792
    quantization_kmean_cluster_centers_file: "models/VGG_ILSVRC_16_layers/211839e770f7b538e2d8/fc6_64_1792_kmean_cluster_centers.binaryproto"
    quantization_kmean_cluster_indices_file: "models/VGG_ILSVRC_16_layers/211839e770f7b538e2d8/fc6_64_1792_kmean_cluster_indices.binaryproto"
  }
  conserve_gpu_memory_test: true
  parameter_compress: false
}
layer {
  bottom: "fc6"
  top: "fc6"
  name: "Relu6"
  type: "ReLU"
}
layer {
  bottom: "fc6"
  top: "fc6"
  name: "drop6"
  type: "Dropout"
  dropout_param {
    dropout_ratio: 0.5
  }
}
layer {
  bottom: "fc6"
  top: "fc7"
  name: "fc7"
  type: "InnerProduct"
  param {
    lr_mult: 1
    decay_mult: 1
  }
  param {
    lr_mult: 2
    decay_mult: 0
  }  
  inner_product_param {
    num_output: 4096
    weight_filler {
      type: "gaussian"
      std: 0.1
    }
    bias_filler {
      type: "constant"
      value: 0
    }
    quantization_kmean_num_cluster: 256
    quantization_num_segment: 1024
    quantization_kmean_cluster_centers_file: "models/VGG_ILSVRC_16_layers/211839e770f7b538e2d8/fc7_256_1024_kmean_cluster_centers.binaryproto"
    quantization_kmean_cluster_indices_file: "models/VGG_ILSVRC_16_layers/211839e770f7b538e2d8/fc7_256_1024_kmean_cluster_indices.binaryproto"    
  }
  conserve_gpu_memory_test: true
  parameter_compress: false
}
layer {
  bottom: "fc7"
  top: "fc7"
  name: "Relu7"
  type: "ReLU"
}
layer {
  bottom: "fc7"
  top: "fc7"
  name: "drop7"
  type: "Dropout"
  dropout_param {
    dropout_ratio: 0.5
  }
}
layer {
  bottom: "fc7"
  top: "fc8"
  name: "fc8"
  type: "InnerProduct"
  param {
    lr_mult: 1
    decay_mult: 1
  }
  param {
    lr_mult: 2
    decay_mult: 0
  }  
  inner_product_param {
    num_output: 1000
    weight_filler {
      type: "gaussian"
      std: 0.01
    }
    bias_filler {
      type: "constant"
      value: 0
    }     
  }
}

layer {
	name: "fine_branch_prob"
	type: "Softmax"
	bottom: "fc8"
	top: "fine_branch_prob"
}
layer {
	name: "coarse_branch_prob"
	type: "Fine2CoarseProb"
	bottom: "fine_branch_prob"
	top: "coarse_branch_prob"
	fine2coarse_prob_layer_param{
		num_coarse: 84
		fine2coarse: 52
		fine2coarse: 8
		fine2coarse: 0
		fine2coarse: 0
		fine2coarse: 0
		fine2coarse: 0
		fine2coarse: 0
		fine2coarse: 10
		fine2coarse: 19
		fine2coarse: 19
		fine2coarse: 10
		fine2coarse: 10
		fine2coarse: 10
		fine2coarse: 10
		fine2coarse: 10
		fine2coarse: 10
		fine2coarse: 10
		fine2coarse: 10
		fine2coarse: 10
		fine2coarse: 10
		fine2coarse: 10
		fine2coarse: 10
		fine2coarse: 10
		fine2coarse: 10
		fine2coarse: 10
		fine2coarse: 1
		fine2coarse: 2
		fine2coarse: 2
		fine2coarse: 1
		fine2coarse: 1
		fine2coarse: 2
		fine2coarse: 1
		fine2coarse: 2
		fine2coarse: 0
		fine2coarse: 0
		fine2coarse: 1
		fine2coarse: 1
		fine2coarse: 1
		fine2coarse: 2
		fine2coarse: 2
		fine2coarse: 1
		fine2coarse: 3
		fine2coarse: 3
		fine2coarse: 3
		fine2coarse: 3
		fine2coarse: 1
		fine2coarse: 3
		fine2coarse: 1
		fine2coarse: 2
		fine2coarse: 19
		fine2coarse: 1
		fine2coarse: 19
		fine2coarse: 5
		fine2coarse: 4
		fine2coarse: 5
		fine2coarse: 4
		fine2coarse: 4
		fine2coarse: 4
		fine2coarse: 5
		fine2coarse: 2
		fine2coarse: 5
		fine2coarse: 4
		fine2coarse: 4
		fine2coarse: 4
		fine2coarse: 4
		fine2coarse: 8
		fine2coarse: 4
		fine2coarse: 4
		fine2coarse: 4
		fine2coarse: 66
		fine2coarse: 6
		fine2coarse: 6
		fine2coarse: 6
		fine2coarse: 6
		fine2coarse: 6
		fine2coarse: 6
		fine2coarse: 6
		fine2coarse: 7
		fine2coarse: 7
		fine2coarse: 4
		fine2coarse: 10
		fine2coarse: 10
		fine2coarse: 10
		fine2coarse: 10
		fine2coarse: 10
		fine2coarse: 10
		fine2coarse: 10
		fine2coarse: 10
		fine2coarse: 22
		fine2coarse: 10
		fine2coarse: 10
		fine2coarse: 10
		fine2coarse: 10
		fine2coarse: 10
		fine2coarse: 10
		fine2coarse: 10
		fine2coarse: 10
		fine2coarse: 10
		fine2coarse: 10
		fine2coarse: 10
		fine2coarse: 10
		fine2coarse: 22
		fine2coarse: 10
		fine2coarse: 23
		fine2coarse: 23
		fine2coarse: 23
		fine2coarse: 23
		fine2coarse: 8
		fine2coarse: 8
		fine2coarse: 8
		fine2coarse: 66
		fine2coarse: 6
		fine2coarse: 8
		fine2coarse: 8
		fine2coarse: 8
		fine2coarse: 9
		fine2coarse: 8
		fine2coarse: 66
		fine2coarse: 8
		fine2coarse: 9
		fine2coarse: 8
		fine2coarse: 9
		fine2coarse: 6
		fine2coarse: 9
		fine2coarse: 9
		fine2coarse: 9
		fine2coarse: 9
		fine2coarse: 10
		fine2coarse: 38
		fine2coarse: 10
		fine2coarse: 10
		fine2coarse: 10
		fine2coarse: 10
		fine2coarse: 10
		fine2coarse: 38
		fine2coarse: 10
		fine2coarse: 10
		fine2coarse: 10
		fine2coarse: 10
		fine2coarse: 10
		fine2coarse: 10
		fine2coarse: 10
		fine2coarse: 10
		fine2coarse: 10
		fine2coarse: 10
		fine2coarse: 66
		fine2coarse: 10
		fine2coarse: 66
		fine2coarse: 19
		fine2coarse: 0
		fine2coarse: 0
		fine2coarse: 11
		fine2coarse: 18
		fine2coarse: 14
		fine2coarse: 38
		fine2coarse: 18
		fine2coarse: 18
		fine2coarse: 18
		fine2coarse: 11
		fine2coarse: 12
		fine2coarse: 18
		fine2coarse: 16
		fine2coarse: 16
		fine2coarse: 16
		fine2coarse: 16
		fine2coarse: 16
		fine2coarse: 16
		fine2coarse: 12
		fine2coarse: 12
		fine2coarse: 18
		fine2coarse: 14
		fine2coarse: 11
		fine2coarse: 11
		fine2coarse: 11
		fine2coarse: 19
		fine2coarse: 14
		fine2coarse: 12
		fine2coarse: 18
		fine2coarse: 16
		fine2coarse: 16
		fine2coarse: 12
		fine2coarse: 18
		fine2coarse: 13
		fine2coarse: 18
		fine2coarse: 13
		fine2coarse: 13
		fine2coarse: 13
		fine2coarse: 13
		fine2coarse: 14
		fine2coarse: 13
		fine2coarse: 14
		fine2coarse: 14
		fine2coarse: 13
		fine2coarse: 13
		fine2coarse: 13
		fine2coarse: 11
		fine2coarse: 14
		fine2coarse: 15
		fine2coarse: 18
		fine2coarse: 14
		fine2coarse: 14
		fine2coarse: 13
		fine2coarse: 14
		fine2coarse: 14
		fine2coarse: 14
		fine2coarse: 15
		fine2coarse: 15
		fine2coarse: 18
		fine2coarse: 12
		fine2coarse: 16
		fine2coarse: 16
		fine2coarse: 16
		fine2coarse: 15
		fine2coarse: 18
		fine2coarse: 15
		fine2coarse: 15
		fine2coarse: 18
		fine2coarse: 15
		fine2coarse: 15
		fine2coarse: 15
		fine2coarse: 15
		fine2coarse: 15
		fine2coarse: 17
		fine2coarse: 17
		fine2coarse: 15
		fine2coarse: 19
		fine2coarse: 15
		fine2coarse: 16
		fine2coarse: 18
		fine2coarse: 18
		fine2coarse: 17
		fine2coarse: 18
		fine2coarse: 17
		fine2coarse: 15
		fine2coarse: 17
		fine2coarse: 18
		fine2coarse: 16
		fine2coarse: 11
		fine2coarse: 16
		fine2coarse: 16
		fine2coarse: 17
		fine2coarse: 16
		fine2coarse: 12
		fine2coarse: 16
		fine2coarse: 15
		fine2coarse: 16
		fine2coarse: 12
		fine2coarse: 16
		fine2coarse: 17
		fine2coarse: 17
		fine2coarse: 17
		fine2coarse: 19
		fine2coarse: 18
		fine2coarse: 11
		fine2coarse: 19
		fine2coarse: 18
		fine2coarse: 15
		fine2coarse: 18
		fine2coarse: 19
		fine2coarse: 19
		fine2coarse: 18
		fine2coarse: 18
		fine2coarse: 19
		fine2coarse: 16
		fine2coarse: 16
		fine2coarse: 14
		fine2coarse: 14
		fine2coarse: 15
		fine2coarse: 11
		fine2coarse: 17
		fine2coarse: 19
		fine2coarse: 19
		fine2coarse: 22
		fine2coarse: 11
		fine2coarse: 19
		fine2coarse: 19
		fine2coarse: 22
		fine2coarse: 19
		fine2coarse: 19
		fine2coarse: 19
		fine2coarse: 23
		fine2coarse: 20
		fine2coarse: 20
		fine2coarse: 19
		fine2coarse: 20
		fine2coarse: 20
		fine2coarse: 23
		fine2coarse: 23
		fine2coarse: 19
		fine2coarse: 19
		fine2coarse: 19
		fine2coarse: 23
		fine2coarse: 19
		fine2coarse: 19
		fine2coarse: 19
		fine2coarse: 23
		fine2coarse: 19
		fine2coarse: 23
		fine2coarse: 23
		fine2coarse: 23
		fine2coarse: 6
		fine2coarse: 6
		fine2coarse: 6
		fine2coarse: 7
		fine2coarse: 21
		fine2coarse: 6
		fine2coarse: 21
		fine2coarse: 6
		fine2coarse: 6
		fine2coarse: 6
		fine2coarse: 7
		fine2coarse: 6
		fine2coarse: 21
		fine2coarse: 7
		fine2coarse: 7
		fine2coarse: 6
		fine2coarse: 6
		fine2coarse: 6
		fine2coarse: 6
		fine2coarse: 6
		fine2coarse: 66
		fine2coarse: 66
		fine2coarse: 10
		fine2coarse: 6
		fine2coarse: 10
		fine2coarse: 19
		fine2coarse: 10
		fine2coarse: 9
		fine2coarse: 8
		fine2coarse: 9
		fine2coarse: 19
		fine2coarse: 23
		fine2coarse: 19
		fine2coarse: 10
		fine2coarse: 24
		fine2coarse: 23
		fine2coarse: 22
		fine2coarse: 19
		fine2coarse: 22
		fine2coarse: 10
		fine2coarse: 66
		fine2coarse: 22
		fine2coarse: 22
		fine2coarse: 22
		fine2coarse: 22
		fine2coarse: 22
		fine2coarse: 22
		fine2coarse: 22
		fine2coarse: 22
		fine2coarse: 22
		fine2coarse: 22
		fine2coarse: 19
		fine2coarse: 10
		fine2coarse: 10
		fine2coarse: 22
		fine2coarse: 23
		fine2coarse: 23
		fine2coarse: 23
		fine2coarse: 23
		fine2coarse: 23
		fine2coarse: 23
		fine2coarse: 23
		fine2coarse: 23
		fine2coarse: 19
		fine2coarse: 25
		fine2coarse: 23
		fine2coarse: 25
		fine2coarse: 25
		fine2coarse: 24
		fine2coarse: 24
		fine2coarse: 24
		fine2coarse: 24
		fine2coarse: 25
		fine2coarse: 25
		fine2coarse: 25
		fine2coarse: 25
		fine2coarse: 38
		fine2coarse: 24
		fine2coarse: 25
		fine2coarse: 25
		fine2coarse: 25
		fine2coarse: 25
		fine2coarse: 25
		fine2coarse: 23
		fine2coarse: 25
		fine2coarse: 22
		fine2coarse: 22
		fine2coarse: 19
		fine2coarse: 10
		fine2coarse: 0
		fine2coarse: 9
		fine2coarse: 49
		fine2coarse: 8
		fine2coarse: 8
		fine2coarse: 0
		fine2coarse: 1
		fine2coarse: 8
		fine2coarse: 9
		fine2coarse: 62
		fine2coarse: 26
		fine2coarse: 47
		fine2coarse: 38
		fine2coarse: 42
		fine2coarse: 27
		fine2coarse: 27
		fine2coarse: 27
		fine2coarse: 63
		fine2coarse: 28
		fine2coarse: 27
		fine2coarse: 61
		fine2coarse: 38
		fine2coarse: 33
		fine2coarse: 30
		fine2coarse: 58
		fine2coarse: 74
		fine2coarse: 79
		fine2coarse: 68
		fine2coarse: 68
		fine2coarse: 62
		fine2coarse: 76
		fine2coarse: 42
		fine2coarse: 29
		fine2coarse: 49
		fine2coarse: 44
		fine2coarse: 54
		fine2coarse: 67
		fine2coarse: 66
		fine2coarse: 30
		fine2coarse: 46
		fine2coarse: 66
		fine2coarse: 66
		fine2coarse: 20
		fine2coarse: 31
		fine2coarse: 32
		fine2coarse: 33
		fine2coarse: 34
		fine2coarse: 28
		fine2coarse: 67
		fine2coarse: 35
		fine2coarse: 38
		fine2coarse: 56
		fine2coarse: 35
		fine2coarse: 71
		fine2coarse: 33
		fine2coarse: 49
		fine2coarse: 32
		fine2coarse: 72
		fine2coarse: 57
		fine2coarse: 61
		fine2coarse: 67
		fine2coarse: 59
		fine2coarse: 36
		fine2coarse: 69
		fine2coarse: 37
		fine2coarse: 77
		fine2coarse: 36
		fine2coarse: 44
		fine2coarse: 49
		fine2coarse: 38
		fine2coarse: 32
		fine2coarse: 39
		fine2coarse: 59
		fine2coarse: 44
		fine2coarse: 48
		fine2coarse: 36
		fine2coarse: 49
		fine2coarse: 66
		fine2coarse: 40
		fine2coarse: 28
		fine2coarse: 43
		fine2coarse: 45
		fine2coarse: 27
		fine2coarse: 66
		fine2coarse: 62
		fine2coarse: 69
		fine2coarse: 38
		fine2coarse: 59
		fine2coarse: 58
		fine2coarse: 77
		fine2coarse: 28
		fine2coarse: 54
		fine2coarse: 41
		fine2coarse: 41
		fine2coarse: 71
		fine2coarse: 27
		fine2coarse: 41
		fine2coarse: 42
		fine2coarse: 41
		fine2coarse: 36
		fine2coarse: 75
		fine2coarse: 49
		fine2coarse: 46
		fine2coarse: 37
		fine2coarse: 37
		fine2coarse: 43
		fine2coarse: 37
		fine2coarse: 33
		fine2coarse: 71
		fine2coarse: 61
		fine2coarse: 62
		fine2coarse: 66
		fine2coarse: 26
		fine2coarse: 49
		fine2coarse: 35
		fine2coarse: 55
		fine2coarse: 55
		fine2coarse: 65
		fine2coarse: 38
		fine2coarse: 76
		fine2coarse: 77
		fine2coarse: 67
		fine2coarse: 28
		fine2coarse: 58
		fine2coarse: 31
		fine2coarse: 64
		fine2coarse: 49
		fine2coarse: 76
		fine2coarse: 67
		fine2coarse: 49
		fine2coarse: 37
		fine2coarse: 70
		fine2coarse: 78
		fine2coarse: 59
		fine2coarse: 44
		fine2coarse: 59
		fine2coarse: 39
		fine2coarse: 73
		fine2coarse: 41
		fine2coarse: 44
		fine2coarse: 33
		fine2coarse: 41
		fine2coarse: 41
		fine2coarse: 63
		fine2coarse: 66
		fine2coarse: 73
		fine2coarse: 19
		fine2coarse: 39
		fine2coarse: 17
		fine2coarse: 67
		fine2coarse: 72
		fine2coarse: 27
		fine2coarse: 42
		fine2coarse: 62
		fine2coarse: 59
		fine2coarse: 78
		fine2coarse: 65
		fine2coarse: 42
		fine2coarse: 66
		fine2coarse: 73
		fine2coarse: 72
		fine2coarse: 10
		fine2coarse: 45
		fine2coarse: 68
		fine2coarse: 37
		fine2coarse: 27
		fine2coarse: 28
		fine2coarse: 29
		fine2coarse: 67
		fine2coarse: 31
		fine2coarse: 46
		fine2coarse: 59
		fine2coarse: 46
		fine2coarse: 67
		fine2coarse: 62
		fine2coarse: 70
		fine2coarse: 66
		fine2coarse: 42
		fine2coarse: 78
		fine2coarse: 26
		fine2coarse: 66
		fine2coarse: 45
		fine2coarse: 54
		fine2coarse: 30
		fine2coarse: 66
		fine2coarse: 38
		fine2coarse: 28
		fine2coarse: 67
		fine2coarse: 43
		fine2coarse: 64
		fine2coarse: 31
		fine2coarse: 75
		fine2coarse: 28
		fine2coarse: 40
		fine2coarse: 44
		fine2coarse: 36
		fine2coarse: 45
		fine2coarse: 46
		fine2coarse: 62
		fine2coarse: 40
		fine2coarse: 45
		fine2coarse: 41
		fine2coarse: 33
		fine2coarse: 41
		fine2coarse: 31
		fine2coarse: 42
		fine2coarse: 46
		fine2coarse: 58
		fine2coarse: 58
		fine2coarse: 73
		fine2coarse: 69
		fine2coarse: 36
		fine2coarse: 26
		fine2coarse: 59
		fine2coarse: 46
		fine2coarse: 66
		fine2coarse: 41
		fine2coarse: 41
		fine2coarse: 38
		fine2coarse: 26
		fine2coarse: 28
		fine2coarse: 26
		fine2coarse: 38
		fine2coarse: 38
		fine2coarse: 38
		fine2coarse: 47
		fine2coarse: 49
		fine2coarse: 36
		fine2coarse: 45
		fine2coarse: 48
		fine2coarse: 65
		fine2coarse: 41
		fine2coarse: 46
		fine2coarse: 57
		fine2coarse: 62
		fine2coarse: 37
		fine2coarse: 27
		fine2coarse: 45
		fine2coarse: 28
		fine2coarse: 27
		fine2coarse: 45
		fine2coarse: 49
		fine2coarse: 45
		fine2coarse: 45
		fine2coarse: 45
		fine2coarse: 75
		fine2coarse: 68
		fine2coarse: 61
		fine2coarse: 61
		fine2coarse: 68
		fine2coarse: 68
		fine2coarse: 68
		fine2coarse: 68
		fine2coarse: 68
		fine2coarse: 68
		fine2coarse: 68
		fine2coarse: 49
		fine2coarse: 68
		fine2coarse: 83
		fine2coarse: 37
		fine2coarse: 22
		fine2coarse: 45
		fine2coarse: 50
		fine2coarse: 50
		fine2coarse: 50
		fine2coarse: 51
		fine2coarse: 50
		fine2coarse: 51
		fine2coarse: 51
		fine2coarse: 51
		fine2coarse: 52
		fine2coarse: 52
		fine2coarse: 52
		fine2coarse: 52
		fine2coarse: 52
		fine2coarse: 52
		fine2coarse: 52
		fine2coarse: 52
		fine2coarse: 52
		fine2coarse: 52
		fine2coarse: 52
		fine2coarse: 52
		fine2coarse: 52
		fine2coarse: 52
		fine2coarse: 52
		fine2coarse: 52
		fine2coarse: 52
		fine2coarse: 52
		fine2coarse: 52
		fine2coarse: 52
		fine2coarse: 52
		fine2coarse: 52
		fine2coarse: 52
		fine2coarse: 52
		fine2coarse: 53
		fine2coarse: 53
		fine2coarse: 53
		fine2coarse: 53
		fine2coarse: 53
		fine2coarse: 53
		fine2coarse: 50
		fine2coarse: 46
		fine2coarse: 59
		fine2coarse: 77
		fine2coarse: 59
		fine2coarse: 38
		fine2coarse: 58
		fine2coarse: 62
		fine2coarse: 70
		fine2coarse: 71
		fine2coarse: 42
		fine2coarse: 20
		fine2coarse: 66
		fine2coarse: 38
		fine2coarse: 75
		fine2coarse: 61
		fine2coarse: 28
		fine2coarse: 29
		fine2coarse: 54
		fine2coarse: 27
		fine2coarse: 72
		fine2coarse: 72
		fine2coarse: 56
		fine2coarse: 59
		fine2coarse: 73
		fine2coarse: 36
		fine2coarse: 66
		fine2coarse: 38
		fine2coarse: 28
		fine2coarse: 67
		fine2coarse: 38
		fine2coarse: 30
		fine2coarse: 33
		fine2coarse: 68
		fine2coarse: 44
		fine2coarse: 67
		fine2coarse: 55
		fine2coarse: 58
		fine2coarse: 66
		fine2coarse: 20
		fine2coarse: 73
		fine2coarse: 46
		fine2coarse: 31
		fine2coarse: 41
		fine2coarse: 52
		fine2coarse: 28
		fine2coarse: 69
		fine2coarse: 38
		fine2coarse: 56
		fine2coarse: 30
		fine2coarse: 30
		fine2coarse: 62
		fine2coarse: 70
		fine2coarse: 41
		fine2coarse: 29
		fine2coarse: 27
		fine2coarse: 57
		fine2coarse: 59
		fine2coarse: 47
		fine2coarse: 72
		fine2coarse: 62
		fine2coarse: 20
		fine2coarse: 28
		fine2coarse: 44
		fine2coarse: 52
		fine2coarse: 41
		fine2coarse: 66
		fine2coarse: 30
		fine2coarse: 66
		fine2coarse: 44
		fine2coarse: 57
		fine2coarse: 37
		fine2coarse: 41
		fine2coarse: 47
		fine2coarse: 58
		fine2coarse: 58
		fine2coarse: 70
		fine2coarse: 22
		fine2coarse: 62
		fine2coarse: 59
		fine2coarse: 10
		fine2coarse: 49
		fine2coarse: 66
		fine2coarse: 36
		fine2coarse: 35
		fine2coarse: 49
		fine2coarse: 47
		fine2coarse: 42
		fine2coarse: 58
		fine2coarse: 60
		fine2coarse: 66
		fine2coarse: 27
		fine2coarse: 61
		fine2coarse: 73
		fine2coarse: 10
		fine2coarse: 62
		fine2coarse: 76
		fine2coarse: 60
		fine2coarse: 43
		fine2coarse: 49
		fine2coarse: 63
		fine2coarse: 23
		fine2coarse: 19
		fine2coarse: 44
		fine2coarse: 68
		fine2coarse: 70
		fine2coarse: 59
		fine2coarse: 64
		fine2coarse: 33
		fine2coarse: 38
		fine2coarse: 63
		fine2coarse: 61
		fine2coarse: 0
		fine2coarse: 66
		fine2coarse: 46
		fine2coarse: 56
		fine2coarse: 49
		fine2coarse: 69
		fine2coarse: 38
		fine2coarse: 59
		fine2coarse: 78
		fine2coarse: 66
		fine2coarse: 65
		fine2coarse: 27
		fine2coarse: 48
		fine2coarse: 66
		fine2coarse: 6
		fine2coarse: 43
		fine2coarse: 28
		fine2coarse: 65
		fine2coarse: 31
		fine2coarse: 66
		fine2coarse: 67
		fine2coarse: 68
		fine2coarse: 36
		fine2coarse: 69
		fine2coarse: 61
		fine2coarse: 41
		fine2coarse: 60
		fine2coarse: 48
		fine2coarse: 61
		fine2coarse: 46
		fine2coarse: 70
		fine2coarse: 38
		fine2coarse: 27
		fine2coarse: 74
		fine2coarse: 38
		fine2coarse: 32
		fine2coarse: 74
		fine2coarse: 45
		fine2coarse: 67
		fine2coarse: 36
		fine2coarse: 26
		fine2coarse: 34
		fine2coarse: 49
		fine2coarse: 57
		fine2coarse: 45
		fine2coarse: 65
		fine2coarse: 66
		fine2coarse: 41
		fine2coarse: 30
		fine2coarse: 47
		fine2coarse: 41
		fine2coarse: 10
		fine2coarse: 38
		fine2coarse: 70
		fine2coarse: 35
		fine2coarse: 46
		fine2coarse: 70
		fine2coarse: 71
		fine2coarse: 73
		fine2coarse: 77
		fine2coarse: 30
		fine2coarse: 45
		fine2coarse: 19
		fine2coarse: 28
		fine2coarse: 77
		fine2coarse: 46
		fine2coarse: 46
		fine2coarse: 36
		fine2coarse: 47
		fine2coarse: 44
		fine2coarse: 27
		fine2coarse: 57
		fine2coarse: 38
		fine2coarse: 66
		fine2coarse: 42
		fine2coarse: 34
		fine2coarse: 29
		fine2coarse: 66
		fine2coarse: 68
		fine2coarse: 49
		fine2coarse: 42
		fine2coarse: 54
		fine2coarse: 55
		fine2coarse: 71
		fine2coarse: 33
		fine2coarse: 61
		fine2coarse: 69
		fine2coarse: 67
		fine2coarse: 31
		fine2coarse: 68
		fine2coarse: 38
		fine2coarse: 43
		fine2coarse: 72
		fine2coarse: 37
		fine2coarse: 27
		fine2coarse: 30
		fine2coarse: 73
		fine2coarse: 35
		fine2coarse: 55
		fine2coarse: 66
		fine2coarse: 55
		fine2coarse: 36
		fine2coarse: 47
		fine2coarse: 63
		fine2coarse: 63
		fine2coarse: 74
		fine2coarse: 56
		fine2coarse: 27
		fine2coarse: 48
		fine2coarse: 48
		fine2coarse: 69
		fine2coarse: 75
		fine2coarse: 67
		fine2coarse: 27
		fine2coarse: 38
		fine2coarse: 38
		fine2coarse: 77
		fine2coarse: 76
		fine2coarse: 61
		fine2coarse: 61
		fine2coarse: 77
		fine2coarse: 38
		fine2coarse: 82
		fine2coarse: 82
		fine2coarse: 78
		fine2coarse: 78
		fine2coarse: 81
		fine2coarse: 82
		fine2coarse: 68
		fine2coarse: 79
		fine2coarse: 79
		fine2coarse: 79
		fine2coarse: 79
		fine2coarse: 79
		fine2coarse: 82
		fine2coarse: 81
		fine2coarse: 81
		fine2coarse: 81
		fine2coarse: 81
		fine2coarse: 81
		fine2coarse: 81
		fine2coarse: 81
		fine2coarse: 80
		fine2coarse: 81
		fine2coarse: 81
		fine2coarse: 66
		fine2coarse: 81
		fine2coarse: 81
		fine2coarse: 79
		fine2coarse: 81
		fine2coarse: 81
		fine2coarse: 81
		fine2coarse: 81
		fine2coarse: 81
		fine2coarse: 81
		fine2coarse: 81
		fine2coarse: 81
		fine2coarse: 22
		fine2coarse: 81
		fine2coarse: 82
		fine2coarse: 79
		fine2coarse: 79
		fine2coarse: 79
		fine2coarse: 82
		fine2coarse: 79
		fine2coarse: 30
		fine2coarse: 83
		fine2coarse: 30
		fine2coarse: 35
		fine2coarse: 67
		fine2coarse: 59
		fine2coarse: 39
		fine2coarse: 9
		fine2coarse: 10
		fine2coarse: 39
		fine2coarse: 39
		fine2coarse: 39
		fine2coarse: 39
		fine2coarse: 39
		fine2coarse: 39
		fine2coarse: 59
		fine2coarse: 49
		fine2coarse: 0
		fine2coarse: 22
		fine2coarse: 66
		fine2coarse: 66
		fine2coarse: 82
		fine2coarse: 81
		fine2coarse: 81
		fine2coarse: 81
		fine2coarse: 66
		fine2coarse: 66
		fine2coarse: 38
		fine2coarse: 8
		fine2coarse: 8
		fine2coarse: 8
		fine2coarse: 81
		fine2coarse: 81
		fine2coarse: 20
	}
}
layer {
  bottom: "pool4"
  top: "cluster00_conv5_1"
  name: "cluster00_conv5_1"
  type: "Convolution"
  param {
    lr_mult: 1
    decay_mult: 1
  }
  param {
    lr_mult: 2
    decay_mult: 0
  }  
  convolution_param {
    num_output: 512
    pad: 1
    kernel_size: 3
  }
  conserve_gpu_memory_test: true  
}
layer {
  bottom: "cluster00_conv5_1"
  top: "cluster00_conv5_1"
  name: "cluster00_Relu5_1"
  type: "ReLU"
}
layer {
  bottom: "cluster00_conv5_1"
  top: "cluster00_conv5_2"
  name: "cluster00_conv5_2"
  type: "Convolution"
  param {
    lr_mult: 1
    decay_mult: 1
  }
  param {
    lr_mult: 2
    decay_mult: 0
  }  
  convolution_param {
    num_output: 512
    pad: 1
    kernel_size: 3
  }
  conserve_gpu_memory_test: true  
}
layer {
  bottom: "cluster00_conv5_2"
  top: "cluster00_conv5_2"
  name: "cluster00_Relu5_2"
  type: "ReLU"
}
layer {
  bottom: "cluster00_conv5_2"
  top: "cluster00_conv5_3"
  name: "cluster00_conv5_3"
  type: "Convolution"
  param {
    lr_mult: 1
    decay_mult: 1
  }
  param {
    lr_mult: 2
    decay_mult: 0
  }  
  convolution_param {
    num_output: 512
    pad: 1
    kernel_size: 3
  }
  conserve_gpu_memory_test: true  
}
layer {
  bottom: "cluster00_conv5_3"
  top: "cluster00_conv5_3"
  name: "cluster00_Relu5_3"
  type: "ReLU"
}
layer {
  bottom: "cluster00_conv5_3"
  top: "cluster00_pool5"
  name: "cluster00_pool5"
  type: "Pooling"
  pooling_param {
    pool: MAX
    kernel_size: 2
    stride: 2
  }
}
layer {
  bottom: "cluster00_pool5"
  top: "cluster00_fc6"
  name: "cluster00_fc6"
  type: "InnerProduct"
  param {
    lr_mult: 1
    decay_mult: 1
  }
  param {
    lr_mult: 2
    decay_mult: 0
  }  
  inner_product_param {
    num_output: 4096
    weight_filler {
      type: "gaussian"
      std: 0.1
    }
    bias_filler {
      type: "constant"
      value: 0
    }
		quantization_kmean_num_cluster: 128
		quantization_num_segment: 1792
		quantization_kmean_cluster_centers_file: "models/VGG_ILSVRC_16_layers/211839e770f7b538e2d8/84clusters/84clusters_v2.0/iter_12000/cluster00_fc6_128_1792_kmean_cluster_centers.binaryproto"
		quantization_kmean_cluster_indices_file: "models/VGG_ILSVRC_16_layers/211839e770f7b538e2d8/84clusters/84clusters_v2.0/iter_12000/cluster00_fc6_128_1792_kmean_cluster_indices.binaryproto"
  }
	conserve_gpu_memory_test: true
	parameter_compress: true
}
layer {
  bottom: "cluster00_fc6"
  top: "cluster00_fc6"
  name: "cluster00_Relu6"
  type: "ReLU"
}
layer {
  bottom: "cluster00_fc6"
  top: "cluster00_fc6"
  name: "cluster00_drop6"
  type: "Dropout"
  dropout_param {
    dropout_ratio: 0.5
  }
}
layer {
  bottom: "cluster00_fc6"
  top: "cluster00_fc7"
  name: "cluster00_fc7"
  type: "InnerProduct"
  param {
    lr_mult: 1
    decay_mult: 1
  }
  param {
    lr_mult: 2
    decay_mult: 0
  }  
  inner_product_param {
    num_output: 4096
    weight_filler {
      type: "gaussian"
      std: 0.1
    }
    bias_filler {
      type: "constant"
      value: 0
    }
		quantization_kmean_num_cluster: 256
		quantization_num_segment: 1024
		quantization_kmean_cluster_centers_file: "models/VGG_ILSVRC_16_layers/211839e770f7b538e2d8/84clusters/84clusters_v2.0/iter_12000/cluster00_fc7_256_1024_kmean_cluster_centers.binaryproto"
		quantization_kmean_cluster_indices_file: "models/VGG_ILSVRC_16_layers/211839e770f7b538e2d8/84clusters/84clusters_v2.0/iter_12000/cluster00_fc7_256_1024_kmean_cluster_indices.binaryproto"
  }
	conserve_gpu_memory_test: true
	parameter_compress: true
}
layer {
  bottom: "cluster00_fc7"
  top: "cluster00_fc7"
  name: "cluster00_Relu7"
  type: "ReLU"
}
layer {
  bottom: "cluster00_fc7"
  top: "cluster00_fc7"
  name: "cluster00_drop7"
  type: "Dropout"
  dropout_param {
    dropout_ratio: 0.5
  }
}
layer {
  bottom: "cluster00_fc7"
  top: "cluster00_fc8_compact"
  name: "cluster00_fc8_compact"
  type: "InnerProduct"
  param {
    lr_mult: 1
    decay_mult: 1
  }
  param {
    lr_mult: 2
    decay_mult: 0
  }  
  inner_product_param {
	num_output: 101
    weight_filler {
      type: "gaussian"
      std: 0.01
    }
    bias_filler {
      type: "constant"
      value: 0
    }     
  }
}

layer {
name: "cluster00_prob_compact"
type: "Softmax"
bottom: "cluster00_fc8_compact"
top: "cluster00_prob_compact"
}
layer {
  bottom: "pool4"
  top: "cluster01_conv5_1"
  name: "cluster01_conv5_1"
  type: "Convolution"
  param {
    lr_mult: 1
    decay_mult: 1
  }
  param {
    lr_mult: 2
    decay_mult: 0
  }  
  convolution_param {
    num_output: 512
    pad: 1
    kernel_size: 3
  }
  conserve_gpu_memory_test: true  
}
layer {
  bottom: "cluster01_conv5_1"
  top: "cluster01_conv5_1"
  name: "cluster01_Relu5_1"
  type: "ReLU"
}
layer {
  bottom: "cluster01_conv5_1"
  top: "cluster01_conv5_2"
  name: "cluster01_conv5_2"
  type: "Convolution"
  param {
    lr_mult: 1
    decay_mult: 1
  }
  param {
    lr_mult: 2
    decay_mult: 0
  }  
  convolution_param {
    num_output: 512
    pad: 1
    kernel_size: 3
  }
  conserve_gpu_memory_test: true  
}
layer {
  bottom: "cluster01_conv5_2"
  top: "cluster01_conv5_2"
  name: "cluster01_Relu5_2"
  type: "ReLU"
}
layer {
  bottom: "cluster01_conv5_2"
  top: "cluster01_conv5_3"
  name: "cluster01_conv5_3"
  type: "Convolution"
  param {
    lr_mult: 1
    decay_mult: 1
  }
  param {
    lr_mult: 2
    decay_mult: 0
  }  
  convolution_param {
    num_output: 512
    pad: 1
    kernel_size: 3
  }
  conserve_gpu_memory_test: true  
}
layer {
  bottom: "cluster01_conv5_3"
  top: "cluster01_conv5_3"
  name: "cluster01_Relu5_3"
  type: "ReLU"
}
layer {
  bottom: "cluster01_conv5_3"
  top: "cluster01_pool5"
  name: "cluster01_pool5"
  type: "Pooling"
  pooling_param {
    pool: MAX
    kernel_size: 2
    stride: 2
  }
}
layer {
  bottom: "cluster01_pool5"
  top: "cluster01_fc6"
  name: "cluster01_fc6"
  type: "InnerProduct"
  param {
    lr_mult: 1
    decay_mult: 1
  }
  param {
    lr_mult: 2
    decay_mult: 0
  }  
  inner_product_param {
    num_output: 4096
    weight_filler {
      type: "gaussian"
      std: 0.1
    }
    bias_filler {
      type: "constant"
      value: 0
    }
		quantization_kmean_num_cluster: 128
		quantization_num_segment: 1792
		quantization_kmean_cluster_centers_file: "models/VGG_ILSVRC_16_layers/211839e770f7b538e2d8/84clusters/84clusters_v2.0/iter_12000/cluster01_fc6_128_1792_kmean_cluster_centers.binaryproto"
		quantization_kmean_cluster_indices_file: "models/VGG_ILSVRC_16_layers/211839e770f7b538e2d8/84clusters/84clusters_v2.0/iter_12000/cluster01_fc6_128_1792_kmean_cluster_indices.binaryproto"
  }
	conserve_gpu_memory_test: true
	parameter_compress: true
}
layer {
  bottom: "cluster01_fc6"
  top: "cluster01_fc6"
  name: "cluster01_Relu6"
  type: "ReLU"
}
layer {
  bottom: "cluster01_fc6"
  top: "cluster01_fc6"
  name: "cluster01_drop6"
  type: "Dropout"
  dropout_param {
    dropout_ratio: 0.5
  }
}
layer {
  bottom: "cluster01_fc6"
  top: "cluster01_fc7"
  name: "cluster01_fc7"
  type: "InnerProduct"
  param {
    lr_mult: 1
    decay_mult: 1
  }
  param {
    lr_mult: 2
    decay_mult: 0
  }  
  inner_product_param {
    num_output: 4096
    weight_filler {
      type: "gaussian"
      std: 0.1
    }
    bias_filler {
      type: "constant"
      value: 0
    }
		quantization_kmean_num_cluster: 256
		quantization_num_segment: 1024
		quantization_kmean_cluster_centers_file: "models/VGG_ILSVRC_16_layers/211839e770f7b538e2d8/84clusters/84clusters_v2.0/iter_12000/cluster01_fc7_256_1024_kmean_cluster_centers.binaryproto"
		quantization_kmean_cluster_indices_file: "models/VGG_ILSVRC_16_layers/211839e770f7b538e2d8/84clusters/84clusters_v2.0/iter_12000/cluster01_fc7_256_1024_kmean_cluster_indices.binaryproto"
  }
	conserve_gpu_memory_test: true
	parameter_compress: true
}
layer {
  bottom: "cluster01_fc7"
  top: "cluster01_fc7"
  name: "cluster01_Relu7"
  type: "ReLU"
}
layer {
  bottom: "cluster01_fc7"
  top: "cluster01_fc7"
  name: "cluster01_drop7"
  type: "Dropout"
  dropout_param {
    dropout_ratio: 0.5
  }
}
layer {
  bottom: "cluster01_fc7"
  top: "cluster01_fc8_compact"
  name: "cluster01_fc8_compact"
  type: "InnerProduct"
  param {
    lr_mult: 1
    decay_mult: 1
  }
  param {
    lr_mult: 2
    decay_mult: 0
  }  
  inner_product_param {
	num_output: 101
    weight_filler {
      type: "gaussian"
      std: 0.01
    }
    bias_filler {
      type: "constant"
      value: 0
    }     
  }
}

layer {
name: "cluster01_prob_compact"
type: "Softmax"
bottom: "cluster01_fc8_compact"
top: "cluster01_prob_compact"
}
layer {
  bottom: "pool4"
  top: "cluster02_conv5_1"
  name: "cluster02_conv5_1"
  type: "Convolution"
  param {
    lr_mult: 1
    decay_mult: 1
  }
  param {
    lr_mult: 2
    decay_mult: 0
  }  
  convolution_param {
    num_output: 512
    pad: 1
    kernel_size: 3
  }
  conserve_gpu_memory_test: true  
}
layer {
  bottom: "cluster02_conv5_1"
  top: "cluster02_conv5_1"
  name: "cluster02_Relu5_1"
  type: "ReLU"
}
layer {
  bottom: "cluster02_conv5_1"
  top: "cluster02_conv5_2"
  name: "cluster02_conv5_2"
  type: "Convolution"
  param {
    lr_mult: 1
    decay_mult: 1
  }
  param {
    lr_mult: 2
    decay_mult: 0
  }  
  convolution_param {
    num_output: 512
    pad: 1
    kernel_size: 3
  }
  conserve_gpu_memory_test: true  
}
layer {
  bottom: "cluster02_conv5_2"
  top: "cluster02_conv5_2"
  name: "cluster02_Relu5_2"
  type: "ReLU"
}
layer {
  bottom: "cluster02_conv5_2"
  top: "cluster02_conv5_3"
  name: "cluster02_conv5_3"
  type: "Convolution"
  param {
    lr_mult: 1
    decay_mult: 1
  }
  param {
    lr_mult: 2
    decay_mult: 0
  }  
  convolution_param {
    num_output: 512
    pad: 1
    kernel_size: 3
  }
  conserve_gpu_memory_test: true  
}
layer {
  bottom: "cluster02_conv5_3"
  top: "cluster02_conv5_3"
  name: "cluster02_Relu5_3"
  type: "ReLU"
}
layer {
  bottom: "cluster02_conv5_3"
  top: "cluster02_pool5"
  name: "cluster02_pool5"
  type: "Pooling"
  pooling_param {
    pool: MAX
    kernel_size: 2
    stride: 2
  }
}
layer {
  bottom: "cluster02_pool5"
  top: "cluster02_fc6"
  name: "cluster02_fc6"
  type: "InnerProduct"
  param {
    lr_mult: 1
    decay_mult: 1
  }
  param {
    lr_mult: 2
    decay_mult: 0
  }  
  inner_product_param {
    num_output: 4096
    weight_filler {
      type: "gaussian"
      std: 0.1
    }
    bias_filler {
      type: "constant"
      value: 0
    }
		quantization_kmean_num_cluster: 128
		quantization_num_segment: 1792
		quantization_kmean_cluster_centers_file: "models/VGG_ILSVRC_16_layers/211839e770f7b538e2d8/84clusters/84clusters_v2.0/iter_12000/cluster02_fc6_128_1792_kmean_cluster_centers.binaryproto"
		quantization_kmean_cluster_indices_file: "models/VGG_ILSVRC_16_layers/211839e770f7b538e2d8/84clusters/84clusters_v2.0/iter_12000/cluster02_fc6_128_1792_kmean_cluster_indices.binaryproto"
  }
	conserve_gpu_memory_test: true
	parameter_compress: true
}
layer {
  bottom: "cluster02_fc6"
  top: "cluster02_fc6"
  name: "cluster02_Relu6"
  type: "ReLU"
}
layer {
  bottom: "cluster02_fc6"
  top: "cluster02_fc6"
  name: "cluster02_drop6"
  type: "Dropout"
  dropout_param {
    dropout_ratio: 0.5
  }
}
layer {
  bottom: "cluster02_fc6"
  top: "cluster02_fc7"
  name: "cluster02_fc7"
  type: "InnerProduct"
  param {
    lr_mult: 1
    decay_mult: 1
  }
  param {
    lr_mult: 2
    decay_mult: 0
  }  
  inner_product_param {
    num_output: 4096
    weight_filler {
      type: "gaussian"
      std: 0.1
    }
    bias_filler {
      type: "constant"
      value: 0
    }
		quantization_kmean_num_cluster: 256
		quantization_num_segment: 1024
		quantization_kmean_cluster_centers_file: "models/VGG_ILSVRC_16_layers/211839e770f7b538e2d8/84clusters/84clusters_v2.0/iter_12000/cluster02_fc7_256_1024_kmean_cluster_centers.binaryproto"
		quantization_kmean_cluster_indices_file: "models/VGG_ILSVRC_16_layers/211839e770f7b538e2d8/84clusters/84clusters_v2.0/iter_12000/cluster02_fc7_256_1024_kmean_cluster_indices.binaryproto"
  }
	conserve_gpu_memory_test: true
	parameter_compress: true
}
layer {
  bottom: "cluster02_fc7"
  top: "cluster02_fc7"
  name: "cluster02_Relu7"
  type: "ReLU"
}
layer {
  bottom: "cluster02_fc7"
  top: "cluster02_fc7"
  name: "cluster02_drop7"
  type: "Dropout"
  dropout_param {
    dropout_ratio: 0.5
  }
}
layer {
  bottom: "cluster02_fc7"
  top: "cluster02_fc8_compact"
  name: "cluster02_fc8_compact"
  type: "InnerProduct"
  param {
    lr_mult: 1
    decay_mult: 1
  }
  param {
    lr_mult: 2
    decay_mult: 0
  }  
  inner_product_param {
	num_output: 89
    weight_filler {
      type: "gaussian"
      std: 0.01
    }
    bias_filler {
      type: "constant"
      value: 0
    }     
  }
}

layer {
name: "cluster02_prob_compact"
type: "Softmax"
bottom: "cluster02_fc8_compact"
top: "cluster02_prob_compact"
}
layer {
  bottom: "pool4"
  top: "cluster03_conv5_1"
  name: "cluster03_conv5_1"
  type: "Convolution"
  param {
    lr_mult: 1
    decay_mult: 1
  }
  param {
    lr_mult: 2
    decay_mult: 0
  }  
  convolution_param {
    num_output: 512
    pad: 1
    kernel_size: 3
  }
  conserve_gpu_memory_test: true  
}
layer {
  bottom: "cluster03_conv5_1"
  top: "cluster03_conv5_1"
  name: "cluster03_Relu5_1"
  type: "ReLU"
}
layer {
  bottom: "cluster03_conv5_1"
  top: "cluster03_conv5_2"
  name: "cluster03_conv5_2"
  type: "Convolution"
  param {
    lr_mult: 1
    decay_mult: 1
  }
  param {
    lr_mult: 2
    decay_mult: 0
  }  
  convolution_param {
    num_output: 512
    pad: 1
    kernel_size: 3
  }
  conserve_gpu_memory_test: true  
}
layer {
  bottom: "cluster03_conv5_2"
  top: "cluster03_conv5_2"
  name: "cluster03_Relu5_2"
  type: "ReLU"
}
layer {
  bottom: "cluster03_conv5_2"
  top: "cluster03_conv5_3"
  name: "cluster03_conv5_3"
  type: "Convolution"
  param {
    lr_mult: 1
    decay_mult: 1
  }
  param {
    lr_mult: 2
    decay_mult: 0
  }  
  convolution_param {
    num_output: 512
    pad: 1
    kernel_size: 3
  }
  conserve_gpu_memory_test: true  
}
layer {
  bottom: "cluster03_conv5_3"
  top: "cluster03_conv5_3"
  name: "cluster03_Relu5_3"
  type: "ReLU"
}
layer {
  bottom: "cluster03_conv5_3"
  top: "cluster03_pool5"
  name: "cluster03_pool5"
  type: "Pooling"
  pooling_param {
    pool: MAX
    kernel_size: 2
    stride: 2
  }
}
layer {
  bottom: "cluster03_pool5"
  top: "cluster03_fc6"
  name: "cluster03_fc6"
  type: "InnerProduct"
  param {
    lr_mult: 1
    decay_mult: 1
  }
  param {
    lr_mult: 2
    decay_mult: 0
  }  
  inner_product_param {
    num_output: 4096
    weight_filler {
      type: "gaussian"
      std: 0.1
    }
    bias_filler {
      type: "constant"
      value: 0
    }
		quantization_kmean_num_cluster: 128
		quantization_num_segment: 1792
		quantization_kmean_cluster_centers_file: "models/VGG_ILSVRC_16_layers/211839e770f7b538e2d8/84clusters/84clusters_v2.0/iter_12000/cluster03_fc6_128_1792_kmean_cluster_centers.binaryproto"
		quantization_kmean_cluster_indices_file: "models/VGG_ILSVRC_16_layers/211839e770f7b538e2d8/84clusters/84clusters_v2.0/iter_12000/cluster03_fc6_128_1792_kmean_cluster_indices.binaryproto"
  }
	conserve_gpu_memory_test: true
	parameter_compress: true
}
layer {
  bottom: "cluster03_fc6"
  top: "cluster03_fc6"
  name: "cluster03_Relu6"
  type: "ReLU"
}
layer {
  bottom: "cluster03_fc6"
  top: "cluster03_fc6"
  name: "cluster03_drop6"
  type: "Dropout"
  dropout_param {
    dropout_ratio: 0.5
  }
}
layer {
  bottom: "cluster03_fc6"
  top: "cluster03_fc7"
  name: "cluster03_fc7"
  type: "InnerProduct"
  param {
    lr_mult: 1
    decay_mult: 1
  }
  param {
    lr_mult: 2
    decay_mult: 0
  }  
  inner_product_param {
    num_output: 4096
    weight_filler {
      type: "gaussian"
      std: 0.1
    }
    bias_filler {
      type: "constant"
      value: 0
    }
		quantization_kmean_num_cluster: 256
		quantization_num_segment: 1024
		quantization_kmean_cluster_centers_file: "models/VGG_ILSVRC_16_layers/211839e770f7b538e2d8/84clusters/84clusters_v2.0/iter_12000/cluster03_fc7_256_1024_kmean_cluster_centers.binaryproto"
		quantization_kmean_cluster_indices_file: "models/VGG_ILSVRC_16_layers/211839e770f7b538e2d8/84clusters/84clusters_v2.0/iter_12000/cluster03_fc7_256_1024_kmean_cluster_indices.binaryproto"
  }
	conserve_gpu_memory_test: true
	parameter_compress: true
}
layer {
  bottom: "cluster03_fc7"
  top: "cluster03_fc7"
  name: "cluster03_Relu7"
  type: "ReLU"
}
layer {
  bottom: "cluster03_fc7"
  top: "cluster03_fc7"
  name: "cluster03_drop7"
  type: "Dropout"
  dropout_param {
    dropout_ratio: 0.5
  }
}
layer {
  bottom: "cluster03_fc7"
  top: "cluster03_fc8_compact"
  name: "cluster03_fc8_compact"
  type: "InnerProduct"
  param {
    lr_mult: 1
    decay_mult: 1
  }
  param {
    lr_mult: 2
    decay_mult: 0
  }  
  inner_product_param {
	num_output: 48
    weight_filler {
      type: "gaussian"
      std: 0.01
    }
    bias_filler {
      type: "constant"
      value: 0
    }     
  }
}

layer {
name: "cluster03_prob_compact"
type: "Softmax"
bottom: "cluster03_fc8_compact"
top: "cluster03_prob_compact"
}
layer {
  bottom: "pool4"
  top: "cluster04_conv5_1"
  name: "cluster04_conv5_1"
  type: "Convolution"
  param {
    lr_mult: 1
    decay_mult: 1
  }
  param {
    lr_mult: 2
    decay_mult: 0
  }  
  convolution_param {
    num_output: 512
    pad: 1
    kernel_size: 3
  }
  conserve_gpu_memory_test: true  
}
layer {
  bottom: "cluster04_conv5_1"
  top: "cluster04_conv5_1"
  name: "cluster04_Relu5_1"
  type: "ReLU"
}
layer {
  bottom: "cluster04_conv5_1"
  top: "cluster04_conv5_2"
  name: "cluster04_conv5_2"
  type: "Convolution"
  param {
    lr_mult: 1
    decay_mult: 1
  }
  param {
    lr_mult: 2
    decay_mult: 0
  }  
  convolution_param {
    num_output: 512
    pad: 1
    kernel_size: 3
  }
  conserve_gpu_memory_test: true  
}
layer {
  bottom: "cluster04_conv5_2"
  top: "cluster04_conv5_2"
  name: "cluster04_Relu5_2"
  type: "ReLU"
}
layer {
  bottom: "cluster04_conv5_2"
  top: "cluster04_conv5_3"
  name: "cluster04_conv5_3"
  type: "Convolution"
  param {
    lr_mult: 1
    decay_mult: 1
  }
  param {
    lr_mult: 2
    decay_mult: 0
  }  
  convolution_param {
    num_output: 512
    pad: 1
    kernel_size: 3
  }
  conserve_gpu_memory_test: true  
}
layer {
  bottom: "cluster04_conv5_3"
  top: "cluster04_conv5_3"
  name: "cluster04_Relu5_3"
  type: "ReLU"
}
layer {
  bottom: "cluster04_conv5_3"
  top: "cluster04_pool5"
  name: "cluster04_pool5"
  type: "Pooling"
  pooling_param {
    pool: MAX
    kernel_size: 2
    stride: 2
  }
}
layer {
  bottom: "cluster04_pool5"
  top: "cluster04_fc6"
  name: "cluster04_fc6"
  type: "InnerProduct"
  param {
    lr_mult: 1
    decay_mult: 1
  }
  param {
    lr_mult: 2
    decay_mult: 0
  }  
  inner_product_param {
    num_output: 4096
    weight_filler {
      type: "gaussian"
      std: 0.1
    }
    bias_filler {
      type: "constant"
      value: 0
    }
		quantization_kmean_num_cluster: 128
		quantization_num_segment: 1792
		quantization_kmean_cluster_centers_file: "models/VGG_ILSVRC_16_layers/211839e770f7b538e2d8/84clusters/84clusters_v2.0/iter_12000/cluster04_fc6_128_1792_kmean_cluster_centers.binaryproto"
		quantization_kmean_cluster_indices_file: "models/VGG_ILSVRC_16_layers/211839e770f7b538e2d8/84clusters/84clusters_v2.0/iter_12000/cluster04_fc6_128_1792_kmean_cluster_indices.binaryproto"
  }
	conserve_gpu_memory_test: true
	parameter_compress: true
}
layer {
  bottom: "cluster04_fc6"
  top: "cluster04_fc6"
  name: "cluster04_Relu6"
  type: "ReLU"
}
layer {
  bottom: "cluster04_fc6"
  top: "cluster04_fc6"
  name: "cluster04_drop6"
  type: "Dropout"
  dropout_param {
    dropout_ratio: 0.5
  }
}
layer {
  bottom: "cluster04_fc6"
  top: "cluster04_fc7"
  name: "cluster04_fc7"
  type: "InnerProduct"
  param {
    lr_mult: 1
    decay_mult: 1
  }
  param {
    lr_mult: 2
    decay_mult: 0
  }  
  inner_product_param {
    num_output: 4096
    weight_filler {
      type: "gaussian"
      std: 0.1
    }
    bias_filler {
      type: "constant"
      value: 0
    }
		quantization_kmean_num_cluster: 256
		quantization_num_segment: 1024
		quantization_kmean_cluster_centers_file: "models/VGG_ILSVRC_16_layers/211839e770f7b538e2d8/84clusters/84clusters_v2.0/iter_12000/cluster04_fc7_256_1024_kmean_cluster_centers.binaryproto"
		quantization_kmean_cluster_indices_file: "models/VGG_ILSVRC_16_layers/211839e770f7b538e2d8/84clusters/84clusters_v2.0/iter_12000/cluster04_fc7_256_1024_kmean_cluster_indices.binaryproto"
  }
	conserve_gpu_memory_test: true
	parameter_compress: true
}
layer {
  bottom: "cluster04_fc7"
  top: "cluster04_fc7"
  name: "cluster04_Relu7"
  type: "ReLU"
}
layer {
  bottom: "cluster04_fc7"
  top: "cluster04_fc7"
  name: "cluster04_drop7"
  type: "Dropout"
  dropout_param {
    dropout_ratio: 0.5
  }
}
layer {
  bottom: "cluster04_fc7"
  top: "cluster04_fc8_compact"
  name: "cluster04_fc8_compact"
  type: "InnerProduct"
  param {
    lr_mult: 1
    decay_mult: 1
  }
  param {
    lr_mult: 2
    decay_mult: 0
  }  
  inner_product_param {
	num_output: 84
    weight_filler {
      type: "gaussian"
      std: 0.01
    }
    bias_filler {
      type: "constant"
      value: 0
    }     
  }
}

layer {
name: "cluster04_prob_compact"
type: "Softmax"
bottom: "cluster04_fc8_compact"
top: "cluster04_prob_compact"
}
layer {
  bottom: "pool4"
  top: "cluster05_conv5_1"
  name: "cluster05_conv5_1"
  type: "Convolution"
  param {
    lr_mult: 1
    decay_mult: 1
  }
  param {
    lr_mult: 2
    decay_mult: 0
  }  
  convolution_param {
    num_output: 512
    pad: 1
    kernel_size: 3
  }
  conserve_gpu_memory_test: true  
}
layer {
  bottom: "cluster05_conv5_1"
  top: "cluster05_conv5_1"
  name: "cluster05_Relu5_1"
  type: "ReLU"
}
layer {
  bottom: "cluster05_conv5_1"
  top: "cluster05_conv5_2"
  name: "cluster05_conv5_2"
  type: "Convolution"
  param {
    lr_mult: 1
    decay_mult: 1
  }
  param {
    lr_mult: 2
    decay_mult: 0
  }  
  convolution_param {
    num_output: 512
    pad: 1
    kernel_size: 3
  }
  conserve_gpu_memory_test: true  
}
layer {
  bottom: "cluster05_conv5_2"
  top: "cluster05_conv5_2"
  name: "cluster05_Relu5_2"
  type: "ReLU"
}
layer {
  bottom: "cluster05_conv5_2"
  top: "cluster05_conv5_3"
  name: "cluster05_conv5_3"
  type: "Convolution"
  param {
    lr_mult: 1
    decay_mult: 1
  }
  param {
    lr_mult: 2
    decay_mult: 0
  }  
  convolution_param {
    num_output: 512
    pad: 1
    kernel_size: 3
  }
  conserve_gpu_memory_test: true  
}
layer {
  bottom: "cluster05_conv5_3"
  top: "cluster05_conv5_3"
  name: "cluster05_Relu5_3"
  type: "ReLU"
}
layer {
  bottom: "cluster05_conv5_3"
  top: "cluster05_pool5"
  name: "cluster05_pool5"
  type: "Pooling"
  pooling_param {
    pool: MAX
    kernel_size: 2
    stride: 2
  }
}
layer {
  bottom: "cluster05_pool5"
  top: "cluster05_fc6"
  name: "cluster05_fc6"
  type: "InnerProduct"
  param {
    lr_mult: 1
    decay_mult: 1
  }
  param {
    lr_mult: 2
    decay_mult: 0
  }  
  inner_product_param {
    num_output: 4096
    weight_filler {
      type: "gaussian"
      std: 0.1
    }
    bias_filler {
      type: "constant"
      value: 0
    }
		quantization_kmean_num_cluster: 128
		quantization_num_segment: 1792
		quantization_kmean_cluster_centers_file: "models/VGG_ILSVRC_16_layers/211839e770f7b538e2d8/84clusters/84clusters_v2.0/iter_12000/cluster05_fc6_128_1792_kmean_cluster_centers.binaryproto"
		quantization_kmean_cluster_indices_file: "models/VGG_ILSVRC_16_layers/211839e770f7b538e2d8/84clusters/84clusters_v2.0/iter_12000/cluster05_fc6_128_1792_kmean_cluster_indices.binaryproto"
  }
	conserve_gpu_memory_test: true
	parameter_compress: true
}
layer {
  bottom: "cluster05_fc6"
  top: "cluster05_fc6"
  name: "cluster05_Relu6"
  type: "ReLU"
}
layer {
  bottom: "cluster05_fc6"
  top: "cluster05_fc6"
  name: "cluster05_drop6"
  type: "Dropout"
  dropout_param {
    dropout_ratio: 0.5
  }
}
layer {
  bottom: "cluster05_fc6"
  top: "cluster05_fc7"
  name: "cluster05_fc7"
  type: "InnerProduct"
  param {
    lr_mult: 1
    decay_mult: 1
  }
  param {
    lr_mult: 2
    decay_mult: 0
  }  
  inner_product_param {
    num_output: 4096
    weight_filler {
      type: "gaussian"
      std: 0.1
    }
    bias_filler {
      type: "constant"
      value: 0
    }
		quantization_kmean_num_cluster: 256
		quantization_num_segment: 1024
		quantization_kmean_cluster_centers_file: "models/VGG_ILSVRC_16_layers/211839e770f7b538e2d8/84clusters/84clusters_v2.0/iter_12000/cluster05_fc7_256_1024_kmean_cluster_centers.binaryproto"
		quantization_kmean_cluster_indices_file: "models/VGG_ILSVRC_16_layers/211839e770f7b538e2d8/84clusters/84clusters_v2.0/iter_12000/cluster05_fc7_256_1024_kmean_cluster_indices.binaryproto"
  }
	conserve_gpu_memory_test: true
	parameter_compress: true
}
layer {
  bottom: "cluster05_fc7"
  top: "cluster05_fc7"
  name: "cluster05_Relu7"
  type: "ReLU"
}
layer {
  bottom: "cluster05_fc7"
  top: "cluster05_fc7"
  name: "cluster05_drop7"
  type: "Dropout"
  dropout_param {
    dropout_ratio: 0.5
  }
}
layer {
  bottom: "cluster05_fc7"
  top: "cluster05_fc8_compact"
  name: "cluster05_fc8_compact"
  type: "InnerProduct"
  param {
    lr_mult: 1
    decay_mult: 1
  }
  param {
    lr_mult: 2
    decay_mult: 0
  }  
  inner_product_param {
	num_output: 52
    weight_filler {
      type: "gaussian"
      std: 0.01
    }
    bias_filler {
      type: "constant"
      value: 0
    }     
  }
}

layer {
name: "cluster05_prob_compact"
type: "Softmax"
bottom: "cluster05_fc8_compact"
top: "cluster05_prob_compact"
}
layer {
  bottom: "pool4"
  top: "cluster06_conv5_1"
  name: "cluster06_conv5_1"
  type: "Convolution"
  param {
    lr_mult: 1
    decay_mult: 1
  }
  param {
    lr_mult: 2
    decay_mult: 0
  }  
  convolution_param {
    num_output: 512
    pad: 1
    kernel_size: 3
  }
  conserve_gpu_memory_test: true  
}
layer {
  bottom: "cluster06_conv5_1"
  top: "cluster06_conv5_1"
  name: "cluster06_Relu5_1"
  type: "ReLU"
}
layer {
  bottom: "cluster06_conv5_1"
  top: "cluster06_conv5_2"
  name: "cluster06_conv5_2"
  type: "Convolution"
  param {
    lr_mult: 1
    decay_mult: 1
  }
  param {
    lr_mult: 2
    decay_mult: 0
  }  
  convolution_param {
    num_output: 512
    pad: 1
    kernel_size: 3
  }
  conserve_gpu_memory_test: true  
}
layer {
  bottom: "cluster06_conv5_2"
  top: "cluster06_conv5_2"
  name: "cluster06_Relu5_2"
  type: "ReLU"
}
layer {
  bottom: "cluster06_conv5_2"
  top: "cluster06_conv5_3"
  name: "cluster06_conv5_3"
  type: "Convolution"
  param {
    lr_mult: 1
    decay_mult: 1
  }
  param {
    lr_mult: 2
    decay_mult: 0
  }  
  convolution_param {
    num_output: 512
    pad: 1
    kernel_size: 3
  }
  conserve_gpu_memory_test: true  
}
layer {
  bottom: "cluster06_conv5_3"
  top: "cluster06_conv5_3"
  name: "cluster06_Relu5_3"
  type: "ReLU"
}
layer {
  bottom: "cluster06_conv5_3"
  top: "cluster06_pool5"
  name: "cluster06_pool5"
  type: "Pooling"
  pooling_param {
    pool: MAX
    kernel_size: 2
    stride: 2
  }
}
layer {
  bottom: "cluster06_pool5"
  top: "cluster06_fc6"
  name: "cluster06_fc6"
  type: "InnerProduct"
  param {
    lr_mult: 1
    decay_mult: 1
  }
  param {
    lr_mult: 2
    decay_mult: 0
  }  
  inner_product_param {
    num_output: 4096
    weight_filler {
      type: "gaussian"
      std: 0.1
    }
    bias_filler {
      type: "constant"
      value: 0
    }
		quantization_kmean_num_cluster: 128
		quantization_num_segment: 1792
		quantization_kmean_cluster_centers_file: "models/VGG_ILSVRC_16_layers/211839e770f7b538e2d8/84clusters/84clusters_v2.0/iter_12000/cluster06_fc6_128_1792_kmean_cluster_centers.binaryproto"
		quantization_kmean_cluster_indices_file: "models/VGG_ILSVRC_16_layers/211839e770f7b538e2d8/84clusters/84clusters_v2.0/iter_12000/cluster06_fc6_128_1792_kmean_cluster_indices.binaryproto"
  }
	conserve_gpu_memory_test: true
	parameter_compress: true
}
layer {
  bottom: "cluster06_fc6"
  top: "cluster06_fc6"
  name: "cluster06_Relu6"
  type: "ReLU"
}
layer {
  bottom: "cluster06_fc6"
  top: "cluster06_fc6"
  name: "cluster06_drop6"
  type: "Dropout"
  dropout_param {
    dropout_ratio: 0.5
  }
}
layer {
  bottom: "cluster06_fc6"
  top: "cluster06_fc7"
  name: "cluster06_fc7"
  type: "InnerProduct"
  param {
    lr_mult: 1
    decay_mult: 1
  }
  param {
    lr_mult: 2
    decay_mult: 0
  }  
  inner_product_param {
    num_output: 4096
    weight_filler {
      type: "gaussian"
      std: 0.1
    }
    bias_filler {
      type: "constant"
      value: 0
    }
		quantization_kmean_num_cluster: 256
		quantization_num_segment: 1024
		quantization_kmean_cluster_centers_file: "models/VGG_ILSVRC_16_layers/211839e770f7b538e2d8/84clusters/84clusters_v2.0/iter_12000/cluster06_fc7_256_1024_kmean_cluster_centers.binaryproto"
		quantization_kmean_cluster_indices_file: "models/VGG_ILSVRC_16_layers/211839e770f7b538e2d8/84clusters/84clusters_v2.0/iter_12000/cluster06_fc7_256_1024_kmean_cluster_indices.binaryproto"
  }
	conserve_gpu_memory_test: true
	parameter_compress: true
}
layer {
  bottom: "cluster06_fc7"
  top: "cluster06_fc7"
  name: "cluster06_Relu7"
  type: "ReLU"
}
layer {
  bottom: "cluster06_fc7"
  top: "cluster06_fc7"
  name: "cluster06_drop7"
  type: "Dropout"
  dropout_param {
    dropout_ratio: 0.5
  }
}
layer {
  bottom: "cluster06_fc7"
  top: "cluster06_fc8_compact"
  name: "cluster06_fc8_compact"
  type: "InnerProduct"
  param {
    lr_mult: 1
    decay_mult: 1
  }
  param {
    lr_mult: 2
    decay_mult: 0
  }  
  inner_product_param {
	num_output: 145
    weight_filler {
      type: "gaussian"
      std: 0.01
    }
    bias_filler {
      type: "constant"
      value: 0
    }     
  }
}

layer {
name: "cluster06_prob_compact"
type: "Softmax"
bottom: "cluster06_fc8_compact"
top: "cluster06_prob_compact"
}
layer {
  bottom: "pool4"
  top: "cluster07_conv5_1"
  name: "cluster07_conv5_1"
  type: "Convolution"
  param {
    lr_mult: 1
    decay_mult: 1
  }
  param {
    lr_mult: 2
    decay_mult: 0
  }  
  convolution_param {
    num_output: 512
    pad: 1
    kernel_size: 3
  }
  conserve_gpu_memory_test: true  
}
layer {
  bottom: "cluster07_conv5_1"
  top: "cluster07_conv5_1"
  name: "cluster07_Relu5_1"
  type: "ReLU"
}
layer {
  bottom: "cluster07_conv5_1"
  top: "cluster07_conv5_2"
  name: "cluster07_conv5_2"
  type: "Convolution"
  param {
    lr_mult: 1
    decay_mult: 1
  }
  param {
    lr_mult: 2
    decay_mult: 0
  }  
  convolution_param {
    num_output: 512
    pad: 1
    kernel_size: 3
  }
  conserve_gpu_memory_test: true  
}
layer {
  bottom: "cluster07_conv5_2"
  top: "cluster07_conv5_2"
  name: "cluster07_Relu5_2"
  type: "ReLU"
}
layer {
  bottom: "cluster07_conv5_2"
  top: "cluster07_conv5_3"
  name: "cluster07_conv5_3"
  type: "Convolution"
  param {
    lr_mult: 1
    decay_mult: 1
  }
  param {
    lr_mult: 2
    decay_mult: 0
  }  
  convolution_param {
    num_output: 512
    pad: 1
    kernel_size: 3
  }
  conserve_gpu_memory_test: true  
}
layer {
  bottom: "cluster07_conv5_3"
  top: "cluster07_conv5_3"
  name: "cluster07_Relu5_3"
  type: "ReLU"
}
layer {
  bottom: "cluster07_conv5_3"
  top: "cluster07_pool5"
  name: "cluster07_pool5"
  type: "Pooling"
  pooling_param {
    pool: MAX
    kernel_size: 2
    stride: 2
  }
}
layer {
  bottom: "cluster07_pool5"
  top: "cluster07_fc6"
  name: "cluster07_fc6"
  type: "InnerProduct"
  param {
    lr_mult: 1
    decay_mult: 1
  }
  param {
    lr_mult: 2
    decay_mult: 0
  }  
  inner_product_param {
    num_output: 4096
    weight_filler {
      type: "gaussian"
      std: 0.1
    }
    bias_filler {
      type: "constant"
      value: 0
    }
		quantization_kmean_num_cluster: 128
		quantization_num_segment: 1792
		quantization_kmean_cluster_centers_file: "models/VGG_ILSVRC_16_layers/211839e770f7b538e2d8/84clusters/84clusters_v2.0/iter_12000/cluster07_fc6_128_1792_kmean_cluster_centers.binaryproto"
		quantization_kmean_cluster_indices_file: "models/VGG_ILSVRC_16_layers/211839e770f7b538e2d8/84clusters/84clusters_v2.0/iter_12000/cluster07_fc6_128_1792_kmean_cluster_indices.binaryproto"
  }
	conserve_gpu_memory_test: true
	parameter_compress: true
}
layer {
  bottom: "cluster07_fc6"
  top: "cluster07_fc6"
  name: "cluster07_Relu6"
  type: "ReLU"
}
layer {
  bottom: "cluster07_fc6"
  top: "cluster07_fc6"
  name: "cluster07_drop6"
  type: "Dropout"
  dropout_param {
    dropout_ratio: 0.5
  }
}
layer {
  bottom: "cluster07_fc6"
  top: "cluster07_fc7"
  name: "cluster07_fc7"
  type: "InnerProduct"
  param {
    lr_mult: 1
    decay_mult: 1
  }
  param {
    lr_mult: 2
    decay_mult: 0
  }  
  inner_product_param {
    num_output: 4096
    weight_filler {
      type: "gaussian"
      std: 0.1
    }
    bias_filler {
      type: "constant"
      value: 0
    }
		quantization_kmean_num_cluster: 256
		quantization_num_segment: 1024
		quantization_kmean_cluster_centers_file: "models/VGG_ILSVRC_16_layers/211839e770f7b538e2d8/84clusters/84clusters_v2.0/iter_12000/cluster07_fc7_256_1024_kmean_cluster_centers.binaryproto"
		quantization_kmean_cluster_indices_file: "models/VGG_ILSVRC_16_layers/211839e770f7b538e2d8/84clusters/84clusters_v2.0/iter_12000/cluster07_fc7_256_1024_kmean_cluster_indices.binaryproto"
  }
	conserve_gpu_memory_test: true
	parameter_compress: true
}
layer {
  bottom: "cluster07_fc7"
  top: "cluster07_fc7"
  name: "cluster07_Relu7"
  type: "ReLU"
}
layer {
  bottom: "cluster07_fc7"
  top: "cluster07_fc7"
  name: "cluster07_drop7"
  type: "Dropout"
  dropout_param {
    dropout_ratio: 0.5
  }
}
layer {
  bottom: "cluster07_fc7"
  top: "cluster07_fc8_compact"
  name: "cluster07_fc8_compact"
  type: "InnerProduct"
  param {
    lr_mult: 1
    decay_mult: 1
  }
  param {
    lr_mult: 2
    decay_mult: 0
  }  
  inner_product_param {
	num_output: 80
    weight_filler {
      type: "gaussian"
      std: 0.01
    }
    bias_filler {
      type: "constant"
      value: 0
    }     
  }
}

layer {
name: "cluster07_prob_compact"
type: "Softmax"
bottom: "cluster07_fc8_compact"
top: "cluster07_prob_compact"
}
layer {
  bottom: "pool4"
  top: "cluster08_conv5_1"
  name: "cluster08_conv5_1"
  type: "Convolution"
  param {
    lr_mult: 1
    decay_mult: 1
  }
  param {
    lr_mult: 2
    decay_mult: 0
  }  
  convolution_param {
    num_output: 512
    pad: 1
    kernel_size: 3
  }
  conserve_gpu_memory_test: true  
}
layer {
  bottom: "cluster08_conv5_1"
  top: "cluster08_conv5_1"
  name: "cluster08_Relu5_1"
  type: "ReLU"
}
layer {
  bottom: "cluster08_conv5_1"
  top: "cluster08_conv5_2"
  name: "cluster08_conv5_2"
  type: "Convolution"
  param {
    lr_mult: 1
    decay_mult: 1
  }
  param {
    lr_mult: 2
    decay_mult: 0
  }  
  convolution_param {
    num_output: 512
    pad: 1
    kernel_size: 3
  }
  conserve_gpu_memory_test: true  
}
layer {
  bottom: "cluster08_conv5_2"
  top: "cluster08_conv5_2"
  name: "cluster08_Relu5_2"
  type: "ReLU"
}
layer {
  bottom: "cluster08_conv5_2"
  top: "cluster08_conv5_3"
  name: "cluster08_conv5_3"
  type: "Convolution"
  param {
    lr_mult: 1
    decay_mult: 1
  }
  param {
    lr_mult: 2
    decay_mult: 0
  }  
  convolution_param {
    num_output: 512
    pad: 1
    kernel_size: 3
  }
  conserve_gpu_memory_test: true  
}
layer {
  bottom: "cluster08_conv5_3"
  top: "cluster08_conv5_3"
  name: "cluster08_Relu5_3"
  type: "ReLU"
}
layer {
  bottom: "cluster08_conv5_3"
  top: "cluster08_pool5"
  name: "cluster08_pool5"
  type: "Pooling"
  pooling_param {
    pool: MAX
    kernel_size: 2
    stride: 2
  }
}
layer {
  bottom: "cluster08_pool5"
  top: "cluster08_fc6"
  name: "cluster08_fc6"
  type: "InnerProduct"
  param {
    lr_mult: 1
    decay_mult: 1
  }
  param {
    lr_mult: 2
    decay_mult: 0
  }  
  inner_product_param {
    num_output: 4096
    weight_filler {
      type: "gaussian"
      std: 0.1
    }
    bias_filler {
      type: "constant"
      value: 0
    }
		quantization_kmean_num_cluster: 128
		quantization_num_segment: 1792
		quantization_kmean_cluster_centers_file: "models/VGG_ILSVRC_16_layers/211839e770f7b538e2d8/84clusters/84clusters_v2.0/iter_12000/cluster08_fc6_128_1792_kmean_cluster_centers.binaryproto"
		quantization_kmean_cluster_indices_file: "models/VGG_ILSVRC_16_layers/211839e770f7b538e2d8/84clusters/84clusters_v2.0/iter_12000/cluster08_fc6_128_1792_kmean_cluster_indices.binaryproto"
  }
	conserve_gpu_memory_test: true
	parameter_compress: true
}
layer {
  bottom: "cluster08_fc6"
  top: "cluster08_fc6"
  name: "cluster08_Relu6"
  type: "ReLU"
}
layer {
  bottom: "cluster08_fc6"
  top: "cluster08_fc6"
  name: "cluster08_drop6"
  type: "Dropout"
  dropout_param {
    dropout_ratio: 0.5
  }
}
layer {
  bottom: "cluster08_fc6"
  top: "cluster08_fc7"
  name: "cluster08_fc7"
  type: "InnerProduct"
  param {
    lr_mult: 1
    decay_mult: 1
  }
  param {
    lr_mult: 2
    decay_mult: 0
  }  
  inner_product_param {
    num_output: 4096
    weight_filler {
      type: "gaussian"
      std: 0.1
    }
    bias_filler {
      type: "constant"
      value: 0
    }
		quantization_kmean_num_cluster: 256
		quantization_num_segment: 1024
		quantization_kmean_cluster_centers_file: "models/VGG_ILSVRC_16_layers/211839e770f7b538e2d8/84clusters/84clusters_v2.0/iter_12000/cluster08_fc7_256_1024_kmean_cluster_centers.binaryproto"
		quantization_kmean_cluster_indices_file: "models/VGG_ILSVRC_16_layers/211839e770f7b538e2d8/84clusters/84clusters_v2.0/iter_12000/cluster08_fc7_256_1024_kmean_cluster_indices.binaryproto"
  }
	conserve_gpu_memory_test: true
	parameter_compress: true
}
layer {
  bottom: "cluster08_fc7"
  top: "cluster08_fc7"
  name: "cluster08_Relu7"
  type: "ReLU"
}
layer {
  bottom: "cluster08_fc7"
  top: "cluster08_fc7"
  name: "cluster08_drop7"
  type: "Dropout"
  dropout_param {
    dropout_ratio: 0.5
  }
}
layer {
  bottom: "cluster08_fc7"
  top: "cluster08_fc8_compact"
  name: "cluster08_fc8_compact"
  type: "InnerProduct"
  param {
    lr_mult: 1
    decay_mult: 1
  }
  param {
    lr_mult: 2
    decay_mult: 0
  }  
  inner_product_param {
	num_output: 172
    weight_filler {
      type: "gaussian"
      std: 0.01
    }
    bias_filler {
      type: "constant"
      value: 0
    }     
  }
}

layer {
name: "cluster08_prob_compact"
type: "Softmax"
bottom: "cluster08_fc8_compact"
top: "cluster08_prob_compact"
}
layer {
  bottom: "pool4"
  top: "cluster09_conv5_1"
  name: "cluster09_conv5_1"
  type: "Convolution"
  param {
    lr_mult: 1
    decay_mult: 1
  }
  param {
    lr_mult: 2
    decay_mult: 0
  }  
  convolution_param {
    num_output: 512
    pad: 1
    kernel_size: 3
  }
  conserve_gpu_memory_test: true  
}
layer {
  bottom: "cluster09_conv5_1"
  top: "cluster09_conv5_1"
  name: "cluster09_Relu5_1"
  type: "ReLU"
}
layer {
  bottom: "cluster09_conv5_1"
  top: "cluster09_conv5_2"
  name: "cluster09_conv5_2"
  type: "Convolution"
  param {
    lr_mult: 1
    decay_mult: 1
  }
  param {
    lr_mult: 2
    decay_mult: 0
  }  
  convolution_param {
    num_output: 512
    pad: 1
    kernel_size: 3
  }
  conserve_gpu_memory_test: true  
}
layer {
  bottom: "cluster09_conv5_2"
  top: "cluster09_conv5_2"
  name: "cluster09_Relu5_2"
  type: "ReLU"
}
layer {
  bottom: "cluster09_conv5_2"
  top: "cluster09_conv5_3"
  name: "cluster09_conv5_3"
  type: "Convolution"
  param {
    lr_mult: 1
    decay_mult: 1
  }
  param {
    lr_mult: 2
    decay_mult: 0
  }  
  convolution_param {
    num_output: 512
    pad: 1
    kernel_size: 3
  }
  conserve_gpu_memory_test: true  
}
layer {
  bottom: "cluster09_conv5_3"
  top: "cluster09_conv5_3"
  name: "cluster09_Relu5_3"
  type: "ReLU"
}
layer {
  bottom: "cluster09_conv5_3"
  top: "cluster09_pool5"
  name: "cluster09_pool5"
  type: "Pooling"
  pooling_param {
    pool: MAX
    kernel_size: 2
    stride: 2
  }
}
layer {
  bottom: "cluster09_pool5"
  top: "cluster09_fc6"
  name: "cluster09_fc6"
  type: "InnerProduct"
  param {
    lr_mult: 1
    decay_mult: 1
  }
  param {
    lr_mult: 2
    decay_mult: 0
  }  
  inner_product_param {
    num_output: 4096
    weight_filler {
      type: "gaussian"
      std: 0.1
    }
    bias_filler {
      type: "constant"
      value: 0
    }
		quantization_kmean_num_cluster: 128
		quantization_num_segment: 1792
		quantization_kmean_cluster_centers_file: "models/VGG_ILSVRC_16_layers/211839e770f7b538e2d8/84clusters/84clusters_v2.0/iter_12000/cluster09_fc6_128_1792_kmean_cluster_centers.binaryproto"
		quantization_kmean_cluster_indices_file: "models/VGG_ILSVRC_16_layers/211839e770f7b538e2d8/84clusters/84clusters_v2.0/iter_12000/cluster09_fc6_128_1792_kmean_cluster_indices.binaryproto"
  }
	conserve_gpu_memory_test: true
	parameter_compress: true
}
layer {
  bottom: "cluster09_fc6"
  top: "cluster09_fc6"
  name: "cluster09_Relu6"
  type: "ReLU"
}
layer {
  bottom: "cluster09_fc6"
  top: "cluster09_fc6"
  name: "cluster09_drop6"
  type: "Dropout"
  dropout_param {
    dropout_ratio: 0.5
  }
}
layer {
  bottom: "cluster09_fc6"
  top: "cluster09_fc7"
  name: "cluster09_fc7"
  type: "InnerProduct"
  param {
    lr_mult: 1
    decay_mult: 1
  }
  param {
    lr_mult: 2
    decay_mult: 0
  }  
  inner_product_param {
    num_output: 4096
    weight_filler {
      type: "gaussian"
      std: 0.1
    }
    bias_filler {
      type: "constant"
      value: 0
    }
		quantization_kmean_num_cluster: 256
		quantization_num_segment: 1024
		quantization_kmean_cluster_centers_file: "models/VGG_ILSVRC_16_layers/211839e770f7b538e2d8/84clusters/84clusters_v2.0/iter_12000/cluster09_fc7_256_1024_kmean_cluster_centers.binaryproto"
		quantization_kmean_cluster_indices_file: "models/VGG_ILSVRC_16_layers/211839e770f7b538e2d8/84clusters/84clusters_v2.0/iter_12000/cluster09_fc7_256_1024_kmean_cluster_indices.binaryproto"
  }
	conserve_gpu_memory_test: true
	parameter_compress: true
}
layer {
  bottom: "cluster09_fc7"
  top: "cluster09_fc7"
  name: "cluster09_Relu7"
  type: "ReLU"
}
layer {
  bottom: "cluster09_fc7"
  top: "cluster09_fc7"
  name: "cluster09_drop7"
  type: "Dropout"
  dropout_param {
    dropout_ratio: 0.5
  }
}
layer {
  bottom: "cluster09_fc7"
  top: "cluster09_fc8_compact"
  name: "cluster09_fc8_compact"
  type: "InnerProduct"
  param {
    lr_mult: 1
    decay_mult: 1
  }
  param {
    lr_mult: 2
    decay_mult: 0
  }  
  inner_product_param {
	num_output: 134
    weight_filler {
      type: "gaussian"
      std: 0.01
    }
    bias_filler {
      type: "constant"
      value: 0
    }     
  }
}

layer {
name: "cluster09_prob_compact"
type: "Softmax"
bottom: "cluster09_fc8_compact"
top: "cluster09_prob_compact"
}
layer {
  bottom: "pool4"
  top: "cluster10_conv5_1"
  name: "cluster10_conv5_1"
  type: "Convolution"
  param {
    lr_mult: 1
    decay_mult: 1
  }
  param {
    lr_mult: 2
    decay_mult: 0
  }  
  convolution_param {
    num_output: 512
    pad: 1
    kernel_size: 3
  }
  conserve_gpu_memory_test: true  
}
layer {
  bottom: "cluster10_conv5_1"
  top: "cluster10_conv5_1"
  name: "cluster10_Relu5_1"
  type: "ReLU"
}
layer {
  bottom: "cluster10_conv5_1"
  top: "cluster10_conv5_2"
  name: "cluster10_conv5_2"
  type: "Convolution"
  param {
    lr_mult: 1
    decay_mult: 1
  }
  param {
    lr_mult: 2
    decay_mult: 0
  }  
  convolution_param {
    num_output: 512
    pad: 1
    kernel_size: 3
  }
  conserve_gpu_memory_test: true  
}
layer {
  bottom: "cluster10_conv5_2"
  top: "cluster10_conv5_2"
  name: "cluster10_Relu5_2"
  type: "ReLU"
}
layer {
  bottom: "cluster10_conv5_2"
  top: "cluster10_conv5_3"
  name: "cluster10_conv5_3"
  type: "Convolution"
  param {
    lr_mult: 1
    decay_mult: 1
  }
  param {
    lr_mult: 2
    decay_mult: 0
  }  
  convolution_param {
    num_output: 512
    pad: 1
    kernel_size: 3
  }
  conserve_gpu_memory_test: true  
}
layer {
  bottom: "cluster10_conv5_3"
  top: "cluster10_conv5_3"
  name: "cluster10_Relu5_3"
  type: "ReLU"
}
layer {
  bottom: "cluster10_conv5_3"
  top: "cluster10_pool5"
  name: "cluster10_pool5"
  type: "Pooling"
  pooling_param {
    pool: MAX
    kernel_size: 2
    stride: 2
  }
}
layer {
  bottom: "cluster10_pool5"
  top: "cluster10_fc6"
  name: "cluster10_fc6"
  type: "InnerProduct"
  param {
    lr_mult: 1
    decay_mult: 1
  }
  param {
    lr_mult: 2
    decay_mult: 0
  }  
  inner_product_param {
    num_output: 4096
    weight_filler {
      type: "gaussian"
      std: 0.1
    }
    bias_filler {
      type: "constant"
      value: 0
    }
		quantization_kmean_num_cluster: 128
		quantization_num_segment: 1792
		quantization_kmean_cluster_centers_file: "models/VGG_ILSVRC_16_layers/211839e770f7b538e2d8/84clusters/84clusters_v2.0/iter_12000/cluster10_fc6_128_1792_kmean_cluster_centers.binaryproto"
		quantization_kmean_cluster_indices_file: "models/VGG_ILSVRC_16_layers/211839e770f7b538e2d8/84clusters/84clusters_v2.0/iter_12000/cluster10_fc6_128_1792_kmean_cluster_indices.binaryproto"
  }
	conserve_gpu_memory_test: true
	parameter_compress: true
}
layer {
  bottom: "cluster10_fc6"
  top: "cluster10_fc6"
  name: "cluster10_Relu6"
  type: "ReLU"
}
layer {
  bottom: "cluster10_fc6"
  top: "cluster10_fc6"
  name: "cluster10_drop6"
  type: "Dropout"
  dropout_param {
    dropout_ratio: 0.5
  }
}
layer {
  bottom: "cluster10_fc6"
  top: "cluster10_fc7"
  name: "cluster10_fc7"
  type: "InnerProduct"
  param {
    lr_mult: 1
    decay_mult: 1
  }
  param {
    lr_mult: 2
    decay_mult: 0
  }  
  inner_product_param {
    num_output: 4096
    weight_filler {
      type: "gaussian"
      std: 0.1
    }
    bias_filler {
      type: "constant"
      value: 0
    }
		quantization_kmean_num_cluster: 256
		quantization_num_segment: 1024
		quantization_kmean_cluster_centers_file: "models/VGG_ILSVRC_16_layers/211839e770f7b538e2d8/84clusters/84clusters_v2.0/iter_12000/cluster10_fc7_256_1024_kmean_cluster_centers.binaryproto"
		quantization_kmean_cluster_indices_file: "models/VGG_ILSVRC_16_layers/211839e770f7b538e2d8/84clusters/84clusters_v2.0/iter_12000/cluster10_fc7_256_1024_kmean_cluster_indices.binaryproto"
  }
	conserve_gpu_memory_test: true
	parameter_compress: true
}
layer {
  bottom: "cluster10_fc7"
  top: "cluster10_fc7"
  name: "cluster10_Relu7"
  type: "ReLU"
}
layer {
  bottom: "cluster10_fc7"
  top: "cluster10_fc7"
  name: "cluster10_drop7"
  type: "Dropout"
  dropout_param {
    dropout_ratio: 0.5
  }
}
layer {
  bottom: "cluster10_fc7"
  top: "cluster10_fc8_compact"
  name: "cluster10_fc8_compact"
  type: "InnerProduct"
  param {
    lr_mult: 1
    decay_mult: 1
  }
  param {
    lr_mult: 2
    decay_mult: 0
  }  
  inner_product_param {
	num_output: 200
    weight_filler {
      type: "gaussian"
      std: 0.01
    }
    bias_filler {
      type: "constant"
      value: 0
    }     
  }
}

layer {
name: "cluster10_prob_compact"
type: "Softmax"
bottom: "cluster10_fc8_compact"
top: "cluster10_prob_compact"
}
layer {
  bottom: "pool4"
  top: "cluster11_conv5_1"
  name: "cluster11_conv5_1"
  type: "Convolution"
  param {
    lr_mult: 1
    decay_mult: 1
  }
  param {
    lr_mult: 2
    decay_mult: 0
  }  
  convolution_param {
    num_output: 512
    pad: 1
    kernel_size: 3
  }
  conserve_gpu_memory_test: true  
}
layer {
  bottom: "cluster11_conv5_1"
  top: "cluster11_conv5_1"
  name: "cluster11_Relu5_1"
  type: "ReLU"
}
layer {
  bottom: "cluster11_conv5_1"
  top: "cluster11_conv5_2"
  name: "cluster11_conv5_2"
  type: "Convolution"
  param {
    lr_mult: 1
    decay_mult: 1
  }
  param {
    lr_mult: 2
    decay_mult: 0
  }  
  convolution_param {
    num_output: 512
    pad: 1
    kernel_size: 3
  }
  conserve_gpu_memory_test: true  
}
layer {
  bottom: "cluster11_conv5_2"
  top: "cluster11_conv5_2"
  name: "cluster11_Relu5_2"
  type: "ReLU"
}
layer {
  bottom: "cluster11_conv5_2"
  top: "cluster11_conv5_3"
  name: "cluster11_conv5_3"
  type: "Convolution"
  param {
    lr_mult: 1
    decay_mult: 1
  }
  param {
    lr_mult: 2
    decay_mult: 0
  }  
  convolution_param {
    num_output: 512
    pad: 1
    kernel_size: 3
  }
  conserve_gpu_memory_test: true  
}
layer {
  bottom: "cluster11_conv5_3"
  top: "cluster11_conv5_3"
  name: "cluster11_Relu5_3"
  type: "ReLU"
}
layer {
  bottom: "cluster11_conv5_3"
  top: "cluster11_pool5"
  name: "cluster11_pool5"
  type: "Pooling"
  pooling_param {
    pool: MAX
    kernel_size: 2
    stride: 2
  }
}
layer {
  bottom: "cluster11_pool5"
  top: "cluster11_fc6"
  name: "cluster11_fc6"
  type: "InnerProduct"
  param {
    lr_mult: 1
    decay_mult: 1
  }
  param {
    lr_mult: 2
    decay_mult: 0
  }  
  inner_product_param {
    num_output: 4096
    weight_filler {
      type: "gaussian"
      std: 0.1
    }
    bias_filler {
      type: "constant"
      value: 0
    }
		quantization_kmean_num_cluster: 128
		quantization_num_segment: 1792
		quantization_kmean_cluster_centers_file: "models/VGG_ILSVRC_16_layers/211839e770f7b538e2d8/84clusters/84clusters_v2.0/iter_12000/cluster11_fc6_128_1792_kmean_cluster_centers.binaryproto"
		quantization_kmean_cluster_indices_file: "models/VGG_ILSVRC_16_layers/211839e770f7b538e2d8/84clusters/84clusters_v2.0/iter_12000/cluster11_fc6_128_1792_kmean_cluster_indices.binaryproto"
  }
	conserve_gpu_memory_test: true
	parameter_compress: true
}
layer {
  bottom: "cluster11_fc6"
  top: "cluster11_fc6"
  name: "cluster11_Relu6"
  type: "ReLU"
}
layer {
  bottom: "cluster11_fc6"
  top: "cluster11_fc6"
  name: "cluster11_drop6"
  type: "Dropout"
  dropout_param {
    dropout_ratio: 0.5
  }
}
layer {
  bottom: "cluster11_fc6"
  top: "cluster11_fc7"
  name: "cluster11_fc7"
  type: "InnerProduct"
  param {
    lr_mult: 1
    decay_mult: 1
  }
  param {
    lr_mult: 2
    decay_mult: 0
  }  
  inner_product_param {
    num_output: 4096
    weight_filler {
      type: "gaussian"
      std: 0.1
    }
    bias_filler {
      type: "constant"
      value: 0
    }
		quantization_kmean_num_cluster: 256
		quantization_num_segment: 1024
		quantization_kmean_cluster_centers_file: "models/VGG_ILSVRC_16_layers/211839e770f7b538e2d8/84clusters/84clusters_v2.0/iter_12000/cluster11_fc7_256_1024_kmean_cluster_centers.binaryproto"
		quantization_kmean_cluster_indices_file: "models/VGG_ILSVRC_16_layers/211839e770f7b538e2d8/84clusters/84clusters_v2.0/iter_12000/cluster11_fc7_256_1024_kmean_cluster_indices.binaryproto"
  }
	conserve_gpu_memory_test: true
	parameter_compress: true
}
layer {
  bottom: "cluster11_fc7"
  top: "cluster11_fc7"
  name: "cluster11_Relu7"
  type: "ReLU"
}
layer {
  bottom: "cluster11_fc7"
  top: "cluster11_fc7"
  name: "cluster11_drop7"
  type: "Dropout"
  dropout_param {
    dropout_ratio: 0.5
  }
}
layer {
  bottom: "cluster11_fc7"
  top: "cluster11_fc8_compact"
  name: "cluster11_fc8_compact"
  type: "InnerProduct"
  param {
    lr_mult: 1
    decay_mult: 1
  }
  param {
    lr_mult: 2
    decay_mult: 0
  }  
  inner_product_param {
	num_output: 128
    weight_filler {
      type: "gaussian"
      std: 0.01
    }
    bias_filler {
      type: "constant"
      value: 0
    }     
  }
}

layer {
name: "cluster11_prob_compact"
type: "Softmax"
bottom: "cluster11_fc8_compact"
top: "cluster11_prob_compact"
}
layer {
  bottom: "pool4"
  top: "cluster12_conv5_1"
  name: "cluster12_conv5_1"
  type: "Convolution"
  param {
    lr_mult: 1
    decay_mult: 1
  }
  param {
    lr_mult: 2
    decay_mult: 0
  }  
  convolution_param {
    num_output: 512
    pad: 1
    kernel_size: 3
  }
  conserve_gpu_memory_test: true  
}
layer {
  bottom: "cluster12_conv5_1"
  top: "cluster12_conv5_1"
  name: "cluster12_Relu5_1"
  type: "ReLU"
}
layer {
  bottom: "cluster12_conv5_1"
  top: "cluster12_conv5_2"
  name: "cluster12_conv5_2"
  type: "Convolution"
  param {
    lr_mult: 1
    decay_mult: 1
  }
  param {
    lr_mult: 2
    decay_mult: 0
  }  
  convolution_param {
    num_output: 512
    pad: 1
    kernel_size: 3
  }
  conserve_gpu_memory_test: true  
}
layer {
  bottom: "cluster12_conv5_2"
  top: "cluster12_conv5_2"
  name: "cluster12_Relu5_2"
  type: "ReLU"
}
layer {
  bottom: "cluster12_conv5_2"
  top: "cluster12_conv5_3"
  name: "cluster12_conv5_3"
  type: "Convolution"
  param {
    lr_mult: 1
    decay_mult: 1
  }
  param {
    lr_mult: 2
    decay_mult: 0
  }  
  convolution_param {
    num_output: 512
    pad: 1
    kernel_size: 3
  }
  conserve_gpu_memory_test: true  
}
layer {
  bottom: "cluster12_conv5_3"
  top: "cluster12_conv5_3"
  name: "cluster12_Relu5_3"
  type: "ReLU"
}
layer {
  bottom: "cluster12_conv5_3"
  top: "cluster12_pool5"
  name: "cluster12_pool5"
  type: "Pooling"
  pooling_param {
    pool: MAX
    kernel_size: 2
    stride: 2
  }
}
layer {
  bottom: "cluster12_pool5"
  top: "cluster12_fc6"
  name: "cluster12_fc6"
  type: "InnerProduct"
  param {
    lr_mult: 1
    decay_mult: 1
  }
  param {
    lr_mult: 2
    decay_mult: 0
  }  
  inner_product_param {
    num_output: 4096
    weight_filler {
      type: "gaussian"
      std: 0.1
    }
    bias_filler {
      type: "constant"
      value: 0
    }
		quantization_kmean_num_cluster: 128
		quantization_num_segment: 1792
		quantization_kmean_cluster_centers_file: "models/VGG_ILSVRC_16_layers/211839e770f7b538e2d8/84clusters/84clusters_v2.0/iter_12000/cluster12_fc6_128_1792_kmean_cluster_centers.binaryproto"
		quantization_kmean_cluster_indices_file: "models/VGG_ILSVRC_16_layers/211839e770f7b538e2d8/84clusters/84clusters_v2.0/iter_12000/cluster12_fc6_128_1792_kmean_cluster_indices.binaryproto"
  }
	conserve_gpu_memory_test: true
	parameter_compress: true
}
layer {
  bottom: "cluster12_fc6"
  top: "cluster12_fc6"
  name: "cluster12_Relu6"
  type: "ReLU"
}
layer {
  bottom: "cluster12_fc6"
  top: "cluster12_fc6"
  name: "cluster12_drop6"
  type: "Dropout"
  dropout_param {
    dropout_ratio: 0.5
  }
}
layer {
  bottom: "cluster12_fc6"
  top: "cluster12_fc7"
  name: "cluster12_fc7"
  type: "InnerProduct"
  param {
    lr_mult: 1
    decay_mult: 1
  }
  param {
    lr_mult: 2
    decay_mult: 0
  }  
  inner_product_param {
    num_output: 4096
    weight_filler {
      type: "gaussian"
      std: 0.1
    }
    bias_filler {
      type: "constant"
      value: 0
    }
		quantization_kmean_num_cluster: 256
		quantization_num_segment: 1024
		quantization_kmean_cluster_centers_file: "models/VGG_ILSVRC_16_layers/211839e770f7b538e2d8/84clusters/84clusters_v2.0/iter_12000/cluster12_fc7_256_1024_kmean_cluster_centers.binaryproto"
		quantization_kmean_cluster_indices_file: "models/VGG_ILSVRC_16_layers/211839e770f7b538e2d8/84clusters/84clusters_v2.0/iter_12000/cluster12_fc7_256_1024_kmean_cluster_indices.binaryproto"
  }
	conserve_gpu_memory_test: true
	parameter_compress: true
}
layer {
  bottom: "cluster12_fc7"
  top: "cluster12_fc7"
  name: "cluster12_Relu7"
  type: "ReLU"
}
layer {
  bottom: "cluster12_fc7"
  top: "cluster12_fc7"
  name: "cluster12_drop7"
  type: "Dropout"
  dropout_param {
    dropout_ratio: 0.5
  }
}
layer {
  bottom: "cluster12_fc7"
  top: "cluster12_fc8_compact"
  name: "cluster12_fc8_compact"
  type: "InnerProduct"
  param {
    lr_mult: 1
    decay_mult: 1
  }
  param {
    lr_mult: 2
    decay_mult: 0
  }  
  inner_product_param {
	num_output: 87
    weight_filler {
      type: "gaussian"
      std: 0.01
    }
    bias_filler {
      type: "constant"
      value: 0
    }     
  }
}

layer {
name: "cluster12_prob_compact"
type: "Softmax"
bottom: "cluster12_fc8_compact"
top: "cluster12_prob_compact"
}
layer {
  bottom: "pool4"
  top: "cluster13_conv5_1"
  name: "cluster13_conv5_1"
  type: "Convolution"
  param {
    lr_mult: 1
    decay_mult: 1
  }
  param {
    lr_mult: 2
    decay_mult: 0
  }  
  convolution_param {
    num_output: 512
    pad: 1
    kernel_size: 3
  }
  conserve_gpu_memory_test: true  
}
layer {
  bottom: "cluster13_conv5_1"
  top: "cluster13_conv5_1"
  name: "cluster13_Relu5_1"
  type: "ReLU"
}
layer {
  bottom: "cluster13_conv5_1"
  top: "cluster13_conv5_2"
  name: "cluster13_conv5_2"
  type: "Convolution"
  param {
    lr_mult: 1
    decay_mult: 1
  }
  param {
    lr_mult: 2
    decay_mult: 0
  }  
  convolution_param {
    num_output: 512
    pad: 1
    kernel_size: 3
  }
  conserve_gpu_memory_test: true  
}
layer {
  bottom: "cluster13_conv5_2"
  top: "cluster13_conv5_2"
  name: "cluster13_Relu5_2"
  type: "ReLU"
}
layer {
  bottom: "cluster13_conv5_2"
  top: "cluster13_conv5_3"
  name: "cluster13_conv5_3"
  type: "Convolution"
  param {
    lr_mult: 1
    decay_mult: 1
  }
  param {
    lr_mult: 2
    decay_mult: 0
  }  
  convolution_param {
    num_output: 512
    pad: 1
    kernel_size: 3
  }
  conserve_gpu_memory_test: true  
}
layer {
  bottom: "cluster13_conv5_3"
  top: "cluster13_conv5_3"
  name: "cluster13_Relu5_3"
  type: "ReLU"
}
layer {
  bottom: "cluster13_conv5_3"
  top: "cluster13_pool5"
  name: "cluster13_pool5"
  type: "Pooling"
  pooling_param {
    pool: MAX
    kernel_size: 2
    stride: 2
  }
}
layer {
  bottom: "cluster13_pool5"
  top: "cluster13_fc6"
  name: "cluster13_fc6"
  type: "InnerProduct"
  param {
    lr_mult: 1
    decay_mult: 1
  }
  param {
    lr_mult: 2
    decay_mult: 0
  }  
  inner_product_param {
    num_output: 4096
    weight_filler {
      type: "gaussian"
      std: 0.1
    }
    bias_filler {
      type: "constant"
      value: 0
    }
		quantization_kmean_num_cluster: 128
		quantization_num_segment: 1792
		quantization_kmean_cluster_centers_file: "models/VGG_ILSVRC_16_layers/211839e770f7b538e2d8/84clusters/84clusters_v2.0/iter_12000/cluster13_fc6_128_1792_kmean_cluster_centers.binaryproto"
		quantization_kmean_cluster_indices_file: "models/VGG_ILSVRC_16_layers/211839e770f7b538e2d8/84clusters/84clusters_v2.0/iter_12000/cluster13_fc6_128_1792_kmean_cluster_indices.binaryproto"
  }
	conserve_gpu_memory_test: true
	parameter_compress: true
}
layer {
  bottom: "cluster13_fc6"
  top: "cluster13_fc6"
  name: "cluster13_Relu6"
  type: "ReLU"
}
layer {
  bottom: "cluster13_fc6"
  top: "cluster13_fc6"
  name: "cluster13_drop6"
  type: "Dropout"
  dropout_param {
    dropout_ratio: 0.5
  }
}
layer {
  bottom: "cluster13_fc6"
  top: "cluster13_fc7"
  name: "cluster13_fc7"
  type: "InnerProduct"
  param {
    lr_mult: 1
    decay_mult: 1
  }
  param {
    lr_mult: 2
    decay_mult: 0
  }  
  inner_product_param {
    num_output: 4096
    weight_filler {
      type: "gaussian"
      std: 0.1
    }
    bias_filler {
      type: "constant"
      value: 0
    }
		quantization_kmean_num_cluster: 256
		quantization_num_segment: 1024
		quantization_kmean_cluster_centers_file: "models/VGG_ILSVRC_16_layers/211839e770f7b538e2d8/84clusters/84clusters_v2.0/iter_12000/cluster13_fc7_256_1024_kmean_cluster_centers.binaryproto"
		quantization_kmean_cluster_indices_file: "models/VGG_ILSVRC_16_layers/211839e770f7b538e2d8/84clusters/84clusters_v2.0/iter_12000/cluster13_fc7_256_1024_kmean_cluster_indices.binaryproto"
  }
	conserve_gpu_memory_test: true
	parameter_compress: true
}
layer {
  bottom: "cluster13_fc7"
  top: "cluster13_fc7"
  name: "cluster13_Relu7"
  type: "ReLU"
}
layer {
  bottom: "cluster13_fc7"
  top: "cluster13_fc7"
  name: "cluster13_drop7"
  type: "Dropout"
  dropout_param {
    dropout_ratio: 0.5
  }
}
layer {
  bottom: "cluster13_fc7"
  top: "cluster13_fc8_compact"
  name: "cluster13_fc8_compact"
  type: "InnerProduct"
  param {
    lr_mult: 1
    decay_mult: 1
  }
  param {
    lr_mult: 2
    decay_mult: 0
  }  
  inner_product_param {
	num_output: 85
    weight_filler {
      type: "gaussian"
      std: 0.01
    }
    bias_filler {
      type: "constant"
      value: 0
    }     
  }
}

layer {
name: "cluster13_prob_compact"
type: "Softmax"
bottom: "cluster13_fc8_compact"
top: "cluster13_prob_compact"
}
layer {
  bottom: "pool4"
  top: "cluster14_conv5_1"
  name: "cluster14_conv5_1"
  type: "Convolution"
  param {
    lr_mult: 1
    decay_mult: 1
  }
  param {
    lr_mult: 2
    decay_mult: 0
  }  
  convolution_param {
    num_output: 512
    pad: 1
    kernel_size: 3
  }
  conserve_gpu_memory_test: true  
}
layer {
  bottom: "cluster14_conv5_1"
  top: "cluster14_conv5_1"
  name: "cluster14_Relu5_1"
  type: "ReLU"
}
layer {
  bottom: "cluster14_conv5_1"
  top: "cluster14_conv5_2"
  name: "cluster14_conv5_2"
  type: "Convolution"
  param {
    lr_mult: 1
    decay_mult: 1
  }
  param {
    lr_mult: 2
    decay_mult: 0
  }  
  convolution_param {
    num_output: 512
    pad: 1
    kernel_size: 3
  }
  conserve_gpu_memory_test: true  
}
layer {
  bottom: "cluster14_conv5_2"
  top: "cluster14_conv5_2"
  name: "cluster14_Relu5_2"
  type: "ReLU"
}
layer {
  bottom: "cluster14_conv5_2"
  top: "cluster14_conv5_3"
  name: "cluster14_conv5_3"
  type: "Convolution"
  param {
    lr_mult: 1
    decay_mult: 1
  }
  param {
    lr_mult: 2
    decay_mult: 0
  }  
  convolution_param {
    num_output: 512
    pad: 1
    kernel_size: 3
  }
  conserve_gpu_memory_test: true  
}
layer {
  bottom: "cluster14_conv5_3"
  top: "cluster14_conv5_3"
  name: "cluster14_Relu5_3"
  type: "ReLU"
}
layer {
  bottom: "cluster14_conv5_3"
  top: "cluster14_pool5"
  name: "cluster14_pool5"
  type: "Pooling"
  pooling_param {
    pool: MAX
    kernel_size: 2
    stride: 2
  }
}
layer {
  bottom: "cluster14_pool5"
  top: "cluster14_fc6"
  name: "cluster14_fc6"
  type: "InnerProduct"
  param {
    lr_mult: 1
    decay_mult: 1
  }
  param {
    lr_mult: 2
    decay_mult: 0
  }  
  inner_product_param {
    num_output: 4096
    weight_filler {
      type: "gaussian"
      std: 0.1
    }
    bias_filler {
      type: "constant"
      value: 0
    }
		quantization_kmean_num_cluster: 128
		quantization_num_segment: 1792
		quantization_kmean_cluster_centers_file: "models/VGG_ILSVRC_16_layers/211839e770f7b538e2d8/84clusters/84clusters_v2.0/iter_12000/cluster14_fc6_128_1792_kmean_cluster_centers.binaryproto"
		quantization_kmean_cluster_indices_file: "models/VGG_ILSVRC_16_layers/211839e770f7b538e2d8/84clusters/84clusters_v2.0/iter_12000/cluster14_fc6_128_1792_kmean_cluster_indices.binaryproto"
  }
	conserve_gpu_memory_test: true
	parameter_compress: true
}
layer {
  bottom: "cluster14_fc6"
  top: "cluster14_fc6"
  name: "cluster14_Relu6"
  type: "ReLU"
}
layer {
  bottom: "cluster14_fc6"
  top: "cluster14_fc6"
  name: "cluster14_drop6"
  type: "Dropout"
  dropout_param {
    dropout_ratio: 0.5
  }
}
layer {
  bottom: "cluster14_fc6"
  top: "cluster14_fc7"
  name: "cluster14_fc7"
  type: "InnerProduct"
  param {
    lr_mult: 1
    decay_mult: 1
  }
  param {
    lr_mult: 2
    decay_mult: 0
  }  
  inner_product_param {
    num_output: 4096
    weight_filler {
      type: "gaussian"
      std: 0.1
    }
    bias_filler {
      type: "constant"
      value: 0
    }
		quantization_kmean_num_cluster: 256
		quantization_num_segment: 1024
		quantization_kmean_cluster_centers_file: "models/VGG_ILSVRC_16_layers/211839e770f7b538e2d8/84clusters/84clusters_v2.0/iter_12000/cluster14_fc7_256_1024_kmean_cluster_centers.binaryproto"
		quantization_kmean_cluster_indices_file: "models/VGG_ILSVRC_16_layers/211839e770f7b538e2d8/84clusters/84clusters_v2.0/iter_12000/cluster14_fc7_256_1024_kmean_cluster_indices.binaryproto"
  }
	conserve_gpu_memory_test: true
	parameter_compress: true
}
layer {
  bottom: "cluster14_fc7"
  top: "cluster14_fc7"
  name: "cluster14_Relu7"
  type: "ReLU"
}
layer {
  bottom: "cluster14_fc7"
  top: "cluster14_fc7"
  name: "cluster14_drop7"
  type: "Dropout"
  dropout_param {
    dropout_ratio: 0.5
  }
}
layer {
  bottom: "cluster14_fc7"
  top: "cluster14_fc8_compact"
  name: "cluster14_fc8_compact"
  type: "InnerProduct"
  param {
    lr_mult: 1
    decay_mult: 1
  }
  param {
    lr_mult: 2
    decay_mult: 0
  }  
  inner_product_param {
	num_output: 111
    weight_filler {
      type: "gaussian"
      std: 0.01
    }
    bias_filler {
      type: "constant"
      value: 0
    }     
  }
}

layer {
name: "cluster14_prob_compact"
type: "Softmax"
bottom: "cluster14_fc8_compact"
top: "cluster14_prob_compact"
}
layer {
  bottom: "pool4"
  top: "cluster15_conv5_1"
  name: "cluster15_conv5_1"
  type: "Convolution"
  param {
    lr_mult: 1
    decay_mult: 1
  }
  param {
    lr_mult: 2
    decay_mult: 0
  }  
  convolution_param {
    num_output: 512
    pad: 1
    kernel_size: 3
  }
  conserve_gpu_memory_test: true  
}
layer {
  bottom: "cluster15_conv5_1"
  top: "cluster15_conv5_1"
  name: "cluster15_Relu5_1"
  type: "ReLU"
}
layer {
  bottom: "cluster15_conv5_1"
  top: "cluster15_conv5_2"
  name: "cluster15_conv5_2"
  type: "Convolution"
  param {
    lr_mult: 1
    decay_mult: 1
  }
  param {
    lr_mult: 2
    decay_mult: 0
  }  
  convolution_param {
    num_output: 512
    pad: 1
    kernel_size: 3
  }
  conserve_gpu_memory_test: true  
}
layer {
  bottom: "cluster15_conv5_2"
  top: "cluster15_conv5_2"
  name: "cluster15_Relu5_2"
  type: "ReLU"
}
layer {
  bottom: "cluster15_conv5_2"
  top: "cluster15_conv5_3"
  name: "cluster15_conv5_3"
  type: "Convolution"
  param {
    lr_mult: 1
    decay_mult: 1
  }
  param {
    lr_mult: 2
    decay_mult: 0
  }  
  convolution_param {
    num_output: 512
    pad: 1
    kernel_size: 3
  }
  conserve_gpu_memory_test: true  
}
layer {
  bottom: "cluster15_conv5_3"
  top: "cluster15_conv5_3"
  name: "cluster15_Relu5_3"
  type: "ReLU"
}
layer {
  bottom: "cluster15_conv5_3"
  top: "cluster15_pool5"
  name: "cluster15_pool5"
  type: "Pooling"
  pooling_param {
    pool: MAX
    kernel_size: 2
    stride: 2
  }
}
layer {
  bottom: "cluster15_pool5"
  top: "cluster15_fc6"
  name: "cluster15_fc6"
  type: "InnerProduct"
  param {
    lr_mult: 1
    decay_mult: 1
  }
  param {
    lr_mult: 2
    decay_mult: 0
  }  
  inner_product_param {
    num_output: 4096
    weight_filler {
      type: "gaussian"
      std: 0.1
    }
    bias_filler {
      type: "constant"
      value: 0
    }
		quantization_kmean_num_cluster: 128
		quantization_num_segment: 1792
		quantization_kmean_cluster_centers_file: "models/VGG_ILSVRC_16_layers/211839e770f7b538e2d8/84clusters/84clusters_v2.0/iter_12000/cluster15_fc6_128_1792_kmean_cluster_centers.binaryproto"
		quantization_kmean_cluster_indices_file: "models/VGG_ILSVRC_16_layers/211839e770f7b538e2d8/84clusters/84clusters_v2.0/iter_12000/cluster15_fc6_128_1792_kmean_cluster_indices.binaryproto"
  }
	conserve_gpu_memory_test: true
	parameter_compress: true
}
layer {
  bottom: "cluster15_fc6"
  top: "cluster15_fc6"
  name: "cluster15_Relu6"
  type: "ReLU"
}
layer {
  bottom: "cluster15_fc6"
  top: "cluster15_fc6"
  name: "cluster15_drop6"
  type: "Dropout"
  dropout_param {
    dropout_ratio: 0.5
  }
}
layer {
  bottom: "cluster15_fc6"
  top: "cluster15_fc7"
  name: "cluster15_fc7"
  type: "InnerProduct"
  param {
    lr_mult: 1
    decay_mult: 1
  }
  param {
    lr_mult: 2
    decay_mult: 0
  }  
  inner_product_param {
    num_output: 4096
    weight_filler {
      type: "gaussian"
      std: 0.1
    }
    bias_filler {
      type: "constant"
      value: 0
    }
		quantization_kmean_num_cluster: 256
		quantization_num_segment: 1024
		quantization_kmean_cluster_centers_file: "models/VGG_ILSVRC_16_layers/211839e770f7b538e2d8/84clusters/84clusters_v2.0/iter_12000/cluster15_fc7_256_1024_kmean_cluster_centers.binaryproto"
		quantization_kmean_cluster_indices_file: "models/VGG_ILSVRC_16_layers/211839e770f7b538e2d8/84clusters/84clusters_v2.0/iter_12000/cluster15_fc7_256_1024_kmean_cluster_indices.binaryproto"
  }
	conserve_gpu_memory_test: true
	parameter_compress: true
}
layer {
  bottom: "cluster15_fc7"
  top: "cluster15_fc7"
  name: "cluster15_Relu7"
  type: "ReLU"
}
layer {
  bottom: "cluster15_fc7"
  top: "cluster15_fc7"
  name: "cluster15_drop7"
  type: "Dropout"
  dropout_param {
    dropout_ratio: 0.5
  }
}
layer {
  bottom: "cluster15_fc7"
  top: "cluster15_fc8_compact"
  name: "cluster15_fc8_compact"
  type: "InnerProduct"
  param {
    lr_mult: 1
    decay_mult: 1
  }
  param {
    lr_mult: 2
    decay_mult: 0
  }  
  inner_product_param {
	num_output: 148
    weight_filler {
      type: "gaussian"
      std: 0.01
    }
    bias_filler {
      type: "constant"
      value: 0
    }     
  }
}

layer {
name: "cluster15_prob_compact"
type: "Softmax"
bottom: "cluster15_fc8_compact"
top: "cluster15_prob_compact"
}
layer {
  bottom: "pool4"
  top: "cluster16_conv5_1"
  name: "cluster16_conv5_1"
  type: "Convolution"
  param {
    lr_mult: 1
    decay_mult: 1
  }
  param {
    lr_mult: 2
    decay_mult: 0
  }  
  convolution_param {
    num_output: 512
    pad: 1
    kernel_size: 3
  }
  conserve_gpu_memory_test: true  
}
layer {
  bottom: "cluster16_conv5_1"
  top: "cluster16_conv5_1"
  name: "cluster16_Relu5_1"
  type: "ReLU"
}
layer {
  bottom: "cluster16_conv5_1"
  top: "cluster16_conv5_2"
  name: "cluster16_conv5_2"
  type: "Convolution"
  param {
    lr_mult: 1
    decay_mult: 1
  }
  param {
    lr_mult: 2
    decay_mult: 0
  }  
  convolution_param {
    num_output: 512
    pad: 1
    kernel_size: 3
  }
  conserve_gpu_memory_test: true  
}
layer {
  bottom: "cluster16_conv5_2"
  top: "cluster16_conv5_2"
  name: "cluster16_Relu5_2"
  type: "ReLU"
}
layer {
  bottom: "cluster16_conv5_2"
  top: "cluster16_conv5_3"
  name: "cluster16_conv5_3"
  type: "Convolution"
  param {
    lr_mult: 1
    decay_mult: 1
  }
  param {
    lr_mult: 2
    decay_mult: 0
  }  
  convolution_param {
    num_output: 512
    pad: 1
    kernel_size: 3
  }
  conserve_gpu_memory_test: true  
}
layer {
  bottom: "cluster16_conv5_3"
  top: "cluster16_conv5_3"
  name: "cluster16_Relu5_3"
  type: "ReLU"
}
layer {
  bottom: "cluster16_conv5_3"
  top: "cluster16_pool5"
  name: "cluster16_pool5"
  type: "Pooling"
  pooling_param {
    pool: MAX
    kernel_size: 2
    stride: 2
  }
}
layer {
  bottom: "cluster16_pool5"
  top: "cluster16_fc6"
  name: "cluster16_fc6"
  type: "InnerProduct"
  param {
    lr_mult: 1
    decay_mult: 1
  }
  param {
    lr_mult: 2
    decay_mult: 0
  }  
  inner_product_param {
    num_output: 4096
    weight_filler {
      type: "gaussian"
      std: 0.1
    }
    bias_filler {
      type: "constant"
      value: 0
    }
		quantization_kmean_num_cluster: 128
		quantization_num_segment: 1792
		quantization_kmean_cluster_centers_file: "models/VGG_ILSVRC_16_layers/211839e770f7b538e2d8/84clusters/84clusters_v2.0/iter_12000/cluster16_fc6_128_1792_kmean_cluster_centers.binaryproto"
		quantization_kmean_cluster_indices_file: "models/VGG_ILSVRC_16_layers/211839e770f7b538e2d8/84clusters/84clusters_v2.0/iter_12000/cluster16_fc6_128_1792_kmean_cluster_indices.binaryproto"
  }
	conserve_gpu_memory_test: true
	parameter_compress: true
}
layer {
  bottom: "cluster16_fc6"
  top: "cluster16_fc6"
  name: "cluster16_Relu6"
  type: "ReLU"
}
layer {
  bottom: "cluster16_fc6"
  top: "cluster16_fc6"
  name: "cluster16_drop6"
  type: "Dropout"
  dropout_param {
    dropout_ratio: 0.5
  }
}
layer {
  bottom: "cluster16_fc6"
  top: "cluster16_fc7"
  name: "cluster16_fc7"
  type: "InnerProduct"
  param {
    lr_mult: 1
    decay_mult: 1
  }
  param {
    lr_mult: 2
    decay_mult: 0
  }  
  inner_product_param {
    num_output: 4096
    weight_filler {
      type: "gaussian"
      std: 0.1
    }
    bias_filler {
      type: "constant"
      value: 0
    }
		quantization_kmean_num_cluster: 256
		quantization_num_segment: 1024
		quantization_kmean_cluster_centers_file: "models/VGG_ILSVRC_16_layers/211839e770f7b538e2d8/84clusters/84clusters_v2.0/iter_12000/cluster16_fc7_256_1024_kmean_cluster_centers.binaryproto"
		quantization_kmean_cluster_indices_file: "models/VGG_ILSVRC_16_layers/211839e770f7b538e2d8/84clusters/84clusters_v2.0/iter_12000/cluster16_fc7_256_1024_kmean_cluster_indices.binaryproto"
  }
	conserve_gpu_memory_test: true
	parameter_compress: true
}
layer {
  bottom: "cluster16_fc7"
  top: "cluster16_fc7"
  name: "cluster16_Relu7"
  type: "ReLU"
}
layer {
  bottom: "cluster16_fc7"
  top: "cluster16_fc7"
  name: "cluster16_drop7"
  type: "Dropout"
  dropout_param {
    dropout_ratio: 0.5
  }
}
layer {
  bottom: "cluster16_fc7"
  top: "cluster16_fc8_compact"
  name: "cluster16_fc8_compact"
  type: "InnerProduct"
  param {
    lr_mult: 1
    decay_mult: 1
  }
  param {
    lr_mult: 2
    decay_mult: 0
  }  
  inner_product_param {
	num_output: 163
    weight_filler {
      type: "gaussian"
      std: 0.01
    }
    bias_filler {
      type: "constant"
      value: 0
    }     
  }
}

layer {
name: "cluster16_prob_compact"
type: "Softmax"
bottom: "cluster16_fc8_compact"
top: "cluster16_prob_compact"
}
layer {
  bottom: "pool4"
  top: "cluster17_conv5_1"
  name: "cluster17_conv5_1"
  type: "Convolution"
  param {
    lr_mult: 1
    decay_mult: 1
  }
  param {
    lr_mult: 2
    decay_mult: 0
  }  
  convolution_param {
    num_output: 512
    pad: 1
    kernel_size: 3
  }
  conserve_gpu_memory_test: true  
}
layer {
  bottom: "cluster17_conv5_1"
  top: "cluster17_conv5_1"
  name: "cluster17_Relu5_1"
  type: "ReLU"
}
layer {
  bottom: "cluster17_conv5_1"
  top: "cluster17_conv5_2"
  name: "cluster17_conv5_2"
  type: "Convolution"
  param {
    lr_mult: 1
    decay_mult: 1
  }
  param {
    lr_mult: 2
    decay_mult: 0
  }  
  convolution_param {
    num_output: 512
    pad: 1
    kernel_size: 3
  }
  conserve_gpu_memory_test: true  
}
layer {
  bottom: "cluster17_conv5_2"
  top: "cluster17_conv5_2"
  name: "cluster17_Relu5_2"
  type: "ReLU"
}
layer {
  bottom: "cluster17_conv5_2"
  top: "cluster17_conv5_3"
  name: "cluster17_conv5_3"
  type: "Convolution"
  param {
    lr_mult: 1
    decay_mult: 1
  }
  param {
    lr_mult: 2
    decay_mult: 0
  }  
  convolution_param {
    num_output: 512
    pad: 1
    kernel_size: 3
  }
  conserve_gpu_memory_test: true  
}
layer {
  bottom: "cluster17_conv5_3"
  top: "cluster17_conv5_3"
  name: "cluster17_Relu5_3"
  type: "ReLU"
}
layer {
  bottom: "cluster17_conv5_3"
  top: "cluster17_pool5"
  name: "cluster17_pool5"
  type: "Pooling"
  pooling_param {
    pool: MAX
    kernel_size: 2
    stride: 2
  }
}
layer {
  bottom: "cluster17_pool5"
  top: "cluster17_fc6"
  name: "cluster17_fc6"
  type: "InnerProduct"
  param {
    lr_mult: 1
    decay_mult: 1
  }
  param {
    lr_mult: 2
    decay_mult: 0
  }  
  inner_product_param {
    num_output: 4096
    weight_filler {
      type: "gaussian"
      std: 0.1
    }
    bias_filler {
      type: "constant"
      value: 0
    }
		quantization_kmean_num_cluster: 128
		quantization_num_segment: 1792
		quantization_kmean_cluster_centers_file: "models/VGG_ILSVRC_16_layers/211839e770f7b538e2d8/84clusters/84clusters_v2.0/iter_12000/cluster17_fc6_128_1792_kmean_cluster_centers.binaryproto"
		quantization_kmean_cluster_indices_file: "models/VGG_ILSVRC_16_layers/211839e770f7b538e2d8/84clusters/84clusters_v2.0/iter_12000/cluster17_fc6_128_1792_kmean_cluster_indices.binaryproto"
  }
	conserve_gpu_memory_test: true
	parameter_compress: true
}
layer {
  bottom: "cluster17_fc6"
  top: "cluster17_fc6"
  name: "cluster17_Relu6"
  type: "ReLU"
}
layer {
  bottom: "cluster17_fc6"
  top: "cluster17_fc6"
  name: "cluster17_drop6"
  type: "Dropout"
  dropout_param {
    dropout_ratio: 0.5
  }
}
layer {
  bottom: "cluster17_fc6"
  top: "cluster17_fc7"
  name: "cluster17_fc7"
  type: "InnerProduct"
  param {
    lr_mult: 1
    decay_mult: 1
  }
  param {
    lr_mult: 2
    decay_mult: 0
  }  
  inner_product_param {
    num_output: 4096
    weight_filler {
      type: "gaussian"
      std: 0.1
    }
    bias_filler {
      type: "constant"
      value: 0
    }
		quantization_kmean_num_cluster: 256
		quantization_num_segment: 1024
		quantization_kmean_cluster_centers_file: "models/VGG_ILSVRC_16_layers/211839e770f7b538e2d8/84clusters/84clusters_v2.0/iter_12000/cluster17_fc7_256_1024_kmean_cluster_centers.binaryproto"
		quantization_kmean_cluster_indices_file: "models/VGG_ILSVRC_16_layers/211839e770f7b538e2d8/84clusters/84clusters_v2.0/iter_12000/cluster17_fc7_256_1024_kmean_cluster_indices.binaryproto"
  }
	conserve_gpu_memory_test: true
	parameter_compress: true
}
layer {
  bottom: "cluster17_fc7"
  top: "cluster17_fc7"
  name: "cluster17_Relu7"
  type: "ReLU"
}
layer {
  bottom: "cluster17_fc7"
  top: "cluster17_fc7"
  name: "cluster17_drop7"
  type: "Dropout"
  dropout_param {
    dropout_ratio: 0.5
  }
}
layer {
  bottom: "cluster17_fc7"
  top: "cluster17_fc8_compact"
  name: "cluster17_fc8_compact"
  type: "InnerProduct"
  param {
    lr_mult: 1
    decay_mult: 1
  }
  param {
    lr_mult: 2
    decay_mult: 0
  }  
  inner_product_param {
	num_output: 135
    weight_filler {
      type: "gaussian"
      std: 0.01
    }
    bias_filler {
      type: "constant"
      value: 0
    }     
  }
}

layer {
name: "cluster17_prob_compact"
type: "Softmax"
bottom: "cluster17_fc8_compact"
top: "cluster17_prob_compact"
}
layer {
  bottom: "pool4"
  top: "cluster18_conv5_1"
  name: "cluster18_conv5_1"
  type: "Convolution"
  param {
    lr_mult: 1
    decay_mult: 1
  }
  param {
    lr_mult: 2
    decay_mult: 0
  }  
  convolution_param {
    num_output: 512
    pad: 1
    kernel_size: 3
  }
  conserve_gpu_memory_test: true  
}
layer {
  bottom: "cluster18_conv5_1"
  top: "cluster18_conv5_1"
  name: "cluster18_Relu5_1"
  type: "ReLU"
}
layer {
  bottom: "cluster18_conv5_1"
  top: "cluster18_conv5_2"
  name: "cluster18_conv5_2"
  type: "Convolution"
  param {
    lr_mult: 1
    decay_mult: 1
  }
  param {
    lr_mult: 2
    decay_mult: 0
  }  
  convolution_param {
    num_output: 512
    pad: 1
    kernel_size: 3
  }
  conserve_gpu_memory_test: true  
}
layer {
  bottom: "cluster18_conv5_2"
  top: "cluster18_conv5_2"
  name: "cluster18_Relu5_2"
  type: "ReLU"
}
layer {
  bottom: "cluster18_conv5_2"
  top: "cluster18_conv5_3"
  name: "cluster18_conv5_3"
  type: "Convolution"
  param {
    lr_mult: 1
    decay_mult: 1
  }
  param {
    lr_mult: 2
    decay_mult: 0
  }  
  convolution_param {
    num_output: 512
    pad: 1
    kernel_size: 3
  }
  conserve_gpu_memory_test: true  
}
layer {
  bottom: "cluster18_conv5_3"
  top: "cluster18_conv5_3"
  name: "cluster18_Relu5_3"
  type: "ReLU"
}
layer {
  bottom: "cluster18_conv5_3"
  top: "cluster18_pool5"
  name: "cluster18_pool5"
  type: "Pooling"
  pooling_param {
    pool: MAX
    kernel_size: 2
    stride: 2
  }
}
layer {
  bottom: "cluster18_pool5"
  top: "cluster18_fc6"
  name: "cluster18_fc6"
  type: "InnerProduct"
  param {
    lr_mult: 1
    decay_mult: 1
  }
  param {
    lr_mult: 2
    decay_mult: 0
  }  
  inner_product_param {
    num_output: 4096
    weight_filler {
      type: "gaussian"
      std: 0.1
    }
    bias_filler {
      type: "constant"
      value: 0
    }
		quantization_kmean_num_cluster: 128
		quantization_num_segment: 1792
		quantization_kmean_cluster_centers_file: "models/VGG_ILSVRC_16_layers/211839e770f7b538e2d8/84clusters/84clusters_v2.0/iter_12000/cluster18_fc6_128_1792_kmean_cluster_centers.binaryproto"
		quantization_kmean_cluster_indices_file: "models/VGG_ILSVRC_16_layers/211839e770f7b538e2d8/84clusters/84clusters_v2.0/iter_12000/cluster18_fc6_128_1792_kmean_cluster_indices.binaryproto"
  }
	conserve_gpu_memory_test: true
	parameter_compress: true
}
layer {
  bottom: "cluster18_fc6"
  top: "cluster18_fc6"
  name: "cluster18_Relu6"
  type: "ReLU"
}
layer {
  bottom: "cluster18_fc6"
  top: "cluster18_fc6"
  name: "cluster18_drop6"
  type: "Dropout"
  dropout_param {
    dropout_ratio: 0.5
  }
}
layer {
  bottom: "cluster18_fc6"
  top: "cluster18_fc7"
  name: "cluster18_fc7"
  type: "InnerProduct"
  param {
    lr_mult: 1
    decay_mult: 1
  }
  param {
    lr_mult: 2
    decay_mult: 0
  }  
  inner_product_param {
    num_output: 4096
    weight_filler {
      type: "gaussian"
      std: 0.1
    }
    bias_filler {
      type: "constant"
      value: 0
    }
		quantization_kmean_num_cluster: 256
		quantization_num_segment: 1024
		quantization_kmean_cluster_centers_file: "models/VGG_ILSVRC_16_layers/211839e770f7b538e2d8/84clusters/84clusters_v2.0/iter_12000/cluster18_fc7_256_1024_kmean_cluster_centers.binaryproto"
		quantization_kmean_cluster_indices_file: "models/VGG_ILSVRC_16_layers/211839e770f7b538e2d8/84clusters/84clusters_v2.0/iter_12000/cluster18_fc7_256_1024_kmean_cluster_indices.binaryproto"
  }
	conserve_gpu_memory_test: true
	parameter_compress: true
}
layer {
  bottom: "cluster18_fc7"
  top: "cluster18_fc7"
  name: "cluster18_Relu7"
  type: "ReLU"
}
layer {
  bottom: "cluster18_fc7"
  top: "cluster18_fc7"
  name: "cluster18_drop7"
  type: "Dropout"
  dropout_param {
    dropout_ratio: 0.5
  }
}
layer {
  bottom: "cluster18_fc7"
  top: "cluster18_fc8_compact"
  name: "cluster18_fc8_compact"
  type: "InnerProduct"
  param {
    lr_mult: 1
    decay_mult: 1
  }
  param {
    lr_mult: 2
    decay_mult: 0
  }  
  inner_product_param {
	num_output: 153
    weight_filler {
      type: "gaussian"
      std: 0.01
    }
    bias_filler {
      type: "constant"
      value: 0
    }     
  }
}

layer {
name: "cluster18_prob_compact"
type: "Softmax"
bottom: "cluster18_fc8_compact"
top: "cluster18_prob_compact"
}
layer {
  bottom: "pool4"
  top: "cluster19_conv5_1"
  name: "cluster19_conv5_1"
  type: "Convolution"
  param {
    lr_mult: 1
    decay_mult: 1
  }
  param {
    lr_mult: 2
    decay_mult: 0
  }  
  convolution_param {
    num_output: 512
    pad: 1
    kernel_size: 3
  }
  conserve_gpu_memory_test: true  
}
layer {
  bottom: "cluster19_conv5_1"
  top: "cluster19_conv5_1"
  name: "cluster19_Relu5_1"
  type: "ReLU"
}
layer {
  bottom: "cluster19_conv5_1"
  top: "cluster19_conv5_2"
  name: "cluster19_conv5_2"
  type: "Convolution"
  param {
    lr_mult: 1
    decay_mult: 1
  }
  param {
    lr_mult: 2
    decay_mult: 0
  }  
  convolution_param {
    num_output: 512
    pad: 1
    kernel_size: 3
  }
  conserve_gpu_memory_test: true  
}
layer {
  bottom: "cluster19_conv5_2"
  top: "cluster19_conv5_2"
  name: "cluster19_Relu5_2"
  type: "ReLU"
}
layer {
  bottom: "cluster19_conv5_2"
  top: "cluster19_conv5_3"
  name: "cluster19_conv5_3"
  type: "Convolution"
  param {
    lr_mult: 1
    decay_mult: 1
  }
  param {
    lr_mult: 2
    decay_mult: 0
  }  
  convolution_param {
    num_output: 512
    pad: 1
    kernel_size: 3
  }
  conserve_gpu_memory_test: true  
}
layer {
  bottom: "cluster19_conv5_3"
  top: "cluster19_conv5_3"
  name: "cluster19_Relu5_3"
  type: "ReLU"
}
layer {
  bottom: "cluster19_conv5_3"
  top: "cluster19_pool5"
  name: "cluster19_pool5"
  type: "Pooling"
  pooling_param {
    pool: MAX
    kernel_size: 2
    stride: 2
  }
}
layer {
  bottom: "cluster19_pool5"
  top: "cluster19_fc6"
  name: "cluster19_fc6"
  type: "InnerProduct"
  param {
    lr_mult: 1
    decay_mult: 1
  }
  param {
    lr_mult: 2
    decay_mult: 0
  }  
  inner_product_param {
    num_output: 4096
    weight_filler {
      type: "gaussian"
      std: 0.1
    }
    bias_filler {
      type: "constant"
      value: 0
    }
		quantization_kmean_num_cluster: 128
		quantization_num_segment: 1792
		quantization_kmean_cluster_centers_file: "models/VGG_ILSVRC_16_layers/211839e770f7b538e2d8/84clusters/84clusters_v2.0/iter_12000/cluster19_fc6_128_1792_kmean_cluster_centers.binaryproto"
		quantization_kmean_cluster_indices_file: "models/VGG_ILSVRC_16_layers/211839e770f7b538e2d8/84clusters/84clusters_v2.0/iter_12000/cluster19_fc6_128_1792_kmean_cluster_indices.binaryproto"
  }
	conserve_gpu_memory_test: true
	parameter_compress: true
}
layer {
  bottom: "cluster19_fc6"
  top: "cluster19_fc6"
  name: "cluster19_Relu6"
  type: "ReLU"
}
layer {
  bottom: "cluster19_fc6"
  top: "cluster19_fc6"
  name: "cluster19_drop6"
  type: "Dropout"
  dropout_param {
    dropout_ratio: 0.5
  }
}
layer {
  bottom: "cluster19_fc6"
  top: "cluster19_fc7"
  name: "cluster19_fc7"
  type: "InnerProduct"
  param {
    lr_mult: 1
    decay_mult: 1
  }
  param {
    lr_mult: 2
    decay_mult: 0
  }  
  inner_product_param {
    num_output: 4096
    weight_filler {
      type: "gaussian"
      std: 0.1
    }
    bias_filler {
      type: "constant"
      value: 0
    }
		quantization_kmean_num_cluster: 256
		quantization_num_segment: 1024
		quantization_kmean_cluster_centers_file: "models/VGG_ILSVRC_16_layers/211839e770f7b538e2d8/84clusters/84clusters_v2.0/iter_12000/cluster19_fc7_256_1024_kmean_cluster_centers.binaryproto"
		quantization_kmean_cluster_indices_file: "models/VGG_ILSVRC_16_layers/211839e770f7b538e2d8/84clusters/84clusters_v2.0/iter_12000/cluster19_fc7_256_1024_kmean_cluster_indices.binaryproto"
  }
	conserve_gpu_memory_test: true
	parameter_compress: true
}
layer {
  bottom: "cluster19_fc7"
  top: "cluster19_fc7"
  name: "cluster19_Relu7"
  type: "ReLU"
}
layer {
  bottom: "cluster19_fc7"
  top: "cluster19_fc7"
  name: "cluster19_drop7"
  type: "Dropout"
  dropout_param {
    dropout_ratio: 0.5
  }
}
layer {
  bottom: "cluster19_fc7"
  top: "cluster19_fc8_compact"
  name: "cluster19_fc8_compact"
  type: "InnerProduct"
  param {
    lr_mult: 1
    decay_mult: 1
  }
  param {
    lr_mult: 2
    decay_mult: 0
  }  
  inner_product_param {
	num_output: 200
    weight_filler {
      type: "gaussian"
      std: 0.01
    }
    bias_filler {
      type: "constant"
      value: 0
    }     
  }
}

layer {
name: "cluster19_prob_compact"
type: "Softmax"
bottom: "cluster19_fc8_compact"
top: "cluster19_prob_compact"
}
layer {
  bottom: "pool4"
  top: "cluster20_conv5_1"
  name: "cluster20_conv5_1"
  type: "Convolution"
  param {
    lr_mult: 1
    decay_mult: 1
  }
  param {
    lr_mult: 2
    decay_mult: 0
  }  
  convolution_param {
    num_output: 512
    pad: 1
    kernel_size: 3
  }
  conserve_gpu_memory_test: true  
}
layer {
  bottom: "cluster20_conv5_1"
  top: "cluster20_conv5_1"
  name: "cluster20_Relu5_1"
  type: "ReLU"
}
layer {
  bottom: "cluster20_conv5_1"
  top: "cluster20_conv5_2"
  name: "cluster20_conv5_2"
  type: "Convolution"
  param {
    lr_mult: 1
    decay_mult: 1
  }
  param {
    lr_mult: 2
    decay_mult: 0
  }  
  convolution_param {
    num_output: 512
    pad: 1
    kernel_size: 3
  }
  conserve_gpu_memory_test: true  
}
layer {
  bottom: "cluster20_conv5_2"
  top: "cluster20_conv5_2"
  name: "cluster20_Relu5_2"
  type: "ReLU"
}
layer {
  bottom: "cluster20_conv5_2"
  top: "cluster20_conv5_3"
  name: "cluster20_conv5_3"
  type: "Convolution"
  param {
    lr_mult: 1
    decay_mult: 1
  }
  param {
    lr_mult: 2
    decay_mult: 0
  }  
  convolution_param {
    num_output: 512
    pad: 1
    kernel_size: 3
  }
  conserve_gpu_memory_test: true  
}
layer {
  bottom: "cluster20_conv5_3"
  top: "cluster20_conv5_3"
  name: "cluster20_Relu5_3"
  type: "ReLU"
}
layer {
  bottom: "cluster20_conv5_3"
  top: "cluster20_pool5"
  name: "cluster20_pool5"
  type: "Pooling"
  pooling_param {
    pool: MAX
    kernel_size: 2
    stride: 2
  }
}
layer {
  bottom: "cluster20_pool5"
  top: "cluster20_fc6"
  name: "cluster20_fc6"
  type: "InnerProduct"
  param {
    lr_mult: 1
    decay_mult: 1
  }
  param {
    lr_mult: 2
    decay_mult: 0
  }  
  inner_product_param {
    num_output: 4096
    weight_filler {
      type: "gaussian"
      std: 0.1
    }
    bias_filler {
      type: "constant"
      value: 0
    }
		quantization_kmean_num_cluster: 128
		quantization_num_segment: 1792
		quantization_kmean_cluster_centers_file: "models/VGG_ILSVRC_16_layers/211839e770f7b538e2d8/84clusters/84clusters_v2.0/iter_12000/cluster20_fc6_128_1792_kmean_cluster_centers.binaryproto"
		quantization_kmean_cluster_indices_file: "models/VGG_ILSVRC_16_layers/211839e770f7b538e2d8/84clusters/84clusters_v2.0/iter_12000/cluster20_fc6_128_1792_kmean_cluster_indices.binaryproto"
  }
	conserve_gpu_memory_test: true
	parameter_compress: true
}
layer {
  bottom: "cluster20_fc6"
  top: "cluster20_fc6"
  name: "cluster20_Relu6"
  type: "ReLU"
}
layer {
  bottom: "cluster20_fc6"
  top: "cluster20_fc6"
  name: "cluster20_drop6"
  type: "Dropout"
  dropout_param {
    dropout_ratio: 0.5
  }
}
layer {
  bottom: "cluster20_fc6"
  top: "cluster20_fc7"
  name: "cluster20_fc7"
  type: "InnerProduct"
  param {
    lr_mult: 1
    decay_mult: 1
  }
  param {
    lr_mult: 2
    decay_mult: 0
  }  
  inner_product_param {
    num_output: 4096
    weight_filler {
      type: "gaussian"
      std: 0.1
    }
    bias_filler {
      type: "constant"
      value: 0
    }
		quantization_kmean_num_cluster: 256
		quantization_num_segment: 1024
		quantization_kmean_cluster_centers_file: "models/VGG_ILSVRC_16_layers/211839e770f7b538e2d8/84clusters/84clusters_v2.0/iter_12000/cluster20_fc7_256_1024_kmean_cluster_centers.binaryproto"
		quantization_kmean_cluster_indices_file: "models/VGG_ILSVRC_16_layers/211839e770f7b538e2d8/84clusters/84clusters_v2.0/iter_12000/cluster20_fc7_256_1024_kmean_cluster_indices.binaryproto"
  }
	conserve_gpu_memory_test: true
	parameter_compress: true
}
layer {
  bottom: "cluster20_fc7"
  top: "cluster20_fc7"
  name: "cluster20_Relu7"
  type: "ReLU"
}
layer {
  bottom: "cluster20_fc7"
  top: "cluster20_fc7"
  name: "cluster20_drop7"
  type: "Dropout"
  dropout_param {
    dropout_ratio: 0.5
  }
}
layer {
  bottom: "cluster20_fc7"
  top: "cluster20_fc8_compact"
  name: "cluster20_fc8_compact"
  type: "InnerProduct"
  param {
    lr_mult: 1
    decay_mult: 1
  }
  param {
    lr_mult: 2
    decay_mult: 0
  }  
  inner_product_param {
	num_output: 142
    weight_filler {
      type: "gaussian"
      std: 0.01
    }
    bias_filler {
      type: "constant"
      value: 0
    }     
  }
}

layer {
name: "cluster20_prob_compact"
type: "Softmax"
bottom: "cluster20_fc8_compact"
top: "cluster20_prob_compact"
}
layer {
  bottom: "pool4"
  top: "cluster21_conv5_1"
  name: "cluster21_conv5_1"
  type: "Convolution"
  param {
    lr_mult: 1
    decay_mult: 1
  }
  param {
    lr_mult: 2
    decay_mult: 0
  }  
  convolution_param {
    num_output: 512
    pad: 1
    kernel_size: 3
  }
  conserve_gpu_memory_test: true  
}
layer {
  bottom: "cluster21_conv5_1"
  top: "cluster21_conv5_1"
  name: "cluster21_Relu5_1"
  type: "ReLU"
}
layer {
  bottom: "cluster21_conv5_1"
  top: "cluster21_conv5_2"
  name: "cluster21_conv5_2"
  type: "Convolution"
  param {
    lr_mult: 1
    decay_mult: 1
  }
  param {
    lr_mult: 2
    decay_mult: 0
  }  
  convolution_param {
    num_output: 512
    pad: 1
    kernel_size: 3
  }
  conserve_gpu_memory_test: true  
}
layer {
  bottom: "cluster21_conv5_2"
  top: "cluster21_conv5_2"
  name: "cluster21_Relu5_2"
  type: "ReLU"
}
layer {
  bottom: "cluster21_conv5_2"
  top: "cluster21_conv5_3"
  name: "cluster21_conv5_3"
  type: "Convolution"
  param {
    lr_mult: 1
    decay_mult: 1
  }
  param {
    lr_mult: 2
    decay_mult: 0
  }  
  convolution_param {
    num_output: 512
    pad: 1
    kernel_size: 3
  }
  conserve_gpu_memory_test: true  
}
layer {
  bottom: "cluster21_conv5_3"
  top: "cluster21_conv5_3"
  name: "cluster21_Relu5_3"
  type: "ReLU"
}
layer {
  bottom: "cluster21_conv5_3"
  top: "cluster21_pool5"
  name: "cluster21_pool5"
  type: "Pooling"
  pooling_param {
    pool: MAX
    kernel_size: 2
    stride: 2
  }
}
layer {
  bottom: "cluster21_pool5"
  top: "cluster21_fc6"
  name: "cluster21_fc6"
  type: "InnerProduct"
  param {
    lr_mult: 1
    decay_mult: 1
  }
  param {
    lr_mult: 2
    decay_mult: 0
  }  
  inner_product_param {
    num_output: 4096
    weight_filler {
      type: "gaussian"
      std: 0.1
    }
    bias_filler {
      type: "constant"
      value: 0
    }
		quantization_kmean_num_cluster: 128
		quantization_num_segment: 1792
		quantization_kmean_cluster_centers_file: "models/VGG_ILSVRC_16_layers/211839e770f7b538e2d8/84clusters/84clusters_v2.0/iter_12000/cluster21_fc6_128_1792_kmean_cluster_centers.binaryproto"
		quantization_kmean_cluster_indices_file: "models/VGG_ILSVRC_16_layers/211839e770f7b538e2d8/84clusters/84clusters_v2.0/iter_12000/cluster21_fc6_128_1792_kmean_cluster_indices.binaryproto"
  }
	conserve_gpu_memory_test: true
	parameter_compress: true
}
layer {
  bottom: "cluster21_fc6"
  top: "cluster21_fc6"
  name: "cluster21_Relu6"
  type: "ReLU"
}
layer {
  bottom: "cluster21_fc6"
  top: "cluster21_fc6"
  name: "cluster21_drop6"
  type: "Dropout"
  dropout_param {
    dropout_ratio: 0.5
  }
}
layer {
  bottom: "cluster21_fc6"
  top: "cluster21_fc7"
  name: "cluster21_fc7"
  type: "InnerProduct"
  param {
    lr_mult: 1
    decay_mult: 1
  }
  param {
    lr_mult: 2
    decay_mult: 0
  }  
  inner_product_param {
    num_output: 4096
    weight_filler {
      type: "gaussian"
      std: 0.1
    }
    bias_filler {
      type: "constant"
      value: 0
    }
		quantization_kmean_num_cluster: 256
		quantization_num_segment: 1024
		quantization_kmean_cluster_centers_file: "models/VGG_ILSVRC_16_layers/211839e770f7b538e2d8/84clusters/84clusters_v2.0/iter_12000/cluster21_fc7_256_1024_kmean_cluster_centers.binaryproto"
		quantization_kmean_cluster_indices_file: "models/VGG_ILSVRC_16_layers/211839e770f7b538e2d8/84clusters/84clusters_v2.0/iter_12000/cluster21_fc7_256_1024_kmean_cluster_indices.binaryproto"
  }
	conserve_gpu_memory_test: true
	parameter_compress: true
}
layer {
  bottom: "cluster21_fc7"
  top: "cluster21_fc7"
  name: "cluster21_Relu7"
  type: "ReLU"
}
layer {
  bottom: "cluster21_fc7"
  top: "cluster21_fc7"
  name: "cluster21_drop7"
  type: "Dropout"
  dropout_param {
    dropout_ratio: 0.5
  }
}
layer {
  bottom: "cluster21_fc7"
  top: "cluster21_fc8_compact"
  name: "cluster21_fc8_compact"
  type: "InnerProduct"
  param {
    lr_mult: 1
    decay_mult: 1
  }
  param {
    lr_mult: 2
    decay_mult: 0
  }  
  inner_product_param {
	num_output: 40
    weight_filler {
      type: "gaussian"
      std: 0.01
    }
    bias_filler {
      type: "constant"
      value: 0
    }     
  }
}

layer {
name: "cluster21_prob_compact"
type: "Softmax"
bottom: "cluster21_fc8_compact"
top: "cluster21_prob_compact"
}
layer {
  bottom: "pool4"
  top: "cluster22_conv5_1"
  name: "cluster22_conv5_1"
  type: "Convolution"
  param {
    lr_mult: 1
    decay_mult: 1
  }
  param {
    lr_mult: 2
    decay_mult: 0
  }  
  convolution_param {
    num_output: 512
    pad: 1
    kernel_size: 3
  }
  conserve_gpu_memory_test: true  
}
layer {
  bottom: "cluster22_conv5_1"
  top: "cluster22_conv5_1"
  name: "cluster22_Relu5_1"
  type: "ReLU"
}
layer {
  bottom: "cluster22_conv5_1"
  top: "cluster22_conv5_2"
  name: "cluster22_conv5_2"
  type: "Convolution"
  param {
    lr_mult: 1
    decay_mult: 1
  }
  param {
    lr_mult: 2
    decay_mult: 0
  }  
  convolution_param {
    num_output: 512
    pad: 1
    kernel_size: 3
  }
  conserve_gpu_memory_test: true  
}
layer {
  bottom: "cluster22_conv5_2"
  top: "cluster22_conv5_2"
  name: "cluster22_Relu5_2"
  type: "ReLU"
}
layer {
  bottom: "cluster22_conv5_2"
  top: "cluster22_conv5_3"
  name: "cluster22_conv5_3"
  type: "Convolution"
  param {
    lr_mult: 1
    decay_mult: 1
  }
  param {
    lr_mult: 2
    decay_mult: 0
  }  
  convolution_param {
    num_output: 512
    pad: 1
    kernel_size: 3
  }
  conserve_gpu_memory_test: true  
}
layer {
  bottom: "cluster22_conv5_3"
  top: "cluster22_conv5_3"
  name: "cluster22_Relu5_3"
  type: "ReLU"
}
layer {
  bottom: "cluster22_conv5_3"
  top: "cluster22_pool5"
  name: "cluster22_pool5"
  type: "Pooling"
  pooling_param {
    pool: MAX
    kernel_size: 2
    stride: 2
  }
}
layer {
  bottom: "cluster22_pool5"
  top: "cluster22_fc6"
  name: "cluster22_fc6"
  type: "InnerProduct"
  param {
    lr_mult: 1
    decay_mult: 1
  }
  param {
    lr_mult: 2
    decay_mult: 0
  }  
  inner_product_param {
    num_output: 4096
    weight_filler {
      type: "gaussian"
      std: 0.1
    }
    bias_filler {
      type: "constant"
      value: 0
    }
		quantization_kmean_num_cluster: 128
		quantization_num_segment: 1792
		quantization_kmean_cluster_centers_file: "models/VGG_ILSVRC_16_layers/211839e770f7b538e2d8/84clusters/84clusters_v2.0/iter_12000/cluster22_fc6_128_1792_kmean_cluster_centers.binaryproto"
		quantization_kmean_cluster_indices_file: "models/VGG_ILSVRC_16_layers/211839e770f7b538e2d8/84clusters/84clusters_v2.0/iter_12000/cluster22_fc6_128_1792_kmean_cluster_indices.binaryproto"
  }
	conserve_gpu_memory_test: true
	parameter_compress: true
}
layer {
  bottom: "cluster22_fc6"
  top: "cluster22_fc6"
  name: "cluster22_Relu6"
  type: "ReLU"
}
layer {
  bottom: "cluster22_fc6"
  top: "cluster22_fc6"
  name: "cluster22_drop6"
  type: "Dropout"
  dropout_param {
    dropout_ratio: 0.5
  }
}
layer {
  bottom: "cluster22_fc6"
  top: "cluster22_fc7"
  name: "cluster22_fc7"
  type: "InnerProduct"
  param {
    lr_mult: 1
    decay_mult: 1
  }
  param {
    lr_mult: 2
    decay_mult: 0
  }  
  inner_product_param {
    num_output: 4096
    weight_filler {
      type: "gaussian"
      std: 0.1
    }
    bias_filler {
      type: "constant"
      value: 0
    }
		quantization_kmean_num_cluster: 256
		quantization_num_segment: 1024
		quantization_kmean_cluster_centers_file: "models/VGG_ILSVRC_16_layers/211839e770f7b538e2d8/84clusters/84clusters_v2.0/iter_12000/cluster22_fc7_256_1024_kmean_cluster_centers.binaryproto"
		quantization_kmean_cluster_indices_file: "models/VGG_ILSVRC_16_layers/211839e770f7b538e2d8/84clusters/84clusters_v2.0/iter_12000/cluster22_fc7_256_1024_kmean_cluster_indices.binaryproto"
  }
	conserve_gpu_memory_test: true
	parameter_compress: true
}
layer {
  bottom: "cluster22_fc7"
  top: "cluster22_fc7"
  name: "cluster22_Relu7"
  type: "ReLU"
}
layer {
  bottom: "cluster22_fc7"
  top: "cluster22_fc7"
  name: "cluster22_drop7"
  type: "Dropout"
  dropout_param {
    dropout_ratio: 0.5
  }
}
layer {
  bottom: "cluster22_fc7"
  top: "cluster22_fc8_compact"
  name: "cluster22_fc8_compact"
  type: "InnerProduct"
  param {
    lr_mult: 1
    decay_mult: 1
  }
  param {
    lr_mult: 2
    decay_mult: 0
  }  
  inner_product_param {
	num_output: 188
    weight_filler {
      type: "gaussian"
      std: 0.01
    }
    bias_filler {
      type: "constant"
      value: 0
    }     
  }
}

layer {
name: "cluster22_prob_compact"
type: "Softmax"
bottom: "cluster22_fc8_compact"
top: "cluster22_prob_compact"
}
layer {
  bottom: "pool4"
  top: "cluster23_conv5_1"
  name: "cluster23_conv5_1"
  type: "Convolution"
  param {
    lr_mult: 1
    decay_mult: 1
  }
  param {
    lr_mult: 2
    decay_mult: 0
  }  
  convolution_param {
    num_output: 512
    pad: 1
    kernel_size: 3
  }
  conserve_gpu_memory_test: true  
}
layer {
  bottom: "cluster23_conv5_1"
  top: "cluster23_conv5_1"
  name: "cluster23_Relu5_1"
  type: "ReLU"
}
layer {
  bottom: "cluster23_conv5_1"
  top: "cluster23_conv5_2"
  name: "cluster23_conv5_2"
  type: "Convolution"
  param {
    lr_mult: 1
    decay_mult: 1
  }
  param {
    lr_mult: 2
    decay_mult: 0
  }  
  convolution_param {
    num_output: 512
    pad: 1
    kernel_size: 3
  }
  conserve_gpu_memory_test: true  
}
layer {
  bottom: "cluster23_conv5_2"
  top: "cluster23_conv5_2"
  name: "cluster23_Relu5_2"
  type: "ReLU"
}
layer {
  bottom: "cluster23_conv5_2"
  top: "cluster23_conv5_3"
  name: "cluster23_conv5_3"
  type: "Convolution"
  param {
    lr_mult: 1
    decay_mult: 1
  }
  param {
    lr_mult: 2
    decay_mult: 0
  }  
  convolution_param {
    num_output: 512
    pad: 1
    kernel_size: 3
  }
  conserve_gpu_memory_test: true  
}
layer {
  bottom: "cluster23_conv5_3"
  top: "cluster23_conv5_3"
  name: "cluster23_Relu5_3"
  type: "ReLU"
}
layer {
  bottom: "cluster23_conv5_3"
  top: "cluster23_pool5"
  name: "cluster23_pool5"
  type: "Pooling"
  pooling_param {
    pool: MAX
    kernel_size: 2
    stride: 2
  }
}
layer {
  bottom: "cluster23_pool5"
  top: "cluster23_fc6"
  name: "cluster23_fc6"
  type: "InnerProduct"
  param {
    lr_mult: 1
    decay_mult: 1
  }
  param {
    lr_mult: 2
    decay_mult: 0
  }  
  inner_product_param {
    num_output: 4096
    weight_filler {
      type: "gaussian"
      std: 0.1
    }
    bias_filler {
      type: "constant"
      value: 0
    }
		quantization_kmean_num_cluster: 128
		quantization_num_segment: 1792
		quantization_kmean_cluster_centers_file: "models/VGG_ILSVRC_16_layers/211839e770f7b538e2d8/84clusters/84clusters_v2.0/iter_12000/cluster23_fc6_128_1792_kmean_cluster_centers.binaryproto"
		quantization_kmean_cluster_indices_file: "models/VGG_ILSVRC_16_layers/211839e770f7b538e2d8/84clusters/84clusters_v2.0/iter_12000/cluster23_fc6_128_1792_kmean_cluster_indices.binaryproto"
  }
	conserve_gpu_memory_test: true
	parameter_compress: true
}
layer {
  bottom: "cluster23_fc6"
  top: "cluster23_fc6"
  name: "cluster23_Relu6"
  type: "ReLU"
}
layer {
  bottom: "cluster23_fc6"
  top: "cluster23_fc6"
  name: "cluster23_drop6"
  type: "Dropout"
  dropout_param {
    dropout_ratio: 0.5
  }
}
layer {
  bottom: "cluster23_fc6"
  top: "cluster23_fc7"
  name: "cluster23_fc7"
  type: "InnerProduct"
  param {
    lr_mult: 1
    decay_mult: 1
  }
  param {
    lr_mult: 2
    decay_mult: 0
  }  
  inner_product_param {
    num_output: 4096
    weight_filler {
      type: "gaussian"
      std: 0.1
    }
    bias_filler {
      type: "constant"
      value: 0
    }
		quantization_kmean_num_cluster: 256
		quantization_num_segment: 1024
		quantization_kmean_cluster_centers_file: "models/VGG_ILSVRC_16_layers/211839e770f7b538e2d8/84clusters/84clusters_v2.0/iter_12000/cluster23_fc7_256_1024_kmean_cluster_centers.binaryproto"
		quantization_kmean_cluster_indices_file: "models/VGG_ILSVRC_16_layers/211839e770f7b538e2d8/84clusters/84clusters_v2.0/iter_12000/cluster23_fc7_256_1024_kmean_cluster_indices.binaryproto"
  }
	conserve_gpu_memory_test: true
	parameter_compress: true
}
layer {
  bottom: "cluster23_fc7"
  top: "cluster23_fc7"
  name: "cluster23_Relu7"
  type: "ReLU"
}
layer {
  bottom: "cluster23_fc7"
  top: "cluster23_fc7"
  name: "cluster23_drop7"
  type: "Dropout"
  dropout_param {
    dropout_ratio: 0.5
  }
}
layer {
  bottom: "cluster23_fc7"
  top: "cluster23_fc8_compact"
  name: "cluster23_fc8_compact"
  type: "InnerProduct"
  param {
    lr_mult: 1
    decay_mult: 1
  }
  param {
    lr_mult: 2
    decay_mult: 0
  }  
  inner_product_param {
	num_output: 184
    weight_filler {
      type: "gaussian"
      std: 0.01
    }
    bias_filler {
      type: "constant"
      value: 0
    }     
  }
}

layer {
name: "cluster23_prob_compact"
type: "Softmax"
bottom: "cluster23_fc8_compact"
top: "cluster23_prob_compact"
}
layer {
  bottom: "pool4"
  top: "cluster24_conv5_1"
  name: "cluster24_conv5_1"
  type: "Convolution"
  param {
    lr_mult: 1
    decay_mult: 1
  }
  param {
    lr_mult: 2
    decay_mult: 0
  }  
  convolution_param {
    num_output: 512
    pad: 1
    kernel_size: 3
  }
  conserve_gpu_memory_test: true  
}
layer {
  bottom: "cluster24_conv5_1"
  top: "cluster24_conv5_1"
  name: "cluster24_Relu5_1"
  type: "ReLU"
}
layer {
  bottom: "cluster24_conv5_1"
  top: "cluster24_conv5_2"
  name: "cluster24_conv5_2"
  type: "Convolution"
  param {
    lr_mult: 1
    decay_mult: 1
  }
  param {
    lr_mult: 2
    decay_mult: 0
  }  
  convolution_param {
    num_output: 512
    pad: 1
    kernel_size: 3
  }
  conserve_gpu_memory_test: true  
}
layer {
  bottom: "cluster24_conv5_2"
  top: "cluster24_conv5_2"
  name: "cluster24_Relu5_2"
  type: "ReLU"
}
layer {
  bottom: "cluster24_conv5_2"
  top: "cluster24_conv5_3"
  name: "cluster24_conv5_3"
  type: "Convolution"
  param {
    lr_mult: 1
    decay_mult: 1
  }
  param {
    lr_mult: 2
    decay_mult: 0
  }  
  convolution_param {
    num_output: 512
    pad: 1
    kernel_size: 3
  }
  conserve_gpu_memory_test: true  
}
layer {
  bottom: "cluster24_conv5_3"
  top: "cluster24_conv5_3"
  name: "cluster24_Relu5_3"
  type: "ReLU"
}
layer {
  bottom: "cluster24_conv5_3"
  top: "cluster24_pool5"
  name: "cluster24_pool5"
  type: "Pooling"
  pooling_param {
    pool: MAX
    kernel_size: 2
    stride: 2
  }
}
layer {
  bottom: "cluster24_pool5"
  top: "cluster24_fc6"
  name: "cluster24_fc6"
  type: "InnerProduct"
  param {
    lr_mult: 1
    decay_mult: 1
  }
  param {
    lr_mult: 2
    decay_mult: 0
  }  
  inner_product_param {
    num_output: 4096
    weight_filler {
      type: "gaussian"
      std: 0.1
    }
    bias_filler {
      type: "constant"
      value: 0
    }
		quantization_kmean_num_cluster: 128
		quantization_num_segment: 1792
		quantization_kmean_cluster_centers_file: "models/VGG_ILSVRC_16_layers/211839e770f7b538e2d8/84clusters/84clusters_v2.0/iter_12000/cluster24_fc6_128_1792_kmean_cluster_centers.binaryproto"
		quantization_kmean_cluster_indices_file: "models/VGG_ILSVRC_16_layers/211839e770f7b538e2d8/84clusters/84clusters_v2.0/iter_12000/cluster24_fc6_128_1792_kmean_cluster_indices.binaryproto"
  }
	conserve_gpu_memory_test: true
	parameter_compress: true
}
layer {
  bottom: "cluster24_fc6"
  top: "cluster24_fc6"
  name: "cluster24_Relu6"
  type: "ReLU"
}
layer {
  bottom: "cluster24_fc6"
  top: "cluster24_fc6"
  name: "cluster24_drop6"
  type: "Dropout"
  dropout_param {
    dropout_ratio: 0.5
  }
}
layer {
  bottom: "cluster24_fc6"
  top: "cluster24_fc7"
  name: "cluster24_fc7"
  type: "InnerProduct"
  param {
    lr_mult: 1
    decay_mult: 1
  }
  param {
    lr_mult: 2
    decay_mult: 0
  }  
  inner_product_param {
    num_output: 4096
    weight_filler {
      type: "gaussian"
      std: 0.1
    }
    bias_filler {
      type: "constant"
      value: 0
    }
		quantization_kmean_num_cluster: 256
		quantization_num_segment: 1024
		quantization_kmean_cluster_centers_file: "models/VGG_ILSVRC_16_layers/211839e770f7b538e2d8/84clusters/84clusters_v2.0/iter_12000/cluster24_fc7_256_1024_kmean_cluster_centers.binaryproto"
		quantization_kmean_cluster_indices_file: "models/VGG_ILSVRC_16_layers/211839e770f7b538e2d8/84clusters/84clusters_v2.0/iter_12000/cluster24_fc7_256_1024_kmean_cluster_indices.binaryproto"
  }
	conserve_gpu_memory_test: true
	parameter_compress: true
}
layer {
  bottom: "cluster24_fc7"
  top: "cluster24_fc7"
  name: "cluster24_Relu7"
  type: "ReLU"
}
layer {
  bottom: "cluster24_fc7"
  top: "cluster24_fc7"
  name: "cluster24_drop7"
  type: "Dropout"
  dropout_param {
    dropout_ratio: 0.5
  }
}
layer {
  bottom: "cluster24_fc7"
  top: "cluster24_fc8_compact"
  name: "cluster24_fc8_compact"
  type: "InnerProduct"
  param {
    lr_mult: 1
    decay_mult: 1
  }
  param {
    lr_mult: 2
    decay_mult: 0
  }  
  inner_product_param {
	num_output: 53
    weight_filler {
      type: "gaussian"
      std: 0.01
    }
    bias_filler {
      type: "constant"
      value: 0
    }     
  }
}

layer {
name: "cluster24_prob_compact"
type: "Softmax"
bottom: "cluster24_fc8_compact"
top: "cluster24_prob_compact"
}
layer {
  bottom: "pool4"
  top: "cluster25_conv5_1"
  name: "cluster25_conv5_1"
  type: "Convolution"
  param {
    lr_mult: 1
    decay_mult: 1
  }
  param {
    lr_mult: 2
    decay_mult: 0
  }  
  convolution_param {
    num_output: 512
    pad: 1
    kernel_size: 3
  }
  conserve_gpu_memory_test: true  
}
layer {
  bottom: "cluster25_conv5_1"
  top: "cluster25_conv5_1"
  name: "cluster25_Relu5_1"
  type: "ReLU"
}
layer {
  bottom: "cluster25_conv5_1"
  top: "cluster25_conv5_2"
  name: "cluster25_conv5_2"
  type: "Convolution"
  param {
    lr_mult: 1
    decay_mult: 1
  }
  param {
    lr_mult: 2
    decay_mult: 0
  }  
  convolution_param {
    num_output: 512
    pad: 1
    kernel_size: 3
  }
  conserve_gpu_memory_test: true  
}
layer {
  bottom: "cluster25_conv5_2"
  top: "cluster25_conv5_2"
  name: "cluster25_Relu5_2"
  type: "ReLU"
}
layer {
  bottom: "cluster25_conv5_2"
  top: "cluster25_conv5_3"
  name: "cluster25_conv5_3"
  type: "Convolution"
  param {
    lr_mult: 1
    decay_mult: 1
  }
  param {
    lr_mult: 2
    decay_mult: 0
  }  
  convolution_param {
    num_output: 512
    pad: 1
    kernel_size: 3
  }
  conserve_gpu_memory_test: true  
}
layer {
  bottom: "cluster25_conv5_3"
  top: "cluster25_conv5_3"
  name: "cluster25_Relu5_3"
  type: "ReLU"
}
layer {
  bottom: "cluster25_conv5_3"
  top: "cluster25_pool5"
  name: "cluster25_pool5"
  type: "Pooling"
  pooling_param {
    pool: MAX
    kernel_size: 2
    stride: 2
  }
}
layer {
  bottom: "cluster25_pool5"
  top: "cluster25_fc6"
  name: "cluster25_fc6"
  type: "InnerProduct"
  param {
    lr_mult: 1
    decay_mult: 1
  }
  param {
    lr_mult: 2
    decay_mult: 0
  }  
  inner_product_param {
    num_output: 4096
    weight_filler {
      type: "gaussian"
      std: 0.1
    }
    bias_filler {
      type: "constant"
      value: 0
    }
		quantization_kmean_num_cluster: 128
		quantization_num_segment: 1792
		quantization_kmean_cluster_centers_file: "models/VGG_ILSVRC_16_layers/211839e770f7b538e2d8/84clusters/84clusters_v2.0/iter_12000/cluster25_fc6_128_1792_kmean_cluster_centers.binaryproto"
		quantization_kmean_cluster_indices_file: "models/VGG_ILSVRC_16_layers/211839e770f7b538e2d8/84clusters/84clusters_v2.0/iter_12000/cluster25_fc6_128_1792_kmean_cluster_indices.binaryproto"
  }
	conserve_gpu_memory_test: true
	parameter_compress: true
}
layer {
  bottom: "cluster25_fc6"
  top: "cluster25_fc6"
  name: "cluster25_Relu6"
  type: "ReLU"
}
layer {
  bottom: "cluster25_fc6"
  top: "cluster25_fc6"
  name: "cluster25_drop6"
  type: "Dropout"
  dropout_param {
    dropout_ratio: 0.5
  }
}
layer {
  bottom: "cluster25_fc6"
  top: "cluster25_fc7"
  name: "cluster25_fc7"
  type: "InnerProduct"
  param {
    lr_mult: 1
    decay_mult: 1
  }
  param {
    lr_mult: 2
    decay_mult: 0
  }  
  inner_product_param {
    num_output: 4096
    weight_filler {
      type: "gaussian"
      std: 0.1
    }
    bias_filler {
      type: "constant"
      value: 0
    }
		quantization_kmean_num_cluster: 256
		quantization_num_segment: 1024
		quantization_kmean_cluster_centers_file: "models/VGG_ILSVRC_16_layers/211839e770f7b538e2d8/84clusters/84clusters_v2.0/iter_12000/cluster25_fc7_256_1024_kmean_cluster_centers.binaryproto"
		quantization_kmean_cluster_indices_file: "models/VGG_ILSVRC_16_layers/211839e770f7b538e2d8/84clusters/84clusters_v2.0/iter_12000/cluster25_fc7_256_1024_kmean_cluster_indices.binaryproto"
  }
	conserve_gpu_memory_test: true
	parameter_compress: true
}
layer {
  bottom: "cluster25_fc7"
  top: "cluster25_fc7"
  name: "cluster25_Relu7"
  type: "ReLU"
}
layer {
  bottom: "cluster25_fc7"
  top: "cluster25_fc7"
  name: "cluster25_drop7"
  type: "Dropout"
  dropout_param {
    dropout_ratio: 0.5
  }
}
layer {
  bottom: "cluster25_fc7"
  top: "cluster25_fc8_compact"
  name: "cluster25_fc8_compact"
  type: "InnerProduct"
  param {
    lr_mult: 1
    decay_mult: 1
  }
  param {
    lr_mult: 2
    decay_mult: 0
  }  
  inner_product_param {
	num_output: 76
    weight_filler {
      type: "gaussian"
      std: 0.01
    }
    bias_filler {
      type: "constant"
      value: 0
    }     
  }
}

layer {
name: "cluster25_prob_compact"
type: "Softmax"
bottom: "cluster25_fc8_compact"
top: "cluster25_prob_compact"
}
layer {
  bottom: "pool4"
  top: "cluster26_conv5_1"
  name: "cluster26_conv5_1"
  type: "Convolution"
  param {
    lr_mult: 1
    decay_mult: 1
  }
  param {
    lr_mult: 2
    decay_mult: 0
  }  
  convolution_param {
    num_output: 512
    pad: 1
    kernel_size: 3
  }
  conserve_gpu_memory_test: true  
}
layer {
  bottom: "cluster26_conv5_1"
  top: "cluster26_conv5_1"
  name: "cluster26_Relu5_1"
  type: "ReLU"
}
layer {
  bottom: "cluster26_conv5_1"
  top: "cluster26_conv5_2"
  name: "cluster26_conv5_2"
  type: "Convolution"
  param {
    lr_mult: 1
    decay_mult: 1
  }
  param {
    lr_mult: 2
    decay_mult: 0
  }  
  convolution_param {
    num_output: 512
    pad: 1
    kernel_size: 3
  }
  conserve_gpu_memory_test: true  
}
layer {
  bottom: "cluster26_conv5_2"
  top: "cluster26_conv5_2"
  name: "cluster26_Relu5_2"
  type: "ReLU"
}
layer {
  bottom: "cluster26_conv5_2"
  top: "cluster26_conv5_3"
  name: "cluster26_conv5_3"
  type: "Convolution"
  param {
    lr_mult: 1
    decay_mult: 1
  }
  param {
    lr_mult: 2
    decay_mult: 0
  }  
  convolution_param {
    num_output: 512
    pad: 1
    kernel_size: 3
  }
  conserve_gpu_memory_test: true  
}
layer {
  bottom: "cluster26_conv5_3"
  top: "cluster26_conv5_3"
  name: "cluster26_Relu5_3"
  type: "ReLU"
}
layer {
  bottom: "cluster26_conv5_3"
  top: "cluster26_pool5"
  name: "cluster26_pool5"
  type: "Pooling"
  pooling_param {
    pool: MAX
    kernel_size: 2
    stride: 2
  }
}
layer {
  bottom: "cluster26_pool5"
  top: "cluster26_fc6"
  name: "cluster26_fc6"
  type: "InnerProduct"
  param {
    lr_mult: 1
    decay_mult: 1
  }
  param {
    lr_mult: 2
    decay_mult: 0
  }  
  inner_product_param {
    num_output: 4096
    weight_filler {
      type: "gaussian"
      std: 0.1
    }
    bias_filler {
      type: "constant"
      value: 0
    }
		quantization_kmean_num_cluster: 128
		quantization_num_segment: 1792
		quantization_kmean_cluster_centers_file: "models/VGG_ILSVRC_16_layers/211839e770f7b538e2d8/84clusters/84clusters_v2.0/iter_12000/cluster26_fc6_128_1792_kmean_cluster_centers.binaryproto"
		quantization_kmean_cluster_indices_file: "models/VGG_ILSVRC_16_layers/211839e770f7b538e2d8/84clusters/84clusters_v2.0/iter_12000/cluster26_fc6_128_1792_kmean_cluster_indices.binaryproto"
  }
	conserve_gpu_memory_test: true
	parameter_compress: true
}
layer {
  bottom: "cluster26_fc6"
  top: "cluster26_fc6"
  name: "cluster26_Relu6"
  type: "ReLU"
}
layer {
  bottom: "cluster26_fc6"
  top: "cluster26_fc6"
  name: "cluster26_drop6"
  type: "Dropout"
  dropout_param {
    dropout_ratio: 0.5
  }
}
layer {
  bottom: "cluster26_fc6"
  top: "cluster26_fc7"
  name: "cluster26_fc7"
  type: "InnerProduct"
  param {
    lr_mult: 1
    decay_mult: 1
  }
  param {
    lr_mult: 2
    decay_mult: 0
  }  
  inner_product_param {
    num_output: 4096
    weight_filler {
      type: "gaussian"
      std: 0.1
    }
    bias_filler {
      type: "constant"
      value: 0
    }
		quantization_kmean_num_cluster: 256
		quantization_num_segment: 1024
		quantization_kmean_cluster_centers_file: "models/VGG_ILSVRC_16_layers/211839e770f7b538e2d8/84clusters/84clusters_v2.0/iter_12000/cluster26_fc7_256_1024_kmean_cluster_centers.binaryproto"
		quantization_kmean_cluster_indices_file: "models/VGG_ILSVRC_16_layers/211839e770f7b538e2d8/84clusters/84clusters_v2.0/iter_12000/cluster26_fc7_256_1024_kmean_cluster_indices.binaryproto"
  }
	conserve_gpu_memory_test: true
	parameter_compress: true
}
layer {
  bottom: "cluster26_fc7"
  top: "cluster26_fc7"
  name: "cluster26_Relu7"
  type: "ReLU"
}
layer {
  bottom: "cluster26_fc7"
  top: "cluster26_fc7"
  name: "cluster26_drop7"
  type: "Dropout"
  dropout_param {
    dropout_ratio: 0.5
  }
}
layer {
  bottom: "cluster26_fc7"
  top: "cluster26_fc8_compact"
  name: "cluster26_fc8_compact"
  type: "InnerProduct"
  param {
    lr_mult: 1
    decay_mult: 1
  }
  param {
    lr_mult: 2
    decay_mult: 0
  }  
  inner_product_param {
	num_output: 107
    weight_filler {
      type: "gaussian"
      std: 0.01
    }
    bias_filler {
      type: "constant"
      value: 0
    }     
  }
}

layer {
name: "cluster26_prob_compact"
type: "Softmax"
bottom: "cluster26_fc8_compact"
top: "cluster26_prob_compact"
}
layer {
  bottom: "pool4"
  top: "cluster27_conv5_1"
  name: "cluster27_conv5_1"
  type: "Convolution"
  param {
    lr_mult: 1
    decay_mult: 1
  }
  param {
    lr_mult: 2
    decay_mult: 0
  }  
  convolution_param {
    num_output: 512
    pad: 1
    kernel_size: 3
  }
  conserve_gpu_memory_test: true  
}
layer {
  bottom: "cluster27_conv5_1"
  top: "cluster27_conv5_1"
  name: "cluster27_Relu5_1"
  type: "ReLU"
}
layer {
  bottom: "cluster27_conv5_1"
  top: "cluster27_conv5_2"
  name: "cluster27_conv5_2"
  type: "Convolution"
  param {
    lr_mult: 1
    decay_mult: 1
  }
  param {
    lr_mult: 2
    decay_mult: 0
  }  
  convolution_param {
    num_output: 512
    pad: 1
    kernel_size: 3
  }
  conserve_gpu_memory_test: true  
}
layer {
  bottom: "cluster27_conv5_2"
  top: "cluster27_conv5_2"
  name: "cluster27_Relu5_2"
  type: "ReLU"
}
layer {
  bottom: "cluster27_conv5_2"
  top: "cluster27_conv5_3"
  name: "cluster27_conv5_3"
  type: "Convolution"
  param {
    lr_mult: 1
    decay_mult: 1
  }
  param {
    lr_mult: 2
    decay_mult: 0
  }  
  convolution_param {
    num_output: 512
    pad: 1
    kernel_size: 3
  }
  conserve_gpu_memory_test: true  
}
layer {
  bottom: "cluster27_conv5_3"
  top: "cluster27_conv5_3"
  name: "cluster27_Relu5_3"
  type: "ReLU"
}
layer {
  bottom: "cluster27_conv5_3"
  top: "cluster27_pool5"
  name: "cluster27_pool5"
  type: "Pooling"
  pooling_param {
    pool: MAX
    kernel_size: 2
    stride: 2
  }
}
layer {
  bottom: "cluster27_pool5"
  top: "cluster27_fc6"
  name: "cluster27_fc6"
  type: "InnerProduct"
  param {
    lr_mult: 1
    decay_mult: 1
  }
  param {
    lr_mult: 2
    decay_mult: 0
  }  
  inner_product_param {
    num_output: 4096
    weight_filler {
      type: "gaussian"
      std: 0.1
    }
    bias_filler {
      type: "constant"
      value: 0
    }
		quantization_kmean_num_cluster: 128
		quantization_num_segment: 1792
		quantization_kmean_cluster_centers_file: "models/VGG_ILSVRC_16_layers/211839e770f7b538e2d8/84clusters/84clusters_v2.0/iter_12000/cluster27_fc6_128_1792_kmean_cluster_centers.binaryproto"
		quantization_kmean_cluster_indices_file: "models/VGG_ILSVRC_16_layers/211839e770f7b538e2d8/84clusters/84clusters_v2.0/iter_12000/cluster27_fc6_128_1792_kmean_cluster_indices.binaryproto"
  }
	conserve_gpu_memory_test: true
	parameter_compress: true
}
layer {
  bottom: "cluster27_fc6"
  top: "cluster27_fc6"
  name: "cluster27_Relu6"
  type: "ReLU"
}
layer {
  bottom: "cluster27_fc6"
  top: "cluster27_fc6"
  name: "cluster27_drop6"
  type: "Dropout"
  dropout_param {
    dropout_ratio: 0.5
  }
}
layer {
  bottom: "cluster27_fc6"
  top: "cluster27_fc7"
  name: "cluster27_fc7"
  type: "InnerProduct"
  param {
    lr_mult: 1
    decay_mult: 1
  }
  param {
    lr_mult: 2
    decay_mult: 0
  }  
  inner_product_param {
    num_output: 4096
    weight_filler {
      type: "gaussian"
      std: 0.1
    }
    bias_filler {
      type: "constant"
      value: 0
    }
		quantization_kmean_num_cluster: 256
		quantization_num_segment: 1024
		quantization_kmean_cluster_centers_file: "models/VGG_ILSVRC_16_layers/211839e770f7b538e2d8/84clusters/84clusters_v2.0/iter_12000/cluster27_fc7_256_1024_kmean_cluster_centers.binaryproto"
		quantization_kmean_cluster_indices_file: "models/VGG_ILSVRC_16_layers/211839e770f7b538e2d8/84clusters/84clusters_v2.0/iter_12000/cluster27_fc7_256_1024_kmean_cluster_indices.binaryproto"
  }
	conserve_gpu_memory_test: true
	parameter_compress: true
}
layer {
  bottom: "cluster27_fc7"
  top: "cluster27_fc7"
  name: "cluster27_Relu7"
  type: "ReLU"
}
layer {
  bottom: "cluster27_fc7"
  top: "cluster27_fc7"
  name: "cluster27_drop7"
  type: "Dropout"
  dropout_param {
    dropout_ratio: 0.5
  }
}
layer {
  bottom: "cluster27_fc7"
  top: "cluster27_fc8_compact"
  name: "cluster27_fc8_compact"
  type: "InnerProduct"
  param {
    lr_mult: 1
    decay_mult: 1
  }
  param {
    lr_mult: 2
    decay_mult: 0
  }  
  inner_product_param {
	num_output: 167
    weight_filler {
      type: "gaussian"
      std: 0.01
    }
    bias_filler {
      type: "constant"
      value: 0
    }     
  }
}

layer {
name: "cluster27_prob_compact"
type: "Softmax"
bottom: "cluster27_fc8_compact"
top: "cluster27_prob_compact"
}
layer {
  bottom: "pool4"
  top: "cluster28_conv5_1"
  name: "cluster28_conv5_1"
  type: "Convolution"
  param {
    lr_mult: 1
    decay_mult: 1
  }
  param {
    lr_mult: 2
    decay_mult: 0
  }  
  convolution_param {
    num_output: 512
    pad: 1
    kernel_size: 3
  }
  conserve_gpu_memory_test: true  
}
layer {
  bottom: "cluster28_conv5_1"
  top: "cluster28_conv5_1"
  name: "cluster28_Relu5_1"
  type: "ReLU"
}
layer {
  bottom: "cluster28_conv5_1"
  top: "cluster28_conv5_2"
  name: "cluster28_conv5_2"
  type: "Convolution"
  param {
    lr_mult: 1
    decay_mult: 1
  }
  param {
    lr_mult: 2
    decay_mult: 0
  }  
  convolution_param {
    num_output: 512
    pad: 1
    kernel_size: 3
  }
  conserve_gpu_memory_test: true  
}
layer {
  bottom: "cluster28_conv5_2"
  top: "cluster28_conv5_2"
  name: "cluster28_Relu5_2"
  type: "ReLU"
}
layer {
  bottom: "cluster28_conv5_2"
  top: "cluster28_conv5_3"
  name: "cluster28_conv5_3"
  type: "Convolution"
  param {
    lr_mult: 1
    decay_mult: 1
  }
  param {
    lr_mult: 2
    decay_mult: 0
  }  
  convolution_param {
    num_output: 512
    pad: 1
    kernel_size: 3
  }
  conserve_gpu_memory_test: true  
}
layer {
  bottom: "cluster28_conv5_3"
  top: "cluster28_conv5_3"
  name: "cluster28_Relu5_3"
  type: "ReLU"
}
layer {
  bottom: "cluster28_conv5_3"
  top: "cluster28_pool5"
  name: "cluster28_pool5"
  type: "Pooling"
  pooling_param {
    pool: MAX
    kernel_size: 2
    stride: 2
  }
}
layer {
  bottom: "cluster28_pool5"
  top: "cluster28_fc6"
  name: "cluster28_fc6"
  type: "InnerProduct"
  param {
    lr_mult: 1
    decay_mult: 1
  }
  param {
    lr_mult: 2
    decay_mult: 0
  }  
  inner_product_param {
    num_output: 4096
    weight_filler {
      type: "gaussian"
      std: 0.1
    }
    bias_filler {
      type: "constant"
      value: 0
    }
		quantization_kmean_num_cluster: 128
		quantization_num_segment: 1792
		quantization_kmean_cluster_centers_file: "models/VGG_ILSVRC_16_layers/211839e770f7b538e2d8/84clusters/84clusters_v2.0/iter_12000/cluster28_fc6_128_1792_kmean_cluster_centers.binaryproto"
		quantization_kmean_cluster_indices_file: "models/VGG_ILSVRC_16_layers/211839e770f7b538e2d8/84clusters/84clusters_v2.0/iter_12000/cluster28_fc6_128_1792_kmean_cluster_indices.binaryproto"
  }
	conserve_gpu_memory_test: true
	parameter_compress: true
}
layer {
  bottom: "cluster28_fc6"
  top: "cluster28_fc6"
  name: "cluster28_Relu6"
  type: "ReLU"
}
layer {
  bottom: "cluster28_fc6"
  top: "cluster28_fc6"
  name: "cluster28_drop6"
  type: "Dropout"
  dropout_param {
    dropout_ratio: 0.5
  }
}
layer {
  bottom: "cluster28_fc6"
  top: "cluster28_fc7"
  name: "cluster28_fc7"
  type: "InnerProduct"
  param {
    lr_mult: 1
    decay_mult: 1
  }
  param {
    lr_mult: 2
    decay_mult: 0
  }  
  inner_product_param {
    num_output: 4096
    weight_filler {
      type: "gaussian"
      std: 0.1
    }
    bias_filler {
      type: "constant"
      value: 0
    }
		quantization_kmean_num_cluster: 256
		quantization_num_segment: 1024
		quantization_kmean_cluster_centers_file: "models/VGG_ILSVRC_16_layers/211839e770f7b538e2d8/84clusters/84clusters_v2.0/iter_12000/cluster28_fc7_256_1024_kmean_cluster_centers.binaryproto"
		quantization_kmean_cluster_indices_file: "models/VGG_ILSVRC_16_layers/211839e770f7b538e2d8/84clusters/84clusters_v2.0/iter_12000/cluster28_fc7_256_1024_kmean_cluster_indices.binaryproto"
  }
	conserve_gpu_memory_test: true
	parameter_compress: true
}
layer {
  bottom: "cluster28_fc7"
  top: "cluster28_fc7"
  name: "cluster28_Relu7"
  type: "ReLU"
}
layer {
  bottom: "cluster28_fc7"
  top: "cluster28_fc7"
  name: "cluster28_drop7"
  type: "Dropout"
  dropout_param {
    dropout_ratio: 0.5
  }
}
layer {
  bottom: "cluster28_fc7"
  top: "cluster28_fc8_compact"
  name: "cluster28_fc8_compact"
  type: "InnerProduct"
  param {
    lr_mult: 1
    decay_mult: 1
  }
  param {
    lr_mult: 2
    decay_mult: 0
  }  
  inner_product_param {
	num_output: 138
    weight_filler {
      type: "gaussian"
      std: 0.01
    }
…
			class_id:769
			class_id:633
			class_id:491
			class_id:910
			class_id:650
			class_id:772
			class_id:686
			class_id:756
			class_id:692
			class_id:462
			class_id:816
			class_id:584
			class_id:605
			class_id:600
			class_id:764
			class_id:543
			class_id:731
			class_id:758
			class_id:680
			class_id:882
			class_id:792
			class_id:748
			class_id:961
			class_id:929
			class_id:677
			class_id:549
			class_id:438
			class_id:451
			class_id:893
			class_id:721
			class_id:440
			class_id:585
			class_id:613
			class_id:647
			class_id:763
			class_id:464
			class_id:788
			class_id:666
			class_id:823
			class_id:729
			class_id:726
			class_id:855
			class_id:889
			class_id:556
			class_id:507
			class_id:872
			class_id:907
			class_id:502
			class_id:898
			class_id:723
			class_id:859
			class_id:597
			class_id:785
			class_id:642
			class_id:700
			class_id:615
			class_id:891
			class_id:712
			class_id:747
			class_id:922
			class_id:798
			class_id:606
			class_id:966
			class_id:856
			class_id:840
			class_id:593
			class_id:879
			class_id:695
			class_id:673
			class_id:804
			class_id:826
			class_id:401
			class_id:478
			class_id:546
			class_id:885
			class_id:622
			class_id:878
			class_id:761
			class_id:720
			class_id:778
			class_id:522
			class_id:459
			class_id:432
			class_id:906
			class_id:667
			class_id:674
			class_id:421
			class_id:390
			class_id:783
			class_id:969
			class_id:759
			class_id:997
			class_id:539
			class_id:719
			class_id:999
			class_id:519
			class_id:684
			class_id:737
			class_id:447
			class_id:838
			class_id:921
			class_id:567
			class_id:513
			class_id:830
			class_id:968
			class_id:807
			class_id:435
			class_id:744
			class_id:635
			class_id:631
			class_id:725
			class_id:818
			class_id:422
			class_id:967
			class_id:865
			class_id:228
			class_id:844
			class_id:456
			class_id:314
			class_id:492
			class_id:427
			class_id:699
			class_id:515
			class_id:531
			class_id:794
			class_id:722
			class_id:488
			class_id:429
			class_id:714
			class_id:534
			class_id:592
			class_id:662
			class_id:836
			class_id:827
			class_id:881
			class_id:657
			class_id:415
			class_id:711
			class_id:470
			class_id:550
			class_id:962
			class_id:774
			class_id:552
			class_id:643
			class_id:570
			class_id:481
			class_id:509
			class_id:752
			class_id:553
			class_id:773
			class_id:681
			class_id:746
			class_id:828
			class_id:572
			class_id:443
			class_id:402
			class_id:616
			class_id:467
			class_id:901
			class_id:860
			class_id:103
			class_id:683
			class_id:837
			class_id:341
			class_id:819
		}
		compact_classify_layer_param{
			class_id:406
			class_id:532
			class_id:789
			class_id:799
			class_id:904
			class_id:905
			class_id:894
			class_id:495
			class_id:884
			class_id:556
			class_id:743
			class_id:497
			class_id:887
			class_id:706
			class_id:559
			class_id:493
			class_id:526
			class_id:857
			class_id:648
			class_id:765
			class_id:421
			class_id:580
			class_id:564
			class_id:846
			class_id:831
			class_id:687
			class_id:721
			class_id:877
			class_id:651
			class_id:470
			class_id:999
			class_id:601
			class_id:489
			class_id:523
			class_id:663
			class_id:435
			class_id:854
			class_id:828
			class_id:312
			class_id:619
			class_id:762
			class_id:899
			class_id:879
			class_id:398
			class_id:794
			class_id:672
			class_id:892
			class_id:311
			class_id:539
			class_id:883
			class_id:811
			class_id:480
			class_id:572
			class_id:750
			class_id:70
			class_id:760
			class_id:725
			class_id:897
			class_id:664
			class_id:851
			class_id:598
			class_id:624
			class_id:415
			class_id:412
			class_id:787
			class_id:782
			class_id:916
			class_id:698
			class_id:504
			class_id:790
			class_id:579
			class_id:501
			class_id:738
			class_id:315
			class_id:753
			class_id:876
			class_id:733
			class_id:498
			class_id:453
			class_id:966
			class_id:483
			class_id:520
			class_id:449
			class_id:865
			class_id:868
			class_id:643
			class_id:524
			class_id:835
			class_id:416
			class_id:424
			class_id:534
			class_id:832
			class_id:861
			class_id:859
			class_id:506
			class_id:705
			class_id:285
			class_id:700
			class_id:818
			class_id:736
			class_id:423
			class_id:660
			class_id:697
			class_id:708
			class_id:693
			class_id:583
			class_id:731
			class_id:862
			class_id:494
			class_id:824
			class_id:655
			class_id:896
			class_id:553
			class_id:519
			class_id:478
			class_id:516
			class_id:844
			class_id:860
			class_id:588
			class_id:923
			class_id:907
			class_id:741
			class_id:707
			class_id:642
			class_id:815
			class_id:744
			class_id:795
			class_id:881
			class_id:471
		}
		compact_classify_layer_param{
			class_id:514
			class_id:578
			class_id:796
			class_id:689
			class_id:601
			class_id:630
			class_id:643
			class_id:501
			class_id:502
			class_id:399
			class_id:982
			class_id:885
			class_id:775
			class_id:655
			class_id:638
			class_id:465
			class_id:787
			class_id:760
			class_id:903
			class_id:857
			class_id:887
			class_id:869
			class_id:770
			class_id:411
			class_id:806
			class_id:499
			class_id:639
			class_id:834
			class_id:524
			class_id:841
			class_id:824
			class_id:515
			class_id:608
			class_id:911
			class_id:570
			class_id:747
			class_id:728
			class_id:678
			class_id:691
			class_id:764
			class_id:615
			class_id:797
			class_id:697
			class_id:855
			class_id:636
			class_id:414
			class_id:721
			class_id:794
			class_id:445
			class_id:474
			class_id:837
			class_id:746
			class_id:999
			class_id:792
			class_id:919
			class_id:788
			class_id:736
		}
		compact_classify_layer_param{
			class_id:506
			class_id:545
			class_id:619
			class_id:811
			class_id:818
			class_id:846
			class_id:421
			class_id:470
			class_id:632
			class_id:905
			class_id:883
			class_id:572
			class_id:745
			class_id:827
			class_id:819
			class_id:844
			class_id:494
			class_id:772
			class_id:807
			class_id:79
			class_id:755
			class_id:556
			class_id:831
			class_id:728
			class_id:742
			class_id:437
			class_id:607
			class_id:687
			class_id:899
			class_id:599
			class_id:862
			class_id:828
			class_id:532
			class_id:753
			class_id:720
			class_id:836
			class_id:898
			class_id:662
			class_id:733
			class_id:787
			class_id:504
			class_id:725
			class_id:754
			class_id:861
			class_id:712
			class_id:999
			class_id:640
			class_id:482
			class_id:633
			class_id:680
			class_id:686
			class_id:398
			class_id:727
			class_id:613
			class_id:557
			class_id:489
			class_id:650
			class_id:588
			class_id:523
			class_id:396
			class_id:799
			class_id:402
			class_id:749
			class_id:782
			class_id:778
			class_id:904
			class_id:604
			class_id:646
			class_id:462
			class_id:534
			class_id:600
			class_id:868
			class_id:851
			class_id:722
			class_id:700
			class_id:651
			class_id:618
			class_id:411
			class_id:644
			class_id:694
			class_id:546
			class_id:894
			class_id:473
			class_id:849
			class_id:564
			class_id:657
			class_id:415
			class_id:479
			class_id:281
			class_id:731
			class_id:488
			class_id:765
			class_id:750
			class_id:635
			class_id:723
			class_id:960
			class_id:505
			class_id:882
			class_id:577
			class_id:773
			class_id:581
			class_id:892
			class_id:887
			class_id:916
			class_id:117
			class_id:859
			class_id:570
			class_id:743
			class_id:679
			class_id:616
			class_id:854
			class_id:409
			class_id:528
			class_id:526
			class_id:786
			class_id:771
			class_id:492
			class_id:507
			class_id:806
			class_id:711
			class_id:954
			class_id:729
			class_id:282
			class_id:527
			class_id:872
			class_id:107
			class_id:584
			class_id:490
			class_id:891
			class_id:920
			class_id:776
			class_id:659
			class_id:760
			class_id:747
			class_id:706
			class_id:978
			class_id:162
			class_id:719
			class_id:804
			class_id:968
			class_id:493
			class_id:434
			class_id:553
			class_id:541
			class_id:884
			class_id:911
			class_id:518
			class_id:701
			class_id:475
			class_id:579
			class_id:674
			class_id:413
			class_id:512
			class_id:738
			class_id:721
			class_id:412
			class_id:285
			class_id:539
			class_id:808
			class_id:538
			class_id:971
			class_id:524
			class_id:789
			class_id:695
			class_id:907
			class_id:739
			class_id:740
			class_id:478
		}
		compact_classify_layer_param{
			class_id:69
			class_id:110
			class_id:117
			class_id:145
			class_id:147
			class_id:320
			class_id:321
			class_id:340
			class_id:426
			class_id:429
			class_id:430
			class_id:466
			class_id:472
			class_id:500
			class_id:533
			class_id:547
			class_id:565
			class_id:569
			class_id:573
			class_id:604
			class_id:701
			class_id:715
			class_id:727
			class_id:755
			class_id:757
			class_id:771
			class_id:779
			class_id:802
			class_id:810
			class_id:814
			class_id:820
			class_id:847
			class_id:874
			class_id:878
			class_id:900
			class_id:946
			class_id:985
			class_id:986
			class_id:991
			class_id:992
			class_id:947
			class_id:705
			class_id:693
			class_id:408
			class_id:319
			class_id:508
			class_id:944
			class_id:675
			class_id:652
			class_id:981
			class_id:660
			class_id:807
			class_id:829
			class_id:309
			class_id:867
			class_id:450
			class_id:148
			class_id:635
			class_id:115
			class_id:972
			class_id:586
			class_id:864
			class_id:751
			class_id:911
			class_id:621
			class_id:609
			class_id:484
			class_id:997
			class_id:417
			class_id:34
			class_id:799
			class_id:555
			class_id:654
			class_id:978
			class_id:525
			class_id:833
			class_id:733
			class_id:114
			class_id:764
			class_id:326
			class_id:970
			class_id:844
			class_id:975
			class_id:507
			class_id:824
			class_id:108
			class_id:649
			class_id:468
			class_id:620
			class_id:803
			class_id:409
			class_id:826
			class_id:796
			class_id:892
			class_id:489
			class_id:463
			class_id:977
			class_id:866
			class_id:324
			class_id:817
			class_id:405
			class_id:561
			class_id:996
			class_id:920
			class_id:627
			class_id:618
			class_id:681
			class_id:590
			class_id:890
			class_id:575
			class_id:318
			class_id:603
			class_id:670
			class_id:884
			class_id:421
			class_id:657
			class_id:506
			class_id:491
			class_id:830
			class_id:737
			class_id:557
			class_id:745
			class_id:471
			class_id:517
			class_id:760
			class_id:464
			class_id:501
			class_id:650
			class_id:658
			class_id:766
			class_id:795
			class_id:778
			class_id:70
			class_id:973
			class_id:595
			class_id:2
			class_id:994
			class_id:656
			class_id:415
			class_id:717
			class_id:792
			class_id:538
			class_id:734
			class_id:818
			class_id:691
			class_id:744
			class_id:728
			class_id:460
			class_id:798
			class_id:787
			class_id:580
			class_id:782
			class_id:742
			class_id:718
			class_id:116
			class_id:467
			class_id:879
			class_id:673
			class_id:646
			class_id:653
			class_id:707
			class_id:515
			class_id:310
			class_id:328
			class_id:479
			class_id:753
			class_id:480
			class_id:853
			class_id:743
			class_id:974
			class_id:433
			class_id:286
			class_id:678
			class_id:119
			class_id:731
			class_id:301
			class_id:553
			class_id:768
			class_id:613
			class_id:835
			class_id:437
			class_id:329
			class_id:852
			class_id:619
			class_id:126
			class_id:958
			class_id:109
			class_id:869
			class_id:494
			class_id:910
			class_id:524
			class_id:629
			class_id:436
			class_id:781
			class_id:456
			class_id:79
			class_id:696
			class_id:427
			class_id:322
			class_id:550
		}
		compact_classify_layer_param{
			class_id:425
			class_id:437
			class_id:449
			class_id:510
			class_id:517
			class_id:538
			class_id:557
			class_id:562
			class_id:576
			class_id:718
			class_id:724
			class_id:821
			class_id:839
			class_id:888
			class_id:913
			class_id:970
			class_id:536
			class_id:795
			class_id:460
			class_id:979
			class_id:975
			class_id:733
			class_id:972
			class_id:833
			class_id:497
			class_id:405
			class_id:682
			class_id:976
			class_id:540
			class_id:698
			class_id:663
			class_id:706
			class_id:671
			class_id:980
			class_id:634
			class_id:580
			class_id:780
			class_id:978
			class_id:668
			class_id:628
			class_id:525
			class_id:858
			class_id:442
			class_id:708
			class_id:915
			class_id:506
			class_id:912
			class_id:701
			class_id:807
			class_id:884
			class_id:693
			class_id:879
			class_id:448
			class_id:825
			class_id:755
			class_id:488
			class_id:867
			class_id:835
			class_id:660
			class_id:489
			class_id:672
			class_id:900
			class_id:853
			class_id:781
			class_id:832
			class_id:727
			class_id:819
			class_id:803
			class_id:609
			class_id:842
			class_id:829
			class_id:984
			class_id:873
			class_id:694
			class_id:919
			class_id:645
			class_id:958
			class_id:547
			class_id:483
			class_id:765
			class_id:982
			class_id:554
			class_id:914
			class_id:344
			class_id:665
			class_id:751
			class_id:977
			class_id:837
			class_id:649
			class_id:403
			class_id:843
			class_id:863
			class_id:677
			class_id:983
			class_id:501
			class_id:583
			class_id:435
			class_id:705
			class_id:555
			class_id:775
			class_id:855
			class_id:856
			class_id:703
			class_id:498
			class_id:799
			class_id:864
			class_id:600
			class_id:494
			class_id:812
			class_id:743
			class_id:820
			class_id:385
			class_id:434
			class_id:974
			class_id:854
			class_id:571
			class_id:716
			class_id:569
			class_id:730
			class_id:876
			class_id:818
			class_id:871
			class_id:141
			class_id:920
			class_id:624
			class_id:657
			class_id:561
			class_id:973
			class_id:134
			class_id:4
			class_id:421
			class_id:408
			class_id:603
			class_id:150
			class_id:646
			class_id:744
			class_id:794
			class_id:793
			class_id:413
			class_id:471
			class_id:417
			class_id:904
			class_id:445
			class_id:607
			class_id:898
			class_id:815
			class_id:573
			class_id:887
			class_id:667
			class_id:758
			class_id:595
			class_id:484
			class_id:456
			class_id:792
			class_id:427
			class_id:787
			class_id:404
			class_id:907
			class_id:702
			class_id:862
			class_id:406
			class_id:971
			class_id:399
			class_id:883
			class_id:869
			class_id:412
			class_id:556
			class_id:51
			class_id:791
			class_id:400
			class_id:936
			class_id:479
			class_id:523
			class_id:447
			class_id:395
			class_id:627
			class_id:476
			class_id:875
			class_id:642
			class_id:58
			class_id:828
			class_id:560
			class_id:802
			class_id:756
			class_id:462
			class_id:363
			class_id:444
			class_id:596
			class_id:895
			class_id:880
			class_id:656
			class_id:519
			class_id:463
			class_id:549
			class_id:586
			class_id:687
		}
		compact_classify_layer_param{
			class_id:416
			class_id:417
			class_id:552
			class_id:635
			class_id:638
			class_id:639
			class_id:640
			class_id:641
			class_id:642
			class_id:643
			class_id:644
			class_id:646
			class_id:722
			class_id:793
			class_id:822
			class_id:879
			class_id:890
			class_id:929
			class_id:445
			class_id:433
			class_id:602
			class_id:430
			class_id:459
			class_id:842
			class_id:787
			class_id:838
			class_id:747
			class_id:409
			class_id:903
			class_id:826
			class_id:702
			class_id:819
			class_id:752
			class_id:728
			class_id:419
			class_id:767
			class_id:775
			class_id:910
			class_id:655
			class_id:971
			class_id:808
			class_id:892
			class_id:574
			class_id:542
			class_id:541
			class_id:506
			class_id:426
			class_id:570
			class_id:885
			class_id:438
			class_id:731
			class_id:470
			class_id:823
			class_id:522
			class_id:618
			class_id:836
			class_id:452
			class_id:837
			class_id:784
			class_id:740
			class_id:862
			class_id:634
			class_id:578
			class_id:870
			class_id:869
			class_id:697
			class_id:876
			class_id:736
			class_id:650
			class_id:443
			class_id:875
			class_id:492
			class_id:672
			class_id:558
			class_id:703
			class_id:845
			class_id:501
			class_id:699
			class_id:706
			class_id:462
			class_id:400
			class_id:883
			class_id:796
			class_id:880
			class_id:774
			class_id:816
			class_id:610
			class_id:626
			class_id:881
			class_id:852
			class_id:684
			class_id:584
			class_id:813
			class_id:515
			class_id:524
			class_id:898
			class_id:701
			class_id:824
			class_id:678
			class_id:692
			class_id:982
			class_id:539
			class_id:107
			class_id:619
			class_id:863
			class_id:577
			class_id:543
			class_id:623
			class_id:906
			class_id:942
			class_id:585
			class_id:411
			class_id:523
			class_id:841
			class_id:805
			class_id:593
			class_id:806
			class_id:939
			class_id:951
			class_id:412
			class_id:415
			class_id:414
			class_id:818
			class_id:770
			class_id:843
			class_id:108
			class_id:463
			class_id:458
			class_id:708
			class_id:557
			class_id:596
			class_id:608
			class_id:909
			class_id:807
			class_id:889
			class_id:464
			class_id:928
			class_id:499
			class_id:689
			class_id:455
			class_id:839
			class_id:478
			class_id:529
			class_id:514
			class_id:827
			class_id:614
			class_id:902
			class_id:429
			class_id:551
			class_id:768
			class_id:735
			class_id:473
			class_id:835
			class_id:830
			class_id:804
			class_id:559
			class_id:958
			class_id:680
			class_id:398
			class_id:567
			class_id:456
			class_id:691
			class_id:733
			class_id:726
			class_id:905
			class_id:617
			class_id:776
			class_id:999
			class_id:828
			class_id:528
			class_id:785
			class_id:513
			class_id:801
			class_id:865
			class_id:589
			class_id:546
			class_id:778
			class_id:667
			class_id:723
			class_id:834
			class_id:749
			class_id:741
			class_id:677
			class_id:531
			class_id:771
			class_id:696
			class_id:611
			class_id:457
			class_id:601
			class_id:764
			class_id:507
			class_id:568
			class_id:428
			class_id:615
			class_id:977
			class_id:758
			class_id:519
			class_id:981
			class_id:681
			class_id:710
		}
		compact_classify_layer_param{
			class_id:452
			class_id:474
			class_id:599
			class_id:735
			class_id:806
			class_id:824
			class_id:887
			class_id:911
			class_id:658
			class_id:841
			class_id:689
			class_id:885
			class_id:533
			class_id:410
			class_id:309
			class_id:434
			class_id:399
			class_id:741
			class_id:610
			class_id:903
			class_id:501
			class_id:568
			class_id:796
			class_id:591
			class_id:793
			class_id:496
			class_id:624
			class_id:775
			class_id:443
			class_id:906
			class_id:728
			class_id:950
			class_id:411
			class_id:406
			class_id:808
			class_id:816
			class_id:490
			class_id:917
			class_id:840
			class_id:608
			class_id:601
			class_id:697
			class_id:663
			class_id:748
			class_id:733
			class_id:539
			class_id:461
			class_id:996
			class_id:502
			class_id:459
			class_id:850
			class_id:721
			class_id:797
			class_id:615
			class_id:785
			class_id:929
			class_id:643
			class_id:514
			class_id:794
			class_id:515
			class_id:982
			class_id:636
			class_id:869
			class_id:834
			class_id:552
			class_id:655
			class_id:314
			class_id:119
			class_id:27
			class_id:614
			class_id:400
			class_id:630
			class_id:828
			class_id:641
			class_id:126
			class_id:854
			class_id:457
			class_id:578
			class_id:790
			class_id:462
			class_id:857
			class_id:999
			class_id:787
			class_id:709
			class_id:584
			class_id:419
			class_id:301
			class_id:837
			class_id:617
			class_id:879
			class_id:110
			class_id:678
			class_id:652
			class_id:1
			class_id:969
			class_id:985
			class_id:112
			class_id:838
			class_id:700
			class_id:667
			class_id:884
			class_id:696
			class_id:524
			class_id:961
			class_id:894
			class_id:509
			class_id:439
			class_id:558
			class_id:633
			class_id:786
			class_id:415
			class_id:666
			class_id:818
			class_id:328
			class_id:618
			class_id:619
			class_id:305
			class_id:464
			class_id:764
			class_id:699
			class_id:855
			class_id:394
			class_id:414
			class_id:823
			class_id:319
			class_id:611
			class_id:772
			class_id:588
			class_id:506
			class_id:589
		}
		compact_classify_layer_param{
			class_id:520
			class_id:564
			class_id:697
			class_id:741
			class_id:765
			class_id:794
			class_id:831
			class_id:854
			class_id:857
			class_id:750
			class_id:516
			class_id:406
			class_id:498
			class_id:905
			class_id:885
			class_id:529
			class_id:431
			class_id:559
			class_id:887
			class_id:411
			class_id:819
			class_id:775
			class_id:799
			class_id:894
			class_id:689
			class_id:493
			class_id:743
			class_id:434
			class_id:453
			class_id:539
			class_id:648
			class_id:421
			class_id:669
			class_id:556
			class_id:784
			class_id:614
			class_id:435
			class_id:496
			class_id:608
			class_id:655
			class_id:578
			class_id:865
			class_id:478
			class_id:797
			class_id:869
			class_id:876
			class_id:417
			class_id:721
			class_id:884
			class_id:823
			class_id:532
			class_id:868
			class_id:789
			class_id:824
			class_id:610
			class_id:617
			class_id:443
			class_id:455
			class_id:474
			class_id:359
			class_id:804
			class_id:398
			class_id:710
			class_id:673
			class_id:492
			class_id:841
			class_id:706
			class_id:846
			class_id:700
			class_id:591
			class_id:904
			class_id:892
			class_id:601
			class_id:921
			class_id:907
			class_id:583
			class_id:853
			class_id:747
			class_id:452
			class_id:501
			class_id:454
			class_id:423
			class_id:728
			class_id:111
			class_id:598
			class_id:982
			class_id:428
			class_id:448
			class_id:830
			class_id:723
			class_id:577
			class_id:658
			class_id:600
			class_id:735
			class_id:896
			class_id:774
			class_id:893
			class_id:798
			class_id:793
			class_id:851
			class_id:999
			class_id:534
			class_id:470
			class_id:677
			class_id:515
			class_id:415
			class_id:549
			class_id:862
			class_id:1
			class_id:568
			class_id:699
			class_id:361
			class_id:651
			class_id:693
			class_id:624
			class_id:788
			class_id:703
			class_id:786
			class_id:588
			class_id:562
			class_id:285
			class_id:806
			class_id:445
			class_id:731
			class_id:523
			class_id:800
			class_id:790
			class_id:912
			class_id:709
			class_id:606
			class_id:694
			class_id:832
			class_id:446
			class_id:742
			class_id:843
			class_id:811
			class_id:420
			class_id:495
			class_id:929
			class_id:419
			class_id:882
			class_id:414
			class_id:579
			class_id:471
			class_id:526
			class_id:828
			class_id:969
			class_id:585
			class_id:791
			class_id:918
			class_id:552
			class_id:652
			class_id:837
			class_id:602
			class_id:736
			class_id:813
			class_id:877
			class_id:834
			class_id:845
			class_id:753
			class_id:879
			class_id:906
			class_id:680
			class_id:367
			class_id:792
			class_id:762
			class_id:638
			class_id:859
			class_id:764
		}
		compact_classify_layer_param{
			class_id:442
			class_id:483
			class_id:497
			class_id:698
			class_id:858
			class_id:884
			class_id:663
			class_id:406
			class_id:538
			class_id:835
			class_id:494
			class_id:682
			class_id:857
			class_id:687
			class_id:743
			class_id:557
			class_id:708
			class_id:873
			class_id:892
			class_id:832
			class_id:668
			class_id:489
			class_id:825
			class_id:976
			class_id:888
			class_id:716
			class_id:624
			class_id:853
			class_id:741
			class_id:398
			class_id:425
			class_id:409
			class_id:958
			class_id:449
			class_id:975
			class_id:807
			class_id:576
			class_id:562
			class_id:437
			class_id:607
			class_id:405
			class_id:448
			class_id:887
			class_id:556
			class_id:506
			class_id:744
			class_id:470
			class_id:439
			class_id:706
			class_id:580
			class_id:498
			class_id:646
			class_id:601
			class_id:649
			class_id:703
			class_id:468
			class_id:819
			class_id:982
			class_id:718
			class_id:127
			class_id:634
			class_id:775
			class_id:728
			class_id:637
			class_id:867
			class_id:980
			class_id:517
			class_id:872
			class_id:379
			class_id:753
			class_id:979
			class_id:920
			class_id:836
			class_id:854
			class_id:500
			class_id:421
			class_id:427
			class_id:600
			class_id:400
			class_id:501
			class_id:972
			class_id:981
			class_id:839
			class_id:879
			class_id:536
			class_id:460
			class_id:787
			class_id:611
			class_id:978
			class_id:912
			class_id:469
		}
		compact_classify_layer_param{
			class_id:446
			class_id:539
			class_id:549
			class_id:709
			class_id:710
			class_id:748
			class_id:893
			class_id:636
			class_id:767
			class_id:885
			class_id:692
			class_id:478
			class_id:434
			class_id:769
			class_id:464
			class_id:721
			class_id:623
			class_id:418
			class_id:414
			class_id:533
			class_id:922
			class_id:741
			class_id:443
			class_id:591
			class_id:772
			class_id:902
			class_id:584
			class_id:542
			class_id:917
			class_id:868
			class_id:419
			class_id:859
			class_id:481
			class_id:633
			class_id:600
			class_id:749
			class_id:887
			class_id:773
			class_id:921
			class_id:398
			class_id:790
			class_id:711
			class_id:498
			class_id:587
			class_id:492
			class_id:686
			class_id:640
			class_id:797
			class_id:798
			class_id:696
			class_id:777
			class_id:906
			class_id:452
			class_id:999
			class_id:855
			class_id:848
			class_id:799
			class_id:551
			class_id:673
			class_id:700
			class_id:626
			class_id:611
			class_id:680
			class_id:774
			class_id:681
			class_id:477
			class_id:563
			class_id:823
			class_id:499
			class_id:629
			class_id:411
			class_id:695
			class_id:662
			class_id:860
			class_id:605
			class_id:729
			class_id:415
			class_id:794
			class_id:112
			class_id:667
			class_id:644
			class_id:482
			class_id:530
			class_id:837
			class_id:689
			class_id:327
			class_id:911
			class_id:723
			class_id:556
			class_id:836
			class_id:719
			class_id:753
			class_id:883
			class_id:754
			class_id:742
			class_id:606
			class_id:824
			class_id:632
			class_id:904
			class_id:490
			class_id:858
			class_id:784
			class_id:592
			class_id:813
			class_id:455
			class_id:597
			class_id:714
			class_id:457
			class_id:631
			class_id:512
			class_id:558
			class_id:577
			class_id:804
			class_id:473
			class_id:412
			class_id:619
			class_id:427
			class_id:699
			class_id:732
			class_id:637
			class_id:919
			class_id:811
			class_id:658
			class_id:747
			class_id:728
			class_id:496
			class_id:720
			class_id:909
			class_id:509
			class_id:610
			class_id:932
			class_id:916
			class_id:674
			class_id:281
			class_id:615
			class_id:844
			class_id:807
			class_id:514
			class_id:618
			class_id:712
			class_id:881
			class_id:553
			class_id:737
			class_id:677
			class_id:56
			class_id:905
			class_id:892
			class_id:787
			class_id:588
			class_id:599
			class_id:771
			class_id:666
			class_id:786
			class_id:428
			class_id:589
			class_id:679
			class_id:84
			class_id:840
			class_id:519
			class_id:507
			class_id:622
			class_id:828
			class_id:918
			class_id:488
			class_id:894
			class_id:571
			class_id:676
			class_id:745
			class_id:929
			class_id:850
			class_id:528
			class_id:282
			class_id:694
			class_id:630
		}
		compact_classify_layer_param{
			class_id:526
			class_id:534
			class_id:548
			class_id:598
			class_id:713
			class_id:729
			class_id:782
			class_id:859
			class_id:897
			class_id:664
			class_id:742
			class_id:527
			class_id:851
			class_id:453
			class_id:493
			class_id:553
			class_id:651
			class_id:681
			class_id:673
			class_id:620
			class_id:831
			class_id:760
			class_id:648
			class_id:495
			class_id:485
			class_id:811
			class_id:508
			class_id:882
			class_id:478
			class_id:480
			class_id:632
			class_id:894
			class_id:662
			class_id:786
			class_id:848
			class_id:516
			class_id:492
			class_id:498
			class_id:285
			class_id:799
			class_id:556
			class_id:606
			class_id:810
			class_id:532
			class_id:827
			class_id:904
			class_id:790
			class_id:624
			class_id:712
			class_id:771
			class_id:999
			class_id:506
			class_id:736
			class_id:588
			class_id:521
			class_id:669
			class_id:590
			class_id:916
			class_id:861
			class_id:834
			class_id:601
			class_id:844
			class_id:421
			class_id:423
			class_id:905
			class_id:435
			class_id:559
			class_id:778
			class_id:798
			class_id:854
			class_id:567
			class_id:804
			class_id:530
			class_id:700
			class_id:896
			class_id:446
			class_id:813
			class_id:762
			class_id:655
			class_id:688
			class_id:613
			class_id:745
			class_id:623
			class_id:753
			class_id:583
			class_id:765
			class_id:549
			class_id:519
			class_id:482
			class_id:422
			class_id:868
			class_id:754
			class_id:579
			class_id:499
			class_id:918
			class_id:929
			class_id:633
			class_id:876
			class_id:477
			class_id:732
			class_id:865
			class_id:454
			class_id:892
			class_id:459
			class_id:550
			class_id:412
			class_id:539
			class_id:414
			class_id:761
			class_id:503
			class_id:438
			class_id:592
			class_id:891
			class_id:455
			class_id:881
			class_id:872
			class_id:481
			class_id:823
			class_id:818
			class_id:504
			class_id:789
			class_id:750
			class_id:564
			class_id:706
			class_id:702
			class_id:877
			class_id:860
			class_id:830
			class_id:710
			class_id:921
			class_id:281
			class_id:659
			class_id:922
			class_id:969
			class_id:749
			class_id:899
			class_id:402
			class_id:543
			class_id:846
			class_id:784
			class_id:845
			class_id:528
			class_id:600
			class_id:889
			class_id:836
			class_id:424
			class_id:766
			class_id:909
			class_id:740
			class_id:622
		}
		compact_classify_layer_param{
			class_id:414
			class_id:834
			class_id:837
			class_id:906
			class_id:836
			class_id:457
			class_id:636
			class_id:869
			class_id:841
			class_id:474
			class_id:748
			class_id:399
			class_id:411
			class_id:785
			class_id:465
			class_id:615
			class_id:643
			class_id:617
			class_id:652
			class_id:443
			class_id:689
			class_id:488
			class_id:630
			class_id:893
			class_id:610
			class_id:650
			class_id:446
			class_id:487
			class_id:667
			class_id:678
			class_id:885
			class_id:797
			class_id:608
			class_id:629
			class_id:824
			class_id:400
			class_id:556
			class_id:982
			class_id:447
			class_id:588
			class_id:655
			class_id:452
			class_id:894
			class_id:709
			class_id:788
			class_id:903
			class_id:419
			class_id:597
			class_id:464
			class_id:823
			class_id:433
			class_id:501
			class_id:596
			class_id:549
			class_id:851
			class_id:622
			class_id:445
			class_id:683
			class_id:673
			class_id:515
			class_id:589
			class_id:578
			class_id:728
			class_id:568
			class_id:633
			class_id:794
			class_id:721
			class_id:691
			class_id:697
			class_id:775
			class_id:475
			class_id:600
			class_id:593
			class_id:747
			class_id:731
			class_id:434
			class_id:585
			class_id:740
			class_id:658
		}
		compact_classify_layer_param{
			class_id:489
			class_id:580
			class_id:634
			class_id:703
			class_id:912
			class_id:716
			class_id:738
			class_id:706
			class_id:491
			class_id:733
			class_id:630
			class_id:765
			class_id:507
			class_id:858
			class_id:791
			class_id:743
			class_id:506
			class_id:421
			class_id:982
			class_id:429
			class_id:583
			class_id:856
			class_id:469
			class_id:853
			class_id:315
			class_id:843
			class_id:646
			class_id:556
			class_id:756
			class_id:428
			class_id:660
			class_id:877
			class_id:754
			class_id:519
			class_id:618
			class_id:649
			class_id:525
			class_id:517
			class_id:936
			class_id:766
			class_id:571
			class_id:694
			class_id:730
			class_id:494
			class_id:690
			class_id:412
			class_id:975
			class_id:821
			class_id:825
			class_id:273
			class_id:15
			class_id:839
			class_id:718
			class_id:488
			class_id:879
			class_id:778
			class_id:559
			class_id:677
			class_id:458
			class_id:499
			class_id:96
			class_id:981
			class_id:728
			class_id:876
			class_id:639
			class_id:410
			class_id:14
			class_id:471
			class_id:776
			class_id:595
			class_id:652
			class_id:904
			class_id:425
			class_id:500
			class_id:637
			class_id:600
			class_id:8
			class_id:852
			class_id:799
			class_id:341
			class_id:958
			class_id:653
			class_id:105
			class_id:557
			class_id:642
			class_id:345
			class_id:454
			class_id:792
			class_id:682
			class_id:815
			class_id:460
			class_id:984
			class_id:813
			class_id:449
			class_id:561
			class_id:596
			class_id:448
			class_id:514
			class_id:953
			class_id:866
			class_id:729
			class_id:444
			class_id:980
			class_id:883
			class_id:587
			class_id:602
			class_id:919
			class_id:762
			class_id:644
			class_id:835
			class_id:695
			class_id:722
			class_id:434
			class_id:586
			class_id:753
			class_id:16
			class_id:861
			class_id:424
			class_id:655
		}
		compact_classify_layer_param{
			class_id:419
			class_id:508
			class_id:516
			class_id:785
			class_id:918
			class_id:810
			class_id:431
			class_id:520
			class_id:673
			class_id:681
			class_id:529
			class_id:837
			class_id:878
			class_id:527
			class_id:906
			class_id:692
			class_id:549
			class_id:761
			class_id:769
			class_id:749
			class_id:907
			class_id:556
			class_id:782
			class_id:418
			class_id:620
			class_id:627
			class_id:784
			class_id:646
			class_id:720
			class_id:526
			class_id:499
			class_id:401
			class_id:855
			class_id:669
			class_id:443
			class_id:818
			class_id:934
			class_id:838
			class_id:421
			class_id:885
			class_id:664
			class_id:492
			class_id:559
			class_id:836
			class_id:750
			class_id:590
			class_id:623
			class_id:999
			class_id:922
			class_id:709
			class_id:845
			class_id:629
			class_id:823
			class_id:478
			class_id:563
			class_id:626
			class_id:969
			class_id:982
			class_id:806
			class_id:617
			class_id:743
			class_id:680
			class_id:459
			class_id:765
			class_id:611
			class_id:700
			class_id:633
			class_id:539
			class_id:774
			class_id:767
			class_id:411
			class_id:593
			class_id:608
			class_id:588
			class_id:831
			class_id:507
			class_id:551
			class_id:434
			class_id:893
			class_id:585
			class_id:684
			class_id:876
			class_id:446
			class_id:881
			class_id:697
			class_id:921
			class_id:898
			class_id:428
			class_id:589
			class_id:929
			class_id:703
			class_id:655
			class_id:691
			class_id:610
			class_id:726
			class_id:676
			class_id:729
			class_id:674
			class_id:678
			class_id:794
			class_id:480
			class_id:721
			class_id:651
			class_id:714
			class_id:285
			class_id:643
			class_id:606
			class_id:742
			class_id:917
			class_id:515
			class_id:905
			class_id:599
			class_id:811
			class_id:281
			class_id:689
			class_id:790
			class_id:910
			class_id:504
			class_id:618
			class_id:851
			class_id:615
			class_id:587
		}
		compact_classify_layer_param{
			class_id:454
			class_id:478
			class_id:509
			class_id:692
			class_id:860
			class_id:865
			class_id:917
			class_id:921
			class_id:582
			class_id:624
			class_id:424
			class_id:549
			class_id:453
			class_id:519
			class_id:415
			class_id:850
			class_id:893
			class_id:446
			class_id:838
			class_id:728
			class_id:922
			class_id:886
			class_id:790
			class_id:492
			class_id:655
			class_id:762
			class_id:498
			class_id:481
			class_id:539
			class_id:788
			class_id:969
			class_id:968
			class_id:633
			class_id:800
			class_id:769
			class_id:737
			class_id:626
			class_id:667
			class_id:480
			class_id:723
			class_id:643
			class_id:919
			class_id:710
			class_id:467
			class_id:767
			class_id:546
			class_id:588
			class_id:411
			class_id:879
			class_id:642
			class_id:458
			class_id:808
			class_id:281
			class_id:572
			class_id:999
			class_id:764
			class_id:419
			class_id:709
			class_id:830
			class_id:455
			class_id:907
			class_id:699
			class_id:574
			class_id:469
			class_id:608
			class_id:470
			class_id:648
			class_id:741
			class_id:721
			class_id:963
			class_id:770
			class_id:501
			class_id:841
			class_id:623
			class_id:756
			class_id:806
			class_id:965
			class_id:791
			class_id:591
			class_id:338
			class_id:515
			class_id:529
			class_id:564
			class_id:943
			class_id:631
			class_id:652
			class_id:987
			class_id:496
			class_id:385
			class_id:440
			class_id:720
			class_id:585
			class_id:960
			class_id:932
			class_id:495
			class_id:738
			class_id:722
			class_id:744
			class_id:443
			class_id:412
			class_id:584
			class_id:611
			class_id:674
			class_id:740
			class_id:451
			class_id:553
			class_id:772
			class_id:760
			class_id:724
			class_id:778
			class_id:622
			class_id:414
			class_id:749
			class_id:523
			class_id:930
			class_id:99
			class_id:949
			class_id:499
			class_id:489
			class_id:445
			class_id:929
			class_id:402
			class_id:868
			class_id:831
			class_id:858
			class_id:786
			class_id:542
			class_id:916
			class_id:731
			class_id:784
			class_id:505
			class_id:599
			class_id:592
			class_id:748
			class_id:644
			class_id:877
			class_id:787
			class_id:851
			class_id:761
			class_id:434
			class_id:887
			class_id:476
			class_id:743
			class_id:837
			class_id:799
			class_id:641
			class_id:813
			class_id:882
			class_id:285
			class_id:798
			class_id:558
			class_id:617
			class_id:459
			class_id:711
			class_id:689
			class_id:998
			class_id:673
			class_id:918
			class_id:556
			class_id:680
			class_id:664
			class_id:825
			class_id:230
			class_id:966
			class_id:742
			class_id:840
			class_id:885
			class_id:700
			class_id:647
			class_id:729
			class_id:462
			class_id:651
			class_id:795
			class_id:982
			class_id:719
			class_id:265
			class_id:962
			class_id:684
			class_id:531
			class_id:707
			class_id:857
			class_id:60
			class_id:818
			class_id:600
			class_id:570
			class_id:391
			class_id:792
			class_id:948
			class_id:504
			class_id:555
			class_id:823
			class_id:441
			class_id:526
			class_id:398
			class_id:765
			class_id:961
			class_id:457
			class_id:620
			class_id:660
			class_id:503
		}
		compact_classify_layer_param{
			class_id:521
			class_id:544
			class_id:567
			class_id:809
			class_id:925
			class_id:926
			class_id:909
			class_id:469
			class_id:923
			class_id:618
			class_id:964
			class_id:659
			class_id:762
			class_id:961
			class_id:935
			class_id:987
			class_id:969
			class_id:910
			class_id:967
			class_id:924
			class_id:712
			class_id:827
			class_id:968
			class_id:647
			class_id:813
			class_id:962
			class_id:928
			class_id:499
			class_id:963
			class_id:868
			class_id:463
			class_id:666
			class_id:959
			class_id:738
			class_id:960
			class_id:504
			class_id:896
			class_id:942
			class_id:876
			class_id:700
			class_id:891
			class_id:965
			class_id:828
			class_id:941
			class_id:778
			class_id:118
			class_id:940
			class_id:435
			class_id:931
			class_id:944
			class_id:441
			class_id:739
			class_id:415
			class_id:438
			class_id:859
			class_id:541
			class_id:930
			class_id:126
			class_id:729
			class_id:861
			class_id:945
			class_id:823
			class_id:943
			class_id:651
			class_id:769
			class_id:635
		}
		compact_classify_layer_param{
			class_id:415
			class_id:930
			class_id:931
			class_id:932
			class_id:933
			class_id:934
			class_id:949
			class_id:961
			class_id:962
			class_id:963
			class_id:965
			class_id:923
			class_id:964
			class_id:935
			class_id:924
			class_id:960
			class_id:762
			class_id:467
			class_id:928
			class_id:499
			class_id:424
			class_id:582
			class_id:950
			class_id:942
			class_id:868
			class_id:959
			class_id:859
			class_id:454
			class_id:813
			class_id:987
			class_id:953
			class_id:860
			class_id:926
			class_id:948
			class_id:969
			class_id:599
			class_id:567
			class_id:121
			class_id:700
			class_id:957
			class_id:122
			class_id:998
			class_id:728
			class_id:793
			class_id:989
			class_id:509
			class_id:967
			class_id:126
			class_id:940
			class_id:772
			class_id:117
			class_id:691
			class_id:514
			class_id:927
			class_id:712
			class_id:938
			class_id:470
			class_id:996
			class_id:972
			class_id:922
			class_id:925
			class_id:692
			class_id:419
			class_id:666
			class_id:766
			class_id:997
			class_id:544
			class_id:910
			class_id:865
			class_id:788
			class_id:739
			class_id:488
			class_id:79
			class_id:588
			class_id:778
			class_id:809
			class_id:999
			class_id:614
			class_id:845
			class_id:684
			class_id:112
			class_id:521
			class_id:329
			class_id:863
			class_id:945
			class_id:498
			class_id:118
			class_id:919
			class_id:469
			class_id:579
			class_id:618
			class_id:929
			class_id:941
			class_id:977
			class_id:532
			class_id:968
			class_id:951
			class_id:124
			class_id:944
			class_id:808
			class_id:647
			class_id:726
			class_id:652
			class_id:828
			class_id:651
			class_id:749
			class_id:114
			class_id:955
			class_id:956
			class_id:60
			class_id:954
			class_id:617
			class_id:943
			class_id:937
			class_id:850
			class_id:564
			class_id:738
			class_id:748
			class_id:838
			class_id:438
			class_id:626
			class_id:103
			class_id:585
			class_id:990
			class_id:952
			class_id:130
			class_id:644
			class_id:883
			class_id:837
			class_id:784
			class_id:677
			class_id:659
			class_id:504
			class_id:885
			class_id:891
		}
		compact_classify_layer_param{
			class_id:943
			class_id:939
			class_id:945
			class_id:941
			class_id:582
			class_id:987
			class_id:936
			class_id:948
			class_id:954
			class_id:924
			class_id:956
			class_id:923
			class_id:949
			class_id:738
			class_id:942
			class_id:952
			class_id:79
			class_id:929
			class_id:940
			class_id:315
			class_id:963
			class_id:944
			class_id:955
		}
		compact_classify_layer_param{
			class_id:927
			class_id:936
			class_id:937
			class_id:938
			class_id:939
			class_id:940
			class_id:941
			class_id:942
			class_id:944
			class_id:945
			class_id:947
			class_id:948
			class_id:950
			class_id:951
			class_id:952
			class_id:953
			class_id:954
			class_id:955
			class_id:956
			class_id:957
			class_id:959
			class_id:988
			class_id:989
			class_id:990
			class_id:997
			class_id:998
			class_id:987
			class_id:943
			class_id:949
			class_id:992
			class_id:582
			class_id:994
			class_id:935
			class_id:923
			class_id:928
			class_id:961
			class_id:925
			class_id:963
			class_id:946
			class_id:969
			class_id:924
			class_id:809
			class_id:567
			class_id:964
			class_id:934
			class_id:962
			class_id:113
			class_id:960
			class_id:738
			class_id:313
			class_id:114
			class_id:813
			class_id:868
			class_id:762
			class_id:728
			class_id:599
			class_id:965
			class_id:926
			class_id:499
			class_id:909
			class_id:996
			class_id:931
			class_id:116
			class_id:930
			class_id:125
			class_id:328
			class_id:301
			class_id:910
			class_id:415
			class_id:315
			class_id:32
			class_id:722
			class_id:117
			class_id:790
			class_id:772
			class_id:94
			class_id:991
			class_id:503
			class_id:311
			class_id:993
			class_id:325
			class_id:712
			class_id:574
			class_id:633
			class_id:885
			class_id:677
			class_id:720
			class_id:845
			class_id:126
			class_id:852
			class_id:469
			class_id:333
			class_id:506
			class_id:112
			class_id:824
			class_id:967
			class_id:619
			class_id:519
			class_id:647
			class_id:109
			class_id:700
			class_id:818
			class_id:309
			class_id:522
			class_id:64
			class_id:933
			class_id:473
			class_id:544
			class_id:907
			class_id:304
			class_id:467
			class_id:419
			class_id:911
			class_id:649
			class_id:70
			class_id:118
			class_id:122
			class_id:828
			class_id:618
			class_id:883
			class_id:958
			class_id:641
			class_id:119
			class_id:584
			class_id:611
			class_id:312
			class_id:335
			class_id:31
			class_id:840
			class_id:616
			class_id:659
			class_id:323
			class_id:509
			class_id:785
			class_id:310
			class_id:666
			class_id:79
			class_id:692
			class_id:103
			class_id:719
			class_id:747
			class_id:825
			class_id:438
			class_id:737
			class_id:766
			class_id:588
			class_id:733
			class_id:929
			class_id:995
			class_id:629
			class_id:58
			class_id:429
			class_id:322
			class_id:329
			class_id:470
			class_id:966
			class_id:121
			class_id:124
			class_id:723
			class_id:59
			class_id:891
			class_id:968
			class_id:539
			class_id:321
			class_id:815
			class_id:265
			class_id:559
			class_id:767
			class_id:306
			class_id:784
			class_id:585
			class_id:428
			class_id:932
			class_id:572
			class_id:778
			class_id:65
			class_id:441
			class_id:363
			class_id:73
			class_id:448
			class_id:711
			class_id:89
			class_id:443
			class_id:35
			class_id:96
			class_id:657
			class_id:861
			class_id:521
			class_id:797
			class_id:853
			class_id:739
			class_id:838
			class_id:749
			class_id:305
		}
		compact_classify_layer_param{
			class_id:923
			class_id:924
			class_id:928
			class_id:935
			class_id:960
			class_id:964
			class_id:987
			class_id:998
			class_id:962
			class_id:762
			class_id:965
			class_id:931
			class_id:961
			class_id:930
			class_id:925
			class_id:927
			class_id:967
			class_id:809
			class_id:926
			class_id:415
			class_id:969
			class_id:959
			class_id:963
			class_id:813
			class_id:868
			class_id:942
			class_id:934
			class_id:949
			class_id:938
			class_id:944
			class_id:122
			class_id:470
			class_id:933
			class_id:950
			class_id:666
			class_id:948
			class_id:932
			class_id:850
			class_id:521
			class_id:567
			class_id:943
			class_id:618
			class_id:499
			class_id:955
			class_id:647
			class_id:789
			class_id:940
			class_id:954
			class_id:544
			class_id:968
			class_id:953
			class_id:937
			class_id:700
			class_id:945
			class_id:909
			class_id:121
			class_id:941
			class_id:921
			class_id:828
			class_id:738
			class_id:712
			class_id:784
			class_id:438
			class_id:996
			class_id:766
			class_id:929
			class_id:910
			class_id:467
			class_id:469
			class_id:572
			class_id:838
			class_id:441
			class_id:118
			class_id:659
			class_id:611
			class_id:463
			class_id:956
			class_id:582
			class_id:509
			class_id:966
			class_id:124
			class_id:936
			class_id:335
			class_id:71
			class_id:473
			class_id:626
			class_id:112
			class_id:840
			class_id:443
			class_id:265
			class_id:957
			class_id:728
			class_id:504
			class_id:585
			class_id:599
			class_id:951
			class_id:748
			class_id:731
			class_id:126
			class_id:584
			class_id:440
			class_id:633
			class_id:588
		}
		compact_classify_layer_param{
			class_id:647
			class_id:967
			class_id:504
			class_id:438
			class_id:969
			class_id:968
			class_id:441
			class_id:960
			class_id:463
			class_id:503
			class_id:809
			class_id:925
			class_id:855
			class_id:899
			class_id:680
			class_id:114
			class_id:964
			class_id:712
			class_id:828
			class_id:550
			class_id:826
			class_id:929
			class_id:910
			class_id:868
			class_id:618
			class_id:966
			class_id:659
			class_id:901
			class_id:666
			class_id:572
			class_id:505
			class_id:932
			class_id:928
			class_id:769
			class_id:521
			class_id:725
			class_id:502
			class_id:731
			class_id:631
			class_id:961
		}
	}
}
layer {
	name: "loss"
	type: "MultinomialLogisticSparsityLoss"
	bottom: "compact_probabilistic_average_prob"
	bottom: "label"
	bottom: "coarse_branch_prob"
	top: "loss"
	multinomial_logistic_sparsity_loss_param{
		sparsity_lamda: 5
		target_sparsity: 0.013
		target_sparsity: 0.012
		target_sparsity: 0.008
		target_sparsity: 0.005
		target_sparsity: 0.012
		target_sparsity: 0.004
		target_sparsity: 0.024
		target_sparsity: 0.006
		target_sparsity: 0.018
		target_sparsity: 0.012
		target_sparsity: 0.067
		target_sparsity: 0.010
		target_sparsity: 0.008
		target_sparsity: 0.010
		target_sparsity: 0.014
		target_sparsity: 0.017
		target_sparsity: 0.021
		target_sparsity: 0.011
		target_sparsity: 0.022
		target_sparsity: 0.037
		target_sparsity: 0.009
		target_sparsity: 0.003
		target_sparsity: 0.023
		target_sparsity: 0.025
		target_sparsity: 0.006
		target_sparsity: 0.013
		target_sparsity: 0.007
		target_sparsity: 0.019
		target_sparsity: 0.016
		target_sparsity: 0.005
		target_sparsity: 0.012
		target_sparsity: 0.008
		target_sparsity: 0.004
		target_sparsity: 0.009
		target_sparsity: 0.003
		target_sparsity: 0.007
		target_sparsity: 0.013
		target_sparsity: 0.010
		target_sparsity: 0.031
		target_sparsity: 0.010
		target_sparsity: 0.003
		target_sparsity: 0.019
		target_sparsity: 0.011
		target_sparsity: 0.006
		target_sparsity: 0.011
		target_sparsity: 0.015
		target_sparsity: 0.015
		target_sparsity: 0.008
		target_sparsity: 0.006
		target_sparsity: 0.019
		target_sparsity: 0.005
		target_sparsity: 0.004
		target_sparsity: 0.027
		target_sparsity: 0.006
		target_sparsity: 0.005
		target_sparsity: 0.006
		target_sparsity: 0.005
		target_sparsity: 0.006
		target_sparsity: 0.010
		target_sparsity: 0.017
		target_sparsity: 0.003
		target_sparsity: 0.013
		target_sparsity: 0.013
		target_sparsity: 0.006
		target_sparsity: 0.003
		target_sparsity: 0.006
		target_sparsity: 0.040
		target_sparsity: 0.016
		target_sparsity: 0.018
		target_sparsity: 0.008
		target_sparsity: 0.009
		target_sparsity: 0.006
		target_sparsity: 0.007
		target_sparsity: 0.009
		target_sparsity: 0.004
		target_sparsity: 0.005
		target_sparsity: 0.005
		target_sparsity: 0.008
		target_sparsity: 0.006
		target_sparsity: 0.011
		target_sparsity: 0.001
		target_sparsity: 0.026
		target_sparsity: 0.007
		target_sparsity: 0.002
		}
	}
layer {
	name: "accuracy_top1"
	type: "Accuracy"
	bottom: "compact_probabilistic_average_prob"
	bottom: "label"
	top: "accuracy_top1"
	include {
		phase: TEST
	}
	accuracy_param {
	  top_k: 1
	}
}
layer {
	name: "accuracy_top5"
	type: "Accuracy"
	bottom: "compact_probabilistic_average_prob"
	bottom: "label"
	top: "accuracy_top5"
	include {
		phase: TEST
	}
	accuracy_param {
	  top_k: 5
	}
}
