name: "hdcnn_CIFAR100_NIN_float_crop_v2_deploy"
input: "data"
input_dim: 20
input_dim: 3
input_dim: 224
input_dim: 224


layer {
    bottom: "data"
    top: "conv1"
    name: "conv1"
    type: "Convolution"
    param {
        lr_mult: 1
        decay_mult: 1
    }
    param {
        lr_mult: 2
        decay_mult: 0
    }        
    convolution_param {
        num_output: 96
        kernel_size: 11
        stride: 4
        weight_filler {
            type: "gaussian"
            mean: 0.
            std: 0.01
        }
        bias_filler {
            type: "constant"
            value: 0.
        }
     }
}
layer {
  bottom: "conv1"
  top: "conv1"
  name: "relu0"
  type: "ReLU"
}
layer {
    bottom: "conv1"
    top: "cccp1"
    name: "cccp1"
    type: "Convolution"
    param {
        lr_mult: 1
        decay_mult: 1
    }
    param {
        lr_mult: 2
        decay_mult: 0
    }    
    convolution_param {
        num_output: 96
        kernel_size: 1
        stride: 1
        weight_filler {
            type: "gaussian"
            mean: 0.
            std: 0.05
        }
        bias_filler {
            type: "constant"
            value: 0.
        }
   }
}
layer {
    bottom: "cccp1"
    top: "cccp1"
    name: "relu1"
    type: "ReLU"
}
layer {
    bottom: "cccp1"
    top: "cccp2"
    name: "cccp2"
    type: "Convolution"
    param {
        lr_mult: 1
        decay_mult: 1
    }
    param {
        lr_mult: 2
        decay_mult: 0
    }    
    convolution_param {
        num_output: 96
        kernel_size: 1
        stride: 1        
        weight_filler {
            type: "gaussian"
            mean: 0.
            std: 0.05
        }
        bias_filler {
            type: "constant"
            value: 0.
        }
    }
}
layer {
    bottom: "cccp2"
    top: "cccp2"
    name: "relu2"
    type: "ReLU"
}
layer {
    bottom: "cccp2"
    top: "pool0"
    name: "pool0"
    type: "Pooling" 
    pooling_param {
        pool: MAX
        kernel_size: 3
        stride: 2
    }
}
layer {
    bottom: "pool0"
    top: "conv2"
    name: "conv2"
    type: "Convolution"
    param {
        lr_mult: 1
        decay_mult: 1
    }
    param {
        lr_mult: 2
        decay_mult: 0
    }
    convolution_param {
        num_output: 256
        kernel_size: 5
        pad: 2
        stride: 1
        weight_filler {
            type: "gaussian"
            mean: 0.
            std: 0.05
        }
        bias_filler {
            type: "constant"
            value: 0.
        }
    }
}
layer {
    bottom: "conv2"
    top: "conv2"
    name: "relu3"
    type: "ReLU"
}
layer {
    bottom: "conv2"
    top: "cccp3"
    name: "cccp3"
    type: "Convolution"
    param {
        lr_mult: 1
        decay_mult: 1
    }
    param {
        lr_mult: 2
        decay_mult: 0
    }
    convolution_param {
        num_output: 256
        kernel_size: 1
        stride: 1        
        weight_filler {
            type: "gaussian"
            mean: 0.
            std: 0.05
        }
        bias_filler {
            type: "constant"
            value: 0.
        }
    }
}
layer {
    bottom: "cccp3"
    top: "cccp3"
    name: "relu5"
    type: "ReLU"
}
layer {
    bottom: "cccp3"
    top: "cccp4"
    name: "cccp4"
    type: "Convolution"
    param {
        lr_mult: 1
        decay_mult: 1
    }
    param {
        lr_mult: 2
        decay_mult: 0
    }
    convolution_param {
        num_output: 256
        kernel_size: 1
        stride: 1         
        weight_filler {
            type: "gaussian"
            mean: 0.
            std: 0.05
        }
        bias_filler {
            type: "constant"
            value: 0.
        }
    }
}
layer {
    bottom: "cccp4"
    top: "cccp4"
    name: "relu6"
    type: "ReLU"
}
layer {
    bottom: "cccp4"
    top: "pool2"
    name: "pool2"
    type: "Pooling"
    pooling_param {
        pool: MAX
        kernel_size: 3
        stride: 2
    }
}
layer {
    bottom: "pool2"
    top: "conv3"
    name: "conv3"
    type: "Convolution"
    param {
        lr_mult: 1
        decay_mult: 1
    }
    param {
        lr_mult: 2
        decay_mult: 0
    }
    convolution_param {
        num_output: 384
        kernel_size: 3
        pad: 1
        stride: 1
        weight_filler {
            type: "gaussian"
            mean: 0.
            std: 0.01
        }
        bias_filler {
            type: "constant"
            value: 0.
        }
    }
}
layer {
  bottom: "conv3"
  top: "conv3"
  name: "relu7"
  type: "ReLU"
}
layer {
    name: "cccp5"
    type: "Convolution"
    bottom: "conv3"
    top: "cccp5"
    param {
        lr_mult: 1
        decay_mult: 1
    }
    param {
        lr_mult: 2
        decay_mult: 0
    }
    convolution_param {
        num_output: 384
        kernel_size: 1
        stride: 1        
        weight_filler {
            type: "gaussian"
            mean: 0.
            std: 0.05
        }
        bias_filler {
            type: "constant"
            value: 0.
        }
    }
}
layer {
  bottom: "cccp5"
  top: "cccp5"
  name: "relu8"
  type: "ReLU"
}
layer {
    bottom: "cccp5"
    top: "cccp6"
    name: "cccp6"
    type: "Convolution"
    param {
        lr_mult: 1
        decay_mult: 1
    }
    param {
        lr_mult: 2
        decay_mult: 0
    }
    convolution_param {
        num_output: 384
        kernel_size: 1
        stride: 1        
        weight_filler {
            type: "gaussian"
            mean: 0.
            std: 0.05
        }
        bias_filler {
            type: "constant"
            value: 0.
        }
   }
}
layer {
  bottom: "cccp6"
  top: "cccp6"
  name: "relu9"
  type: "ReLU"
}
layer {
    bottom: "cccp6"
    top: "pool3"
    name: "pool3"
    type: "Pooling"
    pooling_param {
        pool: MAX
        kernel_size: 3
        stride: 2
    }
}
layer {
    bottom: "pool3"
    top: "pool3"
    name: "drop"
    type: "Dropout"
    dropout_param {
        dropout_ratio: 0.5
    }
}
layer {
    bottom: "pool3"
    top: "conv4-1024"
    name: "conv4-1024"
    type: "Convolution"
    param {
        lr_mult: 1
        decay_mult: 1
    }
    param {
        lr_mult: 2
        decay_mult: 0
    }
    convolution_param {
        num_output: 1024
        kernel_size: 3
        pad: 1
        stride: 1
        weight_filler {
            type: "gaussian"
            mean: 0.
            std: 0.05
        }
        bias_filler {
            type: "constant"
            value: 0.
        }
        quantization_kmean_num_cluster: 0
        quantization_num_segment: 1152
        quantization_kmean_cluster_centers_file: "models/nin_imagenet/conv4-1024_128_1152_kmean_cluster_centers.binaryproto"
        quantization_kmean_cluster_indices_file: "models/nin_imagenet/conv4-1024_128_1152_kmean_cluster_indices.binaryproto"        
    }
    conserve_gpu_memory_test: false
    parameter_compress: false
}
layer {
    bottom: "conv4-1024"
    top: "conv4-1024"
    name: "relu10"
    type: "ReLU"
}
layer {
    bottom: "conv4-1024"
    top: "cccp7-1024"
    name: "cccp7-1024"
    type: "Convolution"
    param {
        lr_mult: 1
        decay_mult: 1
    }
    param {
        lr_mult: 2
        decay_mult: 0
    }
    convolution_param {
        num_output: 1024
        kernel_size: 1
        stride: 1        
        weight_filler {
            type: "gaussian"
            mean: 0.
            std: 0.05
        }
        bias_filler {
            type: "constant"
            value: 0.
        }
        quantization_kmean_num_cluster: 0
        quantization_num_segment: 512
        quantization_kmean_cluster_centers_file: "models/nin_imagenet/cccp7-1024_256_512_kmean_cluster_centers.binaryproto"
        quantization_kmean_cluster_indices_file: "models/nin_imagenet/cccp7-1024_256_512_kmean_cluster_indices.binaryproto"         
    }
    conserve_gpu_memory_test: false
    parameter_compress: false
}
layer {
    bottom: "cccp7-1024"
    top: "cccp7-1024"
    name: "relu11"
    type: "ReLU"
}
layer {
    bottom: "cccp7-1024"
    top: "cccp8-1024"
    name: "cccp8-1024"
    type: "Convolution"
    param {
        lr_mult: 1
        decay_mult: 1
    }
    param {
        lr_mult: 2
        decay_mult: 0
    }
    convolution_param {
        num_output: 1000
        kernel_size: 1
        stride: 1           
        weight_filler {
            type: "gaussian"
            mean: 0.
            std: 0.01
        }
        bias_filler {
            type: "constant"
            value: 0.
        }        
    }
}
layer {
  bottom: "cccp8-1024"
  top: "cccp8-1024"
  name: "relu12"
  type: "ReLU"
}
layer {
    bottom: "cccp8-1024"
    top: "pool4"
    name: "pool4"
    type: "Pooling"
    pooling_param {
        pool: AVE
        kernel_size: 6
        stride: 1
    }
}

layer {
	name: "fine_branch_prob"
	type: "Softmax"
	bottom: "pool4"
	top: "fine_branch_prob"
}
layer {
	name: "coarse_branch_prob"
	type: "Fine2MultiCoarseProb"
	bottom: "fine_branch_prob"
	top: "coarse_branch_prob"
	fine2multicoarse_prob_layer_param{
		num_coarse: 89
		fine2multicoarse_param{
			coarse_id: 0
			coarse_id: 64
			coarse_id: 77
		}
		fine2multicoarse_param{
			coarse_id: 10
			coarse_id: 11
			coarse_id: 33
			coarse_id: 62
			coarse_id: 64
			coarse_id: 70
			coarse_id: 77
			coarse_id: 86
		}
		fine2multicoarse_param{
			coarse_id: 0
			coarse_id: 3
			coarse_id: 15
			coarse_id: 65
			coarse_id: 86
		}
		fine2multicoarse_param{
			coarse_id: 0
			coarse_id: 10
			coarse_id: 15
		}
		fine2multicoarse_param{
			coarse_id: 0
			coarse_id: 3
			coarse_id: 10
			coarse_id: 15
			coarse_id: 18
			coarse_id: 71
		}
		fine2multicoarse_param{
			coarse_id: 0
			coarse_id: 3
			coarse_id: 7
			coarse_id: 10
			coarse_id: 15
			coarse_id: 35
			coarse_id: 37
			coarse_id: 85
		}
		fine2multicoarse_param{
			coarse_id: 0
			coarse_id: 2
			coarse_id: 3
			coarse_id: 10
			coarse_id: 15
			coarse_id: 35
			coarse_id: 37
			coarse_id: 39
			coarse_id: 42
			coarse_id: 75
			coarse_id: 77
			coarse_id: 87
		}
		fine2multicoarse_param{
			coarse_id: 2
			coarse_id: 9
			coarse_id: 11
			coarse_id: 12
			coarse_id: 18
			coarse_id: 19
			coarse_id: 36
			coarse_id: 45
			coarse_id: 70
		}
		fine2multicoarse_param{
			coarse_id: 1
			coarse_id: 8
			coarse_id: 9
			coarse_id: 12
			coarse_id: 13
			coarse_id: 14
			coarse_id: 19
			coarse_id: 33
			coarse_id: 36
			coarse_id: 37
			coarse_id: 38
			coarse_id: 45
			coarse_id: 49
		}
		fine2multicoarse_param{
			coarse_id: 8
			coarse_id: 9
			coarse_id: 29
			coarse_id: 31
			coarse_id: 35
			coarse_id: 36
			coarse_id: 38
		}
		fine2multicoarse_param{
			coarse_id: 1
			coarse_id: 9
			coarse_id: 12
			coarse_id: 14
			coarse_id: 32
			coarse_id: 38
		}
		fine2multicoarse_param{
			coarse_id: 1
			coarse_id: 5
			coarse_id: 34
		}
		fine2multicoarse_param{
			coarse_id: 1
			coarse_id: 12
			coarse_id: 14
			coarse_id: 34
		}
		fine2multicoarse_param{
			coarse_id: 1
			coarse_id: 2
			coarse_id: 12
			coarse_id: 13
			coarse_id: 14
			coarse_id: 28
			coarse_id: 38
			coarse_id: 85
		}
		fine2multicoarse_param{
			coarse_id: 1
			coarse_id: 2
			coarse_id: 13
			coarse_id: 33
			coarse_id: 34
		}
		fine2multicoarse_param{
			coarse_id: 1
			coarse_id: 2
			coarse_id: 9
			coarse_id: 12
			coarse_id: 15
			coarse_id: 30
			coarse_id: 33
			coarse_id: 34
			coarse_id: 38
			coarse_id: 39
		}
		fine2multicoarse_param{
			coarse_id: 1
			coarse_id: 2
			coarse_id: 12
			coarse_id: 13
			coarse_id: 34
			coarse_id: 38
			coarse_id: 85
		}
		fine2multicoarse_param{
			coarse_id: 1
			coarse_id: 2
			coarse_id: 8
			coarse_id: 13
			coarse_id: 33
			coarse_id: 34
			coarse_id: 38
		}
		fine2multicoarse_param{
			coarse_id: 1
			coarse_id: 2
			coarse_id: 8
			coarse_id: 9
			coarse_id: 12
			coarse_id: 13
			coarse_id: 14
			coarse_id: 36
			coarse_id: 38
		}
		fine2multicoarse_param{
			coarse_id: 1
			coarse_id: 2
			coarse_id: 8
			coarse_id: 12
			coarse_id: 33
			coarse_id: 38
		}
		fine2multicoarse_param{
			coarse_id: 1
			coarse_id: 6
			coarse_id: 8
			coarse_id: 12
			coarse_id: 13
			coarse_id: 14
			coarse_id: 15
			coarse_id: 33
			coarse_id: 37
			coarse_id: 88
		}
		fine2multicoarse_param{
			coarse_id: 1
			coarse_id: 2
			coarse_id: 3
			coarse_id: 8
			coarse_id: 9
			coarse_id: 12
			coarse_id: 13
			coarse_id: 14
			coarse_id: 18
			coarse_id: 38
			coarse_id: 49
			coarse_id: 71
			coarse_id: 74
		}
		fine2multicoarse_param{
			coarse_id: 1
			coarse_id: 2
			coarse_id: 6
			coarse_id: 8
			coarse_id: 12
			coarse_id: 13
			coarse_id: 14
			coarse_id: 38
			coarse_id: 49
			coarse_id: 74
		}
		fine2multicoarse_param{
			coarse_id: 1
			coarse_id: 2
			coarse_id: 8
			coarse_id: 12
			coarse_id: 13
			coarse_id: 14
			coarse_id: 16
			coarse_id: 18
			coarse_id: 36
			coarse_id: 38
			coarse_id: 49
			coarse_id: 74
		}
		fine2multicoarse_param{
			coarse_id: 8
			coarse_id: 9
			coarse_id: 12
			coarse_id: 33
			coarse_id: 37
			coarse_id: 38
		}
		fine2multicoarse_param{
			coarse_id: 6
			coarse_id: 33
			coarse_id: 34
		}
		fine2multicoarse_param{
			coarse_id: 0
			coarse_id: 4
			coarse_id: 5
			coarse_id: 6
			coarse_id: 7
			coarse_id: 8
			coarse_id: 10
			coarse_id: 11
			coarse_id: 30
			coarse_id: 33
			coarse_id: 34
			coarse_id: 44
			coarse_id: 64
			coarse_id: 88
		}
		fine2multicoarse_param{
			coarse_id: 5
			coarse_id: 6
			coarse_id: 7
			coarse_id: 10
			coarse_id: 11
			coarse_id: 33
			coarse_id: 82
			coarse_id: 85
			coarse_id: 88
		}
		fine2multicoarse_param{
			coarse_id: 6
			coarse_id: 7
			coarse_id: 11
			coarse_id: 33
			coarse_id: 34
			coarse_id: 82
		}
		fine2multicoarse_param{
			coarse_id: 0
			coarse_id: 5
			coarse_id: 6
			coarse_id: 10
			coarse_id: 33
			coarse_id: 44
			coarse_id: 84
			coarse_id: 88
		}
		fine2multicoarse_param{
			coarse_id: 3
			coarse_id: 4
			coarse_id: 5
			coarse_id: 6
			coarse_id: 7
			coarse_id: 9
			coarse_id: 10
			coarse_id: 11
			coarse_id: 25
			coarse_id: 64
		}
		fine2multicoarse_param{
			coarse_id: 4
			coarse_id: 5
			coarse_id: 6
			coarse_id: 7
			coarse_id: 11
			coarse_id: 33
			coarse_id: 83
			coarse_id: 84
		}
		fine2multicoarse_param{
			coarse_id: 3
			coarse_id: 4
			coarse_id: 5
			coarse_id: 6
			coarse_id: 7
			coarse_id: 10
			coarse_id: 11
			coarse_id: 12
			coarse_id: 33
			coarse_id: 37
			coarse_id: 84
			coarse_id: 88
		}
		fine2multicoarse_param{
			coarse_id: 0
			coarse_id: 3
			coarse_id: 6
			coarse_id: 7
			coarse_id: 10
			coarse_id: 11
			coarse_id: 15
			coarse_id: 33
			coarse_id: 87
			coarse_id: 88
		}
		fine2multicoarse_param{
			coarse_id: 0
			coarse_id: 3
			coarse_id: 4
			coarse_id: 6
			coarse_id: 7
			coarse_id: 9
			coarse_id: 10
			coarse_id: 11
			coarse_id: 14
			coarse_id: 15
			coarse_id: 18
			coarse_id: 23
			coarse_id: 33
			coarse_id: 37
			coarse_id: 65
			coarse_id: 86
			coarse_id: 87
		}
		fine2multicoarse_param{
			coarse_id: 3
			coarse_id: 4
			coarse_id: 6
			coarse_id: 7
			coarse_id: 10
			coarse_id: 11
			coarse_id: 15
			coarse_id: 33
			coarse_id: 37
			coarse_id: 42
			coarse_id: 87
			coarse_id: 88
		}
		fine2multicoarse_param{
			coarse_id: 3
			coarse_id: 4
			coarse_id: 5
			coarse_id: 6
			coarse_id: 7
			coarse_id: 8
			coarse_id: 10
			coarse_id: 13
			coarse_id: 15
			coarse_id: 33
			coarse_id: 34
			coarse_id: 37
			coarse_id: 66
			coarse_id: 84
			coarse_id: 86
			coarse_id: 88
		}
		fine2multicoarse_param{
			coarse_id: 3
			coarse_id: 6
			coarse_id: 7
			coarse_id: 16
			coarse_id: 32
			coarse_id: 33
			coarse_id: 77
		}
		fine2multicoarse_param{
			coarse_id: 0
			coarse_id: 4
			coarse_id: 5
			coarse_id: 6
			coarse_id: 7
			coarse_id: 10
			coarse_id: 11
			coarse_id: 30
			coarse_id: 32
			coarse_id: 33
			coarse_id: 64
			coarse_id: 88
		}
		fine2multicoarse_param{
			coarse_id: 3
			coarse_id: 4
			coarse_id: 5
			coarse_id: 6
			coarse_id: 7
			coarse_id: 9
			coarse_id: 13
			coarse_id: 30
			coarse_id: 38
			coarse_id: 83
			coarse_id: 86
			coarse_id: 87
		}
		fine2multicoarse_param{
			coarse_id: 1
			coarse_id: 4
			coarse_id: 5
			coarse_id: 6
			coarse_id: 7
			coarse_id: 11
			coarse_id: 33
			coarse_id: 84
			coarse_id: 85
		}
		fine2multicoarse_param{
			coarse_id: 0
			coarse_id: 4
			coarse_id: 5
			coarse_id: 6
			coarse_id: 7
			coarse_id: 11
			coarse_id: 33
		}
		fine2multicoarse_param{
			coarse_id: 4
			coarse_id: 5
			coarse_id: 6
			coarse_id: 7
			coarse_id: 10
			coarse_id: 12
			coarse_id: 33
		}
		fine2multicoarse_param{
			coarse_id: 4
			coarse_id: 5
			coarse_id: 6
			coarse_id: 7
			coarse_id: 11
			coarse_id: 12
			coarse_id: 30
			coarse_id: 32
			coarse_id: 33
			coarse_id: 34
			coarse_id: 38
			coarse_id: 86
			coarse_id: 88
		}
		fine2multicoarse_param{
			coarse_id: 3
			coarse_id: 4
			coarse_id: 5
			coarse_id: 6
			coarse_id: 7
			coarse_id: 10
			coarse_id: 11
			coarse_id: 33
			coarse_id: 64
		}
		fine2multicoarse_param{
			coarse_id: 4
			coarse_id: 6
			coarse_id: 7
			coarse_id: 10
			coarse_id: 33
			coarse_id: 65
			coarse_id: 77
		}
		fine2multicoarse_param{
			coarse_id: 4
			coarse_id: 5
			coarse_id: 6
			coarse_id: 7
			coarse_id: 33
			coarse_id: 83
		}
		fine2multicoarse_param{
			coarse_id: 3
			coarse_id: 4
			coarse_id: 5
			coarse_id: 6
			coarse_id: 7
			coarse_id: 12
			coarse_id: 33
			coarse_id: 34
			coarse_id: 39
			coarse_id: 61
			coarse_id: 84
			coarse_id: 88
		}
		fine2multicoarse_param{
			coarse_id: 3
			coarse_id: 4
			coarse_id: 5
			coarse_id: 6
			coarse_id: 7
			coarse_id: 9
			coarse_id: 24
			coarse_id: 30
			coarse_id: 31
			coarse_id: 32
			coarse_id: 37
			coarse_id: 38
		}
		fine2multicoarse_param{
			coarse_id: 0
			coarse_id: 3
			coarse_id: 4
			coarse_id: 6
			coarse_id: 7
			coarse_id: 8
			coarse_id: 10
			coarse_id: 14
			coarse_id: 15
			coarse_id: 30
			coarse_id: 32
			coarse_id: 36
			coarse_id: 37
			coarse_id: 87
		}
		fine2multicoarse_param{
			coarse_id: 0
			coarse_id: 3
			coarse_id: 4
			coarse_id: 5
			coarse_id: 6
			coarse_id: 7
			coarse_id: 8
			coarse_id: 10
			coarse_id: 12
			coarse_id: 14
			coarse_id: 15
			coarse_id: 32
			coarse_id: 37
			coarse_id: 52
			coarse_id: 64
			coarse_id: 87
		}
		fine2multicoarse_param{
			coarse_id: 4
			coarse_id: 18
			coarse_id: 35
			coarse_id: 36
			coarse_id: 59
		}
		fine2multicoarse_param{
			coarse_id: 5
			coarse_id: 6
			coarse_id: 7
			coarse_id: 10
			coarse_id: 11
			coarse_id: 33
			coarse_id: 64
			coarse_id: 74
			coarse_id: 88
		}
		fine2multicoarse_param{
			coarse_id: 5
			coarse_id: 6
			coarse_id: 7
			coarse_id: 10
			coarse_id: 11
			coarse_id: 14
			coarse_id: 34
			coarse_id: 64
			coarse_id: 70
		}
		fine2multicoarse_param{
			coarse_id: 4
			coarse_id: 5
			coarse_id: 6
			coarse_id: 7
			coarse_id: 10
			coarse_id: 11
			coarse_id: 12
			coarse_id: 33
			coarse_id: 64
			coarse_id: 70
		}
		fine2multicoarse_param{
			coarse_id: 5
			coarse_id: 6
			coarse_id: 7
			coarse_id: 10
			coarse_id: 33
			coarse_id: 83
			coarse_id: 84
			coarse_id: 85
		}
		fine2multicoarse_param{
			coarse_id: 6
			coarse_id: 7
			coarse_id: 10
			coarse_id: 64
			coarse_id: 83
		}
		fine2multicoarse_param{
			coarse_id: 3
			coarse_id: 4
			coarse_id: 5
			coarse_id: 6
			coarse_id: 7
			coarse_id: 10
			coarse_id: 12
			coarse_id: 64
		}
		fine2multicoarse_param{
			coarse_id: 0
			coarse_id: 3
			coarse_id: 4
			coarse_id: 5
			coarse_id: 6
			coarse_id: 7
			coarse_id: 8
			coarse_id: 10
			coarse_id: 11
			coarse_id: 12
			coarse_id: 14
			coarse_id: 15
			coarse_id: 33
			coarse_id: 34
			coarse_id: 36
			coarse_id: 37
			coarse_id: 64
			coarse_id: 88
		}
		fine2multicoarse_param{
			coarse_id: 0
			coarse_id: 1
			coarse_id: 5
			coarse_id: 6
			coarse_id: 7
			coarse_id: 33
			coarse_id: 84
		}
		fine2multicoarse_param{
			coarse_id: 4
			coarse_id: 5
			coarse_id: 6
			coarse_id: 7
			coarse_id: 10
			coarse_id: 11
			coarse_id: 33
			coarse_id: 34
			coarse_id: 38
			coarse_id: 64
			coarse_id: 83
			coarse_id: 85
			coarse_id: 88
		}
		fine2multicoarse_param{
			coarse_id: 5
			coarse_id: 6
			coarse_id: 7
			coarse_id: 11
			coarse_id: 33
			coarse_id: 83
			coarse_id: 84
			coarse_id: 88
		}
		fine2multicoarse_param{
			coarse_id: 3
			coarse_id: 4
			coarse_id: 5
			coarse_id: 6
			coarse_id: 7
			coarse_id: 10
			coarse_id: 11
			coarse_id: 33
			coarse_id: 64
			coarse_id: 83
			coarse_id: 88
		}
		fine2multicoarse_param{
			coarse_id: 5
			coarse_id: 6
			coarse_id: 7
			coarse_id: 8
			coarse_id: 10
			coarse_id: 11
			coarse_id: 12
			coarse_id: 14
			coarse_id: 30
			coarse_id: 64
			coarse_id: 88
		}
		fine2multicoarse_param{
			coarse_id: 4
			coarse_id: 5
			coarse_id: 6
			coarse_id: 7
			coarse_id: 10
			coarse_id: 33
			coarse_id: 64
			coarse_id: 84
		}
		fine2multicoarse_param{
			coarse_id: 0
			coarse_id: 5
			coarse_id: 6
			coarse_id: 7
			coarse_id: 10
			coarse_id: 11
			coarse_id: 15
			coarse_id: 33
			coarse_id: 64
			coarse_id: 88
		}
		fine2multicoarse_param{
			coarse_id: 4
			coarse_id: 5
			coarse_id: 6
			coarse_id: 7
			coarse_id: 10
			coarse_id: 31
			coarse_id: 33
			coarse_id: 88
		}
		fine2multicoarse_param{
			coarse_id: 4
			coarse_id: 6
			coarse_id: 7
			coarse_id: 10
			coarse_id: 33
			coarse_id: 88
		}
		fine2multicoarse_param{
			coarse_id: 6
			coarse_id: 7
			coarse_id: 9
			coarse_id: 10
			coarse_id: 30
			coarse_id: 31
			coarse_id: 32
			coarse_id: 33
			coarse_id: 39
			coarse_id: 88
		}
		fine2multicoarse_param{
			coarse_id: 7
			coarse_id: 10
			coarse_id: 15
			coarse_id: 33
			coarse_id: 70
			coarse_id: 75
			coarse_id: 77
			coarse_id: 83
			coarse_id: 88
		}
		fine2multicoarse_param{
			coarse_id: 5
			coarse_id: 11
			coarse_id: 33
			coarse_id: 34
			coarse_id: 66
		}
		fine2multicoarse_param{
			coarse_id: 4
			coarse_id: 6
			coarse_id: 7
			coarse_id: 10
			coarse_id: 11
			coarse_id: 15
			coarse_id: 33
			coarse_id: 34
			coarse_id: 83
			coarse_id: 88
		}
		fine2multicoarse_param{
			coarse_id: 33
			coarse_id: 34
			coarse_id: 49
		}
		fine2multicoarse_param{
			coarse_id: 5
			coarse_id: 6
			coarse_id: 11
			coarse_id: 33
			coarse_id: 34
			coarse_id: 49
			coarse_id: 82
			coarse_id: 88
		}
		fine2multicoarse_param{
			coarse_id: 11
			coarse_id: 33
			coarse_id: 34
			coarse_id: 39
			coarse_id: 49
		}
		fine2multicoarse_param{
			coarse_id: 33
			coarse_id: 34
			coarse_id: 77
		}
		fine2multicoarse_param{
			coarse_id: 6
			coarse_id: 7
			coarse_id: 11
			coarse_id: 33
			coarse_id: 66
			coarse_id: 82
			coarse_id: 83
		}
		fine2multicoarse_param{
			coarse_id: 4
			coarse_id: 5
			coarse_id: 6
			coarse_id: 11
			coarse_id: 33
			coarse_id: 34
			coarse_id: 82
		}
		fine2multicoarse_param{
			coarse_id: 6
			coarse_id: 7
			coarse_id: 10
			coarse_id: 11
			coarse_id: 31
			coarse_id: 33
			coarse_id: 34
			coarse_id: 85
			coarse_id: 88
		}
		fine2multicoarse_param{
			coarse_id: 5
			coarse_id: 6
			coarse_id: 7
			coarse_id: 10
			coarse_id: 11
			coarse_id: 33
			coarse_id: 34
			coarse_id: 88
		}
		fine2multicoarse_param{
			coarse_id: 1
			coarse_id: 8
			coarse_id: 12
			coarse_id: 13
			coarse_id: 14
			coarse_id: 26
			coarse_id: 37
		}
		fine2multicoarse_param{
			coarse_id: 6
			coarse_id: 7
			coarse_id: 8
			coarse_id: 9
			coarse_id: 10
			coarse_id: 12
			coarse_id: 13
			coarse_id: 14
		}
		fine2multicoarse_param{
			coarse_id: 1
			coarse_id: 4
			coarse_id: 6
			coarse_id: 7
			coarse_id: 9
			coarse_id: 12
			coarse_id: 14
			coarse_id: 33
			coarse_id: 37
			coarse_id: 88
		}
		fine2multicoarse_param{
			coarse_id: 8
			coarse_id: 9
			coarse_id: 12
			coarse_id: 14
		}
		fine2multicoarse_param{
			coarse_id: 2
			coarse_id: 8
			coarse_id: 13
			coarse_id: 33
			coarse_id: 34
			coarse_id: 38
		}
		fine2multicoarse_param{
			coarse_id: 1
			coarse_id: 2
			coarse_id: 4
			coarse_id: 8
			coarse_id: 9
			coarse_id: 12
			coarse_id: 13
			coarse_id: 14
			coarse_id: 30
			coarse_id: 31
			coarse_id: 38
		}
		fine2multicoarse_param{
			coarse_id: 1
			coarse_id: 6
			coarse_id: 9
			coarse_id: 12
			coarse_id: 13
			coarse_id: 14
			coarse_id: 30
		}
		fine2multicoarse_param{
			coarse_id: 15
			coarse_id: 38
			coarse_id: 66
			coarse_id: 71
		}
		fine2multicoarse_param{
			coarse_id: 11
			coarse_id: 13
			coarse_id: 39
			coarse_id: 66
			coarse_id: 82
		}
		fine2multicoarse_param{
			coarse_id: 8
			coarse_id: 12
			coarse_id: 31
			coarse_id: 38
			coarse_id: 52
			coarse_id: 65
			coarse_id: 71
		}
		fine2multicoarse_param{
			coarse_id: 1
			coarse_id: 12
			coarse_id: 13
			coarse_id: 33
			coarse_id: 34
			coarse_id: 39
			coarse_id: 62
			coarse_id: 85
		}
		fine2multicoarse_param{
			coarse_id: 1
			coarse_id: 2
			coarse_id: 4
			coarse_id: 8
			coarse_id: 12
			coarse_id: 13
			coarse_id: 14
			coarse_id: 33
			coarse_id: 34
		}
		fine2multicoarse_param{
			coarse_id: 1
			coarse_id: 5
			coarse_id: 13
			coarse_id: 33
			coarse_id: 34
			coarse_id: 62
		}
		fine2multicoarse_param{
			coarse_id: 1
			coarse_id: 2
			coarse_id: 8
			coarse_id: 12
			coarse_id: 13
			coarse_id: 23
			coarse_id: 34
			coarse_id: 38
		}
		fine2multicoarse_param{
			coarse_id: 1
			coarse_id: 5
			coarse_id: 8
			coarse_id: 12
			coarse_id: 13
			coarse_id: 33
			coarse_id: 34
			coarse_id: 62
		}
		fine2multicoarse_param{
			coarse_id: 1
			coarse_id: 13
			coarse_id: 34
		}
		fine2multicoarse_param{
			coarse_id: 1
			coarse_id: 8
			coarse_id: 13
			coarse_id: 34
			coarse_id: 38
			coarse_id: 39
		}
		fine2multicoarse_param{
			coarse_id: 1
			coarse_id: 8
			coarse_id: 13
			coarse_id: 14
			coarse_id: 15
			coarse_id: 31
			coarse_id: 37
		}
		fine2multicoarse_param{
			coarse_id: 8
			coarse_id: 9
			coarse_id: 13
			coarse_id: 14
		}
		fine2multicoarse_param{
			coarse_id: 2
			coarse_id: 8
			coarse_id: 12
			coarse_id: 13
			coarse_id: 14
			coarse_id: 15
			coarse_id: 21
			coarse_id: 35
			coarse_id: 36
		}
		fine2multicoarse_param{
			coarse_id: 8
			coarse_id: 13
			coarse_id: 36
			coarse_id: 37
		}
		fine2multicoarse_param{
			coarse_id: 23
			coarse_id: 24
			coarse_id: 31
			coarse_id: 35
			coarse_id: 36
			coarse_id: 37
			coarse_id: 38
			coarse_id: 39
			coarse_id: 40
			coarse_id: 69
			coarse_id: 82
		}
		fine2multicoarse_param{
			coarse_id: 9
			coarse_id: 10
			coarse_id: 34
			coarse_id: 35
			coarse_id: 37
			coarse_id: 66
		}
		fine2multicoarse_param{
			coarse_id: 0
			coarse_id: 3
			coarse_id: 6
			coarse_id: 8
			coarse_id: 10
			coarse_id: 11
			coarse_id: 14
			coarse_id: 15
			coarse_id: 16
			coarse_id: 35
			coarse_id: 37
			coarse_id: 64
			coarse_id: 88
		}
		fine2multicoarse_param{
			coarse_id: 9
			coarse_id: 12
			coarse_id: 14
			coarse_id: 17
			coarse_id: 18
			coarse_id: 19
			coarse_id: 24
			coarse_id: 28
			coarse_id: 29
			coarse_id: 30
			coarse_id: 31
			coarse_id: 32
			coarse_id: 35
			coarse_id: 36
			coarse_id: 37
			coarse_id: 38
		}
		fine2multicoarse_param{
			coarse_id: 9
			coarse_id: 24
			coarse_id: 30
			coarse_id: 37
			coarse_id: 38
			coarse_id: 64
		}
		fine2multicoarse_param{
			coarse_id: 3
			coarse_id: 4
			coarse_id: 9
			coarse_id: 15
			coarse_id: 18
			coarse_id: 19
			coarse_id: 24
			coarse_id: 26
			coarse_id: 30
			coarse_id: 31
			coarse_id: 32
			coarse_id: 35
			coarse_id: 37
			coarse_id: 38
			coarse_id: 86
		}
		fine2multicoarse_param{
			coarse_id: 0
			coarse_id: 10
			coarse_id: 11
			coarse_id: 15
			coarse_id: 59
			coarse_id: 70
			coarse_id: 86
		}
		fine2multicoarse_param{
			coarse_id: 10
			coarse_id: 11
			coarse_id: 39
			coarse_id: 70
			coarse_id: 88
		}
		fine2multicoarse_param{
			coarse_id: 0
			coarse_id: 4
			coarse_id: 7
			coarse_id: 10
			coarse_id: 15
			coarse_id: 33
			coarse_id: 39
			coarse_id: 70
			coarse_id: 83
			coarse_id: 85
			coarse_id: 88
		}
		fine2multicoarse_param{
			coarse_id: 6
			coarse_id: 10
			coarse_id: 11
			coarse_id: 33
			coarse_id: 39
			coarse_id: 74
			coarse_id: 83
			coarse_id: 85
			coarse_id: 88
		}
		fine2multicoarse_param{
			coarse_id: 6
			coarse_id: 7
			coarse_id: 10
			coarse_id: 33
			coarse_id: 52
			coarse_id: 59
			coarse_id: 62
			coarse_id: 66
			coarse_id: 70
			coarse_id: 74
			coarse_id: 77
			coarse_id: 83
		}
		fine2multicoarse_param{
			coarse_id: 3
			coarse_id: 4
			coarse_id: 6
			coarse_id: 7
			coarse_id: 10
			coarse_id: 11
			coarse_id: 15
			coarse_id: 21
			coarse_id: 30
			coarse_id: 33
			coarse_id: 45
			coarse_id: 65
			coarse_id: 70
			coarse_id: 75
			coarse_id: 77
			coarse_id: 83
			coarse_id: 85
			coarse_id: 87
			coarse_id: 88
		}
		fine2multicoarse_param{
			coarse_id: 5
			coarse_id: 6
			coarse_id: 7
			coarse_id: 10
			coarse_id: 11
			coarse_id: 33
			coarse_id: 45
			coarse_id: 64
			coarse_id: 65
			coarse_id: 83
			coarse_id: 85
			coarse_id: 88
		}
		fine2multicoarse_param{
			coarse_id: 0
			coarse_id: 1
			coarse_id: 5
			coarse_id: 6
			coarse_id: 7
			coarse_id: 10
			coarse_id: 11
			coarse_id: 12
			coarse_id: 13
			coarse_id: 14
			coarse_id: 33
			coarse_id: 34
			coarse_id: 45
			coarse_id: 61
			coarse_id: 64
			coarse_id: 65
			coarse_id: 66
			coarse_id: 83
			coarse_id: 88
		}
		fine2multicoarse_param{
			coarse_id: 0
			coarse_id: 6
			coarse_id: 10
			coarse_id: 11
			coarse_id: 33
			coarse_id: 39
			coarse_id: 83
			coarse_id: 88
		}
		fine2multicoarse_param{
			coarse_id: 3
			coarse_id: 6
			coarse_id: 7
			coarse_id: 10
			coarse_id: 11
			coarse_id: 33
			coarse_id: 65
			coarse_id: 83
			coarse_id: 84
			coarse_id: 88
		}
		fine2multicoarse_param{
			coarse_id: 7
			coarse_id: 10
			coarse_id: 77
			coarse_id: 88
		}
		fine2multicoarse_param{
			coarse_id: 6
			coarse_id: 7
			coarse_id: 10
			coarse_id: 11
			coarse_id: 33
			coarse_id: 52
			coarse_id: 77
			coarse_id: 78
			coarse_id: 83
			coarse_id: 84
			coarse_id: 88
		}
		fine2multicoarse_param{
			coarse_id: 3
			coarse_id: 4
			coarse_id: 6
			coarse_id: 7
			coarse_id: 10
			coarse_id: 11
			coarse_id: 14
			coarse_id: 33
			coarse_id: 37
			coarse_id: 83
			coarse_id: 88
		}
		fine2multicoarse_param{
			coarse_id: 6
			coarse_id: 7
			coarse_id: 10
			coarse_id: 11
			coarse_id: 33
			coarse_id: 83
			coarse_id: 88
		}
		fine2multicoarse_param{
			coarse_id: 10
			coarse_id: 11
			coarse_id: 77
			coarse_id: 78
			coarse_id: 83
			coarse_id: 85
			coarse_id: 88
		}
		fine2multicoarse_param{
			coarse_id: 11
			coarse_id: 33
			coarse_id: 61
			coarse_id: 67
			coarse_id: 77
			coarse_id: 78
			coarse_id: 83
			coarse_id: 84
		}
		fine2multicoarse_param{
			coarse_id: 4
			coarse_id: 5
			coarse_id: 6
			coarse_id: 10
			coarse_id: 11
			coarse_id: 33
			coarse_id: 83
			coarse_id: 86
		}
		fine2multicoarse_param{
			coarse_id: 0
			coarse_id: 3
			coarse_id: 4
			coarse_id: 6
			coarse_id: 7
			coarse_id: 10
			coarse_id: 11
			coarse_id: 33
			coarse_id: 64
			coarse_id: 77
			coarse_id: 78
			coarse_id: 83
			coarse_id: 85
			coarse_id: 88
		}
		fine2multicoarse_param{
			coarse_id: 3
			coarse_id: 6
			coarse_id: 7
			coarse_id: 10
			coarse_id: 11
			coarse_id: 33
			coarse_id: 42
			coarse_id: 45
			coarse_id: 65
			coarse_id: 70
			coarse_id: 75
			coarse_id: 83
			coarse_id: 84
			coarse_id: 85
			coarse_id: 88
		}
		fine2multicoarse_param{
			coarse_id: 0
			coarse_id: 3
			coarse_id: 6
			coarse_id: 7
			coarse_id: 8
			coarse_id: 10
			coarse_id: 11
			coarse_id: 33
			coarse_id: 35
			coarse_id: 65
			coarse_id: 75
			coarse_id: 83
			coarse_id: 88
		}
		fine2multicoarse_param{
			coarse_id: 1
			coarse_id: 4
			coarse_id: 8
			coarse_id: 13
			coarse_id: 14
			coarse_id: 22
		}
		fine2multicoarse_param{
			coarse_id: 1
			coarse_id: 2
			coarse_id: 8
			coarse_id: 12
			coarse_id: 13
			coarse_id: 14
		}
		fine2multicoarse_param{
			coarse_id: 0
			coarse_id: 1
			coarse_id: 8
			coarse_id: 12
			coarse_id: 14
			coarse_id: 36
			coarse_id: 39
		}
		fine2multicoarse_param{
			coarse_id: 8
			coarse_id: 13
			coarse_id: 39
			coarse_id: 87
		}
		fine2multicoarse_param{
			coarse_id: 5
			coarse_id: 8
			coarse_id: 12
			coarse_id: 13
			coarse_id: 14
		}
		fine2multicoarse_param{
			coarse_id: 4
			coarse_id: 8
			coarse_id: 12
			coarse_id: 14
			coarse_id: 38
			coarse_id: 52
			coarse_id: 71
		}
		fine2multicoarse_param{
			coarse_id: 1
			coarse_id: 6
			coarse_id: 8
			coarse_id: 9
			coarse_id: 12
			coarse_id: 14
			coarse_id: 34
			coarse_id: 37
			coarse_id: 38
			coarse_id: 78
		}
		fine2multicoarse_param{
			coarse_id: 2
			coarse_id: 8
			coarse_id: 12
			coarse_id: 13
			coarse_id: 14
			coarse_id: 30
			coarse_id: 36
			coarse_id: 39
		}
		fine2multicoarse_param{
			coarse_id: 1
			coarse_id: 4
			coarse_id: 6
			coarse_id: 8
			coarse_id: 12
			coarse_id: 14
		}
		fine2multicoarse_param{
			coarse_id: 2
			coarse_id: 8
			coarse_id: 12
			coarse_id: 13
			coarse_id: 39
		}
		fine2multicoarse_param{
			coarse_id: 4
			coarse_id: 8
			coarse_id: 12
			coarse_id: 13
			coarse_id: 14
			coarse_id: 35
			coarse_id: 37
			coarse_id: 38
			coarse_id: 71
		}
		fine2multicoarse_param{
			coarse_id: 1
			coarse_id: 8
			coarse_id: 9
			coarse_id: 12
			coarse_id: 14
			coarse_id: 30
			coarse_id: 31
			coarse_id: 36
			coarse_id: 64
		}
		fine2multicoarse_param{
			coarse_id: 8
			coarse_id: 12
			coarse_id: 14
		}
		fine2multicoarse_param{
			coarse_id: 4
			coarse_id: 8
			coarse_id: 12
			coarse_id: 14
			coarse_id: 71
		}
		fine2multicoarse_param{
			coarse_id: 1
			coarse_id: 8
			coarse_id: 12
			coarse_id: 13
			coarse_id: 14
		}
		fine2multicoarse_param{
			coarse_id: 6
			coarse_id: 8
			coarse_id: 12
			coarse_id: 14
			coarse_id: 36
			coarse_id: 37
		}
		fine2multicoarse_param{
			coarse_id: 2
			coarse_id: 8
			coarse_id: 12
			coarse_id: 13
			coarse_id: 14
			coarse_id: 15
			coarse_id: 23
		}
		fine2multicoarse_param{
			coarse_id: 0
			coarse_id: 7
			coarse_id: 8
			coarse_id: 9
			coarse_id: 13
			coarse_id: 14
			coarse_id: 15
			coarse_id: 39
			coarse_id: 55
			coarse_id: 87
		}
		fine2multicoarse_param{
			coarse_id: 8
			coarse_id: 10
			coarse_id: 14
			coarse_id: 15
			coarse_id: 31
			coarse_id: 86
		}
		fine2multicoarse_param{
			coarse_id: 0
			coarse_id: 2
			coarse_id: 8
			coarse_id: 13
			coarse_id: 14
			coarse_id: 15
			coarse_id: 49
			coarse_id: 71
		}
		fine2multicoarse_param{
			coarse_id: 0
			coarse_id: 6
			coarse_id: 8
			coarse_id: 10
			coarse_id: 14
			coarse_id: 15
			coarse_id: 37
			coarse_id: 55
			coarse_id: 65
			coarse_id: 71
			coarse_id: 86
			coarse_id: 87
		}
		fine2multicoarse_param{
			coarse_id: 0
			coarse_id: 8
			coarse_id: 14
			coarse_id: 15
			coarse_id: 37
			coarse_id: 52
			coarse_id: 55
			coarse_id: 65
			coarse_id: 87
		}
		fine2multicoarse_param{
			coarse_id: 0
			coarse_id: 3
			coarse_id: 10
			coarse_id: 15
			coarse_id: 33
			coarse_id: 35
			coarse_id: 87
		}
		fine2multicoarse_param{
			coarse_id: 0
			coarse_id: 3
			coarse_id: 4
			coarse_id: 6
			coarse_id: 8
			coarse_id: 9
			coarse_id: 10
			coarse_id: 13
			coarse_id: 15
			coarse_id: 18
			coarse_id: 24
			coarse_id: 31
			coarse_id: 35
			coarse_id: 37
			coarse_id: 38
			coarse_id: 55
			coarse_id: 65
			coarse_id: 86
			coarse_id: 87
		}
		fine2multicoarse_param{
			coarse_id: 9
			coarse_id: 16
			coarse_id: 17
			coarse_id: 18
			coarse_id: 19
			coarse_id: 22
			coarse_id: 24
			coarse_id: 25
			coarse_id: 27
			coarse_id: 28
			coarse_id: 29
			coarse_id: 30
			coarse_id: 31
			coarse_id: 38
		}
		fine2multicoarse_param{
			coarse_id: 9
			coarse_id: 19
			coarse_id: 20
			coarse_id: 21
			coarse_id: 22
			coarse_id: 24
		}
		fine2multicoarse_param{
			coarse_id: 19
			coarse_id: 20
			coarse_id: 21
			coarse_id: 22
			coarse_id: 24
			coarse_id: 28
			coarse_id: 70
		}
		fine2multicoarse_param{
			coarse_id: 9
			coarse_id: 18
			coarse_id: 19
			coarse_id: 20
			coarse_id: 21
			coarse_id: 22
			coarse_id: 24
			coarse_id: 28
			coarse_id: 29
			coarse_id: 38
		}
		fine2multicoarse_param{
			coarse_id: 9
			coarse_id: 18
			coarse_id: 19
			coarse_id: 20
			coarse_id: 21
			coarse_id: 22
			coarse_id: 23
			coarse_id: 24
			coarse_id: 25
			coarse_id: 29
		}
		fine2multicoarse_param{
			coarse_id: 17
			coarse_id: 18
			coarse_id: 20
			coarse_id: 22
			coarse_id: 24
			coarse_id: 25
			coarse_id: 27
			coarse_id: 32
		}
		fine2multicoarse_param{
			coarse_id: 9
			coarse_id: 18
			coarse_id: 19
			coarse_id: 22
			coarse_id: 24
			coarse_id: 25
			coarse_id: 27
			coarse_id: 28
			coarse_id: 29
		}
		fine2multicoarse_param{
			coarse_id: 16
			coarse_id: 17
			coarse_id: 18
			coarse_id: 19
			coarse_id: 21
			coarse_id: 22
			coarse_id: 23
			coarse_id: 24
			coarse_id: 27
			coarse_id: 29
			coarse_id: 30
			coarse_id: 38
			coarse_id: 71
			coarse_id: 78
		}
		fine2multicoarse_param{
			coarse_id: 16
			coarse_id: 17
			coarse_id: 18
			coarse_id: 19
			coarse_id: 24
			coarse_id: 27
		}
		fine2multicoarse_param{
			coarse_id: 9
			coarse_id: 13
			coarse_id: 18
			coarse_id: 19
			coarse_id: 20
			coarse_id: 21
			coarse_id: 22
			coarse_id: 23
			coarse_id: 24
			coarse_id: 25
			coarse_id: 26
			coarse_id: 27
			coarse_id: 29
			coarse_id: 38
			coarse_id: 70
			coarse_id: 84
		}
		fine2multicoarse_param{
			coarse_id: 16
			coarse_id: 17
			coarse_id: 18
			coarse_id: 19
			coarse_id: 20
			coarse_id: 24
			coarse_id: 25
			coarse_id: 27
			coarse_id: 29
			coarse_id: 34
			coarse_id: 78
		}
		fine2multicoarse_param{
			coarse_id: 9
			coarse_id: 16
			coarse_id: 17
			coarse_id: 18
			coarse_id: 19
			coarse_id: 22
			coarse_id: 24
			coarse_id: 25
			coarse_id: 27
			coarse_id: 29
		}
		fine2multicoarse_param{
			coarse_id: 16
			coarse_id: 17
			coarse_id: 18
			coarse_id: 19
			coarse_id: 20
			coarse_id: 22
			coarse_id: 23
			coarse_id: 24
			coarse_id: 27
			coarse_id: 29
			coarse_id: 30
			coarse_id: 42
		}
		fine2multicoarse_param{
			coarse_id: 16
			coarse_id: 17
			coarse_id: 18
			coarse_id: 19
			coarse_id: 20
			coarse_id: 22
			coarse_id: 23
			coarse_id: 24
			coarse_id: 25
			coarse_id: 27
			coarse_id: 29
			coarse_id: 38
		}
		fine2multicoarse_param{
			coarse_id: 16
			coarse_id: 17
			coarse_id: 18
			coarse_id: 19
			coarse_id: 23
			coarse_id: 24
			coarse_id: 26
			coarse_id: 27
			coarse_id: 52
			coarse_id: 77
		}
		fine2multicoarse_param{
			coarse_id: 9
			coarse_id: 16
			coarse_id: 17
			coarse_id: 18
			coarse_id: 19
			coarse_id: 20
			coarse_id: 24
			coarse_id: 25
			coarse_id: 27
			coarse_id: 38
		}
		fine2multicoarse_param{
			coarse_id: 16
			coarse_id: 17
			coarse_id: 18
			coarse_id: 20
			coarse_id: 21
			coarse_id: 22
			coarse_id: 24
			coarse_id: 25
			coarse_id: 27
			coarse_id: 29
			coarse_id: 31
			coarse_id: 38
			coarse_id: 52
			coarse_id: 69
		}
		fine2multicoarse_param{
			coarse_id: 9
			coarse_id: 16
			coarse_id: 17
			coarse_id: 18
			coarse_id: 19
			coarse_id: 22
			coarse_id: 24
			coarse_id: 29
			coarse_id: 30
			coarse_id: 35
			coarse_id: 69
		}
		fine2multicoarse_param{
			coarse_id: 9
			coarse_id: 17
			coarse_id: 18
			coarse_id: 19
			coarse_id: 20
			coarse_id: 21
			coarse_id: 22
			coarse_id: 24
			coarse_id: 25
			coarse_id: 27
			coarse_id: 28
			coarse_id: 29
			coarse_id: 30
			coarse_id: 31
			coarse_id: 34
		}
		fine2multicoarse_param{
			coarse_id: 9
			coarse_id: 16
			coarse_id: 18
			coarse_id: 19
			coarse_id: 20
			coarse_id: 21
			coarse_id: 22
			coarse_id: 23
			coarse_id: 24
			coarse_id: 25
			coarse_id: 26
			coarse_id: 28
			coarse_id: 29
			coarse_id: 30
			coarse_id: 31
			coarse_id: 35
			coarse_id: 69
		}
		fine2multicoarse_param{
			coarse_id: 2
			coarse_id: 9
			coarse_id: 16
			coarse_id: 17
			coarse_id: 18
			coarse_id: 20
			coarse_id: 23
			coarse_id: 24
			coarse_id: 27
			coarse_id: 40
			coarse_id: 83
		}
		fine2multicoarse_param{
			coarse_id: 9
			coarse_id: 16
			coarse_id: 17
			coarse_id: 18
			coarse_id: 19
			coarse_id: 20
			coarse_id: 24
			coarse_id: 25
			coarse_id: 26
			coarse_id: 27
			coarse_id: 28
			coarse_id: 29
			coarse_id: 30
			coarse_id: 31
			coarse_id: 36
			coarse_id: 56
		}
		fine2multicoarse_param{
			coarse_id: 16
			coarse_id: 17
			coarse_id: 18
			coarse_id: 20
			coarse_id: 24
			coarse_id: 25
			coarse_id: 27
			coarse_id: 29
			coarse_id: 30
			coarse_id: 34
		}
		fine2multicoarse_param{
			coarse_id: 18
			coarse_id: 19
			coarse_id: 20
			coarse_id: 22
			coarse_id: 23
			coarse_id: 24
			coarse_id: 28
			coarse_id: 29
			coarse_id: 30
			coarse_id: 31
			coarse_id: 37
			coarse_id: 38
		}
		fine2multicoarse_param{
			coarse_id: 9
			coarse_id: 16
			coarse_id: 17
			coarse_id: 19
			coarse_id: 20
			coarse_id: 21
			coarse_id: 22
			coarse_id: 23
			coarse_id: 24
			coarse_id: 26
			coarse_id: 27
			coarse_id: 29
			coarse_id: 37
			coarse_id: 38
		}
		fine2multicoarse_param{
			coarse_id: 9
			coarse_id: 16
			coarse_id: 17
			coarse_id: 18
			coarse_id: 19
			coarse_id: 20
			coarse_id: 21
			coarse_id: 22
			coarse_id: 23
			coarse_id: 24
			coarse_id: 25
			coarse_id: 27
			coarse_id: 28
			coarse_id: 29
			coarse_id: 30
			coarse_id: 31
			coarse_id: 36
		}
		fine2multicoarse_param{
			coarse_id: 16
			coarse_id: 18
			coarse_id: 19
			coarse_id: 20
			coarse_id: 21
			coarse_id: 22
			coarse_id: 23
			coarse_id: 24
			coarse_id: 26
			coarse_id: 27
			coarse_id: 36
			coarse_id: 60
		}
		fine2multicoarse_param{
			coarse_id: 16
			coarse_id: 17
			coarse_id: 18
			coarse_id: 20
			coarse_id: 21
			coarse_id: 23
			coarse_id: 24
			coarse_id: 31
			coarse_id: 35
			coarse_id: 60
		}
		fine2multicoarse_param{
			coarse_id: 9
			coarse_id: 16
			coarse_id: 17
			coarse_id: 18
			coarse_id: 19
			coarse_id: 20
			coarse_id: 22
			coarse_id: 23
			coarse_id: 24
			coarse_id: 25
			coarse_id: 26
			coarse_id: 27
			coarse_id: 29
			coarse_id: 35
			coarse_id: 37
		}
		fine2multicoarse_param{
			coarse_id: 9
			coarse_id: 16
			coarse_id: 17
			coarse_id: 18
			coarse_id: 19
			coarse_id: 20
			coarse_id: 23
			coarse_id: 24
			coarse_id: 25
			coarse_id: 27
			coarse_id: 31
			coarse_id: 32
		}
		fine2multicoarse_param{
			coarse_id: 9
			coarse_id: 19
			coarse_id: 20
			coarse_id: 21
			coarse_id: 22
			coarse_id: 24
			coarse_id: 26
			coarse_id: 28
			coarse_id: 30
		}
		fine2multicoarse_param{
			coarse_id: 9
			coarse_id: 16
			coarse_id: 18
			coarse_id: 19
			coarse_id: 20
			coarse_id: 22
			coarse_id: 24
			coarse_id: 31
			coarse_id: 37
		}
		fine2multicoarse_param{
			coarse_id: 9
			coarse_id: 18
			coarse_id: 19
			coarse_id: 20
			coarse_id: 21
			coarse_id: 22
			coarse_id: 23
			coarse_id: 24
			coarse_id: 26
			coarse_id: 70
			coarse_id: 86
		}
		fine2multicoarse_param{
			coarse_id: 16
			coarse_id: 18
			coarse_id: 19
			coarse_id: 20
			coarse_id: 21
			coarse_id: 22
			coarse_id: 24
			coarse_id: 29
			coarse_id: 30
			coarse_id: 52
		}
		fine2multicoarse_param{
			coarse_id: 9
			coarse_id: 16
			coarse_id: 18
			coarse_id: 19
			coarse_id: 20
			coarse_id: 21
			coarse_id: 22
			coarse_id: 24
			coarse_id: 26
		}
		fine2multicoarse_param{
			coarse_id: 9
			coarse_id: 18
			coarse_id: 19
			coarse_id: 20
			coarse_id: 21
			coarse_id: 22
			coarse_id: 29
			coarse_id: 78
		}
		fine2multicoarse_param{
			coarse_id: 19
			coarse_id: 20
			coarse_id: 21
			coarse_id: 22
			coarse_id: 24
		}
		fine2multicoarse_param{
			coarse_id: 18
			coarse_id: 19
			coarse_id: 20
			coarse_id: 21
			coarse_id: 22
			coarse_id: 24
			coarse_id: 25
			coarse_id: 26
			coarse_id: 29
			coarse_id: 64
		}
		fine2multicoarse_param{
			coarse_id: 15
			coarse_id: 18
			coarse_id: 19
			coarse_id: 20
			coarse_id: 21
			coarse_id: 22
			coarse_id: 23
			coarse_id: 24
			coarse_id: 25
			coarse_id: 26
			coarse_id: 30
			coarse_id: 31
			coarse_id: 38
		}
		fine2multicoarse_param{
			coarse_id: 18
			coarse_id: 19
			coarse_id: 20
			coarse_id: 21
			coarse_id: 22
			coarse_id: 26
			coarse_id: 28
		}
		fine2multicoarse_param{
			coarse_id: 16
			coarse_id: 18
			coarse_id: 19
			coarse_id: 20
			coarse_id: 21
			coarse_id: 22
			coarse_id: 23
			coarse_id: 24
			coarse_id: 27
			coarse_id: 52
		}
		fine2multicoarse_param{
			coarse_id: 9
			coarse_id: 18
			coarse_id: 19
			coarse_id: 20
			coarse_id: 21
			coarse_id: 22
			coarse_id: 23
			coarse_id: 26
			coarse_id: 29
			coarse_id: 35
			coarse_id: 38
			coarse_id: 84
		}
		fine2multicoarse_param{
			coarse_id: 14
			coarse_id: 16
			coarse_id: 18
			coarse_id: 19
			coarse_id: 20
			coarse_id: 22
			coarse_id: 24
			coarse_id: 30
		}
		fine2multicoarse_param{
			coarse_id: 19
			coarse_id: 20
			coarse_id: 21
			coarse_id: 22
			coarse_id: 24
			coarse_id: 26
		}
		fine2multicoarse_param{
			coarse_id: 9
			coarse_id: 16
			coarse_id: 17
			coarse_id: 18
			coarse_id: 22
			coarse_id: 23
			coarse_id: 24
			coarse_id: 25
			coarse_id: 27
			coarse_id: 29
		}
		fine2multicoarse_param{
			coarse_id: 18
			coarse_id: 19
			coarse_id: 20
			coarse_id: 21
			coarse_id: 22
			coarse_id: 23
			coarse_id: 26
			coarse_id: 28
			coarse_id: 29
		}
		fine2multicoarse_param{
			coarse_id: 15
			coarse_id: 18
			coarse_id: 19
			coarse_id: 20
			coarse_id: 21
			coarse_id: 22
			coarse_id: 23
			coarse_id: 24
			coarse_id: 26
			coarse_id: 35
			coarse_id: 86
		}
		fine2multicoarse_param{
			coarse_id: 9
			coarse_id: 18
			coarse_id: 19
			coarse_id: 20
			coarse_id: 21
			coarse_id: 22
			coarse_id: 23
			coarse_id: 24
			coarse_id: 26
		}
		fine2multicoarse_param{
			coarse_id: 10
			coarse_id: 18
			coarse_id: 19
			coarse_id: 20
			coarse_id: 21
			coarse_id: 22
			coarse_id: 23
			coarse_id: 24
			coarse_id: 26
			coarse_id: 29
			coarse_id: 33
			coarse_id: 82
		}
		fine2multicoarse_param{
			coarse_id: 9
			coarse_id: 18
			coarse_id: 19
			coarse_id: 20
			coarse_id: 21
			coarse_id: 22
			coarse_id: 23
			coarse_id: 24
			coarse_id: 25
			coarse_id: 26
			coarse_id: 29
		}
		fine2multicoarse_param{
			coarse_id: 17
			coarse_id: 18
			coarse_id: 19
			coarse_id: 20
			coarse_id: 21
			coarse_id: 22
			coarse_id: 26
		}
		fine2multicoarse_param{
			coarse_id: 18
			coarse_id: 19
			coarse_id: 20
			coarse_id: 21
			coarse_id: 22
			coarse_id: 24
			coarse_id: 26
			coarse_id: 28
			coarse_id: 31
			coarse_id: 54
		}
		fine2multicoarse_param{
			coarse_id: 9
			coarse_id: 18
			coarse_id: 19
			coarse_id: 20
			coarse_id: 21
			coarse_id: 22
			coarse_id: 26
			coarse_id: 28
			coarse_id: 29
			coarse_id: 38
		}
		fine2multicoarse_param{
			coarse_id: 9
			coarse_id: 19
			coarse_id: 20
			coarse_id: 21
			coarse_id: 22
			coarse_id: 24
			coarse_id: 29
		}
		fine2multicoarse_param{
			coarse_id: 9
			coarse_id: 16
			coarse_id: 18
			coarse_id: 20
			coarse_id: 21
			coarse_id: 22
			coarse_id: 23
			coarse_id: 24
			coarse_id: 25
			coarse_id: 26
			coarse_id: 27
			coarse_id: 29
			coarse_id: 38
			coarse_id: 69
		}
		fine2multicoarse_param{
			coarse_id: 16
			coarse_id: 18
			coarse_id: 20
			coarse_id: 21
			coarse_id: 22
			coarse_id: 23
			coarse_id: 24
			coarse_id: 25
			coarse_id: 26
			coarse_id: 27
			coarse_id: 30
			coarse_id: 35
			coarse_id: 37
			coarse_id: 38
			coarse_id: 70
			coarse_id: 84
		}
		fine2multicoarse_param{
			coarse_id: 16
			coarse_id: 17
			coarse_id: 18
			coarse_id: 19
			coarse_id: 20
			coarse_id: 21
			coarse_id: 22
			coarse_id: 23
			coarse_id: 24
			coarse_id: 25
			coarse_id: 28
			coarse_id: 29
			coarse_id: 30
			coarse_id: 37
		}
		fine2multicoarse_param{
			coarse_id: 9
			coarse_id: 16
			coarse_id: 17
			coarse_id: 18
			coarse_id: 20
			coarse_id: 21
			coarse_id: 22
			coarse_id: 23
			coarse_id: 24
			coarse_id: 25
			coarse_id: 27
			coarse_id: 28
			coarse_id: 29
			coarse_id: 37
			coarse_id: 38
			coarse_id: 70
		}
		fine2multicoarse_param{
			coarse_id: 8
			coarse_id: 9
			coarse_id: 16
			coarse_id: 17
			coarse_id: 18
			coarse_id: 19
			coarse_id: 20
			coarse_id: 21
			coarse_id: 22
			coarse_id: 23
			coarse_id: 24
			coarse_id: 25
			coarse_id: 26
			coarse_id: 28
			coarse_id: 30
			coarse_id: 32
			coarse_id: 35
			coarse_id: 36
			coarse_id: 37
			coarse_id: 38
			coarse_id: 58
		}
		fine2multicoarse_param{
			coarse_id: 16
			coarse_id: 17
			coarse_id: 18
			coarse_id: 20
			coarse_id: 21
			coarse_id: 22
			coarse_id: 23
			coarse_id: 24
			coarse_id: 25
			coarse_id: 26
			coarse_id: 27
			coarse_id: 31
			coarse_id: 35
			coarse_id: 38
			coarse_id: 70
		}
		fine2multicoarse_param{
			coarse_id: 16
			coarse_id: 17
			coarse_id: 18
			coarse_id: 19
			coarse_id: 22
			coarse_id: 24
			coarse_id: 87
		}
		fine2multicoarse_param{
			coarse_id: 9
			coarse_id: 17
			coarse_id: 18
			coarse_id: 19
			coarse_id: 20
			coarse_id: 21
			coarse_id: 22
			coarse_id: 23
			coarse_id: 24
			coarse_id: 25
			coarse_id: 28
			coarse_id: 29
			coarse_id: 31
		}
		fine2multicoarse_param{
			coarse_id: 16
			coarse_id: 18
			coarse_id: 19
			coarse_id: 20
			coarse_id: 22
			coarse_id: 23
			coarse_id: 24
			coarse_id: 25
			coarse_id: 29
			coarse_id: 83
		}
		fine2multicoarse_param{
			coarse_id: 16
			coarse_id: 17
			coarse_id: 18
			coarse_id: 19
			coarse_id: 20
			coarse_id: 22
			coarse_id: 23
			coarse_id: 24
			coarse_id: 25
			coarse_id: 26
			coarse_id: 27
			coarse_id: 29
		}
		fine2multicoarse_param{
			coarse_id: 16
			coarse_id: 17
			coarse_id: 18
			coarse_id: 20
			coarse_id: 21
			coarse_id: 22
			coarse_id: 24
			coarse_id: 25
			coarse_id: 29
		}
		fine2multicoarse_param{
			coarse_id: 9
			coarse_id: 18
			coarse_id: 19
			coarse_id: 20
			coarse_id: 21
			coarse_id: 22
			coarse_id: 24
			coarse_id: 25
			coarse_id: 28
		}
		fine2multicoarse_param{
			coarse_id: 9
			coarse_id: 15
			coarse_id: 17
			coarse_id: 18
			coarse_id: 20
			coarse_id: 21
			coarse_id: 22
			coarse_id: 23
			coarse_id: 24
			coarse_id: 25
			coarse_id: 27
			coarse_id: 29
			coarse_id: 61
		}
		fine2multicoarse_param{
			coarse_id: 9
			coarse_id: 17
			coarse_id: 18
			coarse_id: 20
			coarse_id: 22
			coarse_id: 24
			coarse_id: 25
			coarse_id: 27
			coarse_id: 29
		}
		fine2multicoarse_param{
			coarse_id: 16
			coarse_id: 17
			coarse_id: 18
			coarse_id: 19
			coarse_id: 20
			coarse_id: 21
			coarse_id: 22
			coarse_id: 23
			coarse_id: 24
			coarse_id: 25
			coarse_id: 26
			coarse_id: 28
			coarse_id: 29
			coarse_id: 32
			coarse_id: 54
		}
		fine2multicoarse_param{
			coarse_id: 16
			coarse_id: 18
			coarse_id: 19
			coarse_id: 20
			coarse_id: 21
			coarse_id: 22
			coarse_id: 23
			coarse_id: 24
			coarse_id: 25
			coarse_id: 26
			coarse_id: 29
			coarse_id: 37
		}
		fine2multicoarse_param{
			coarse_id: 10
			coarse_id: 15
			coarse_id: 16
			coarse_id: 20
			coarse_id: 21
			coarse_id: 22
			coarse_id: 23
			coarse_id: 24
			coarse_id: 26
			coarse_id: 35
			coarse_id: 37
		}
		fine2multicoarse_param{
			coarse_id: 9
			coarse_id: 15
			coarse_id: 20
			coarse_id: 21
			coarse_id: 22
			coarse_id: 24
			coarse_id: 25
			coarse_id: 28
			coarse_id: 29
			coarse_id: 30
			coarse_id: 31
		}
		fine2multicoarse_param{
			coarse_id: 16
			coarse_id: 18
			coarse_id: 19
			coarse_id: 22
			coarse_id: 23
			coarse_id: 24
			coarse_id: 26
			coarse_id: 27
			coarse_id: 29
			coarse_id: 35
			coarse_id: 37
			coarse_id: 38
			coarse_id: 55
			coarse_id: 87
		}
		fine2multicoarse_param{
			coarse_id: 9
			coarse_id: 18
			coarse_id: 19
			coarse_id: 20
			coarse_id: 22
			coarse_id: 23
			coarse_id: 24
			coarse_id: 26
			coarse_id: 28
			coarse_id: 29
			coarse_id: 35
			coarse_id: 38
			coarse_id: 55
			coarse_id: 70
		}
		fine2multicoarse_param{
			coarse_id: 9
			coarse_id: 16
			coarse_id: 18
			coarse_id: 19
			coarse_id: 20
			coarse_id: 22
			coarse_id: 23
			coarse_id: 24
			coarse_id: 27
			coarse_id: 29
			coarse_id: 30
			coarse_id: 35
		}
		fine2multicoarse_param{
			coarse_id: 18
			coarse_id: 19
			coarse_id: 20
			coarse_id: 21
			coarse_id: 22
			coarse_id: 23
			coarse_id: 24
			coarse_id: 26
			coarse_id: 29
			coarse_id: 31
			coarse_id: 35
		}
		fine2multicoarse_param{
			coarse_id: 9
			coarse_id: 16
			coarse_id: 17
			coarse_id: 18
			coarse_id: 19
			coarse_id: 21
			coarse_id: 22
			coarse_id: 23
			coarse_id: 24
			coarse_id: 26
			coarse_id: 27
			coarse_id: 28
			coarse_id: 29
			coarse_id: 30
			coarse_id: 77
		}
		fine2multicoarse_param{
			coarse_id: 9
			coarse_id: 20
			coarse_id: 21
			coarse_id: 22
			coarse_id: 26
			coarse_id: 28
			coarse_id: 35
			coarse_id: 70
		}
		fine2multicoarse_param{
			coarse_id: 1
			coarse_id: 18
			coarse_id: 19
			coarse_id: 20
			coarse_id: 21
			coarse_id: 22
			coarse_id: 26
			coarse_id: 28
			coarse_id: 29
		}
		fine2multicoarse_param{
			coarse_id: 9
			coarse_id: 18
			coarse_id: 19
			coarse_id: 22
			coarse_id: 24
			coarse_id: 25
			coarse_id: 27
			coarse_id: 29
			coarse_id: 30
			coarse_id: 31
		}
		fine2multicoarse_param{
			coarse_id: 9
			coarse_id: 18
			coarse_id: 19
			coarse_id: 20
			coarse_id: 22
			coarse_id: 23
			coarse_id: 24
			coarse_id: 25
			coarse_id: 27
			coarse_id: 28
			coarse_id: 29
			coarse_id: 30
		}
		fine2multicoarse_param{
			coarse_id: 8
			coarse_id: 9
			coarse_id: 15
			coarse_id: 17
			coarse_id: 18
			coarse_id: 20
			coarse_id: 21
			coarse_id: 22
			coarse_id: 23
			coarse_id: 24
			coarse_id: 25
			coarse_id: 26
			coarse_id: 27
			coarse_id: 28
			coarse_id: 29
			coarse_id: 39
		}
		fine2multicoarse_param{
			coarse_id: 9
			coarse_id: 16
			coarse_id: 18
			coarse_id: 19
			coarse_id: 20
			coarse_id: 21
			coarse_id: 22
			coarse_id: 23
			coarse_id: 24
			coarse_id: 26
			coarse_id: 29
		}
		fine2multicoarse_param{
			coarse_id: 16
			coarse_id: 18
			coarse_id: 19
			coarse_id: 22
			coarse_id: 23
			coarse_id: 24
			coarse_id: 27
			coarse_id: 29
			coarse_id: 35
		}
		fine2multicoarse_param{
			coarse_id: 9
			coarse_id: 16
			coarse_id: 17
			coarse_id: 18
			coarse_id: 19
			coarse_id: 20
			coarse_id: 22
			coarse_id: 23
			coarse_id: 24
			coarse_id: 27
			coarse_id: 28
			coarse_id: 29
			coarse_id: 30
			coarse_id: 31
			coarse_id: 37
			coarse_id: 38
		}
		fine2multicoarse_param{
			coarse_id: 16
			coarse_id: 17
			coarse_id: 18
			coarse_id: 19
			coarse_id: 23
			coarse_id: 24
			coarse_id: 27
		}
		fine2multicoarse_param{
			coarse_id: 16
			coarse_id: 17
			coarse_id: 18
			coarse_id: 19
			coarse_id: 23
			coarse_id: 27
			coarse_id: 29
			coarse_id: 61
		}
		fine2multicoarse_param{
			coarse_id: 16
			coarse_id: 17
			coarse_id: 18
			coarse_id: 23
			coarse_id: 24
			coarse_id: 25
			coarse_id: 27
			coarse_id: 29
			coarse_id: 38
			coarse_id: 60
			coarse_id: 69
			coarse_id: 86
		}
		fine2multicoarse_param{
			coarse_id: 9
			coarse_id: 16
			coarse_id: 17
			coarse_id: 18
			coarse_id: 22
			coarse_id: 23
			coarse_id: 24
			coarse_id: 25
			coarse_id: 27
			coarse_id: 29
			coarse_id: 68
		}
		fine2multicoarse_param{
			coarse_id: 16
			coarse_id: 17
			coarse_id: 18
			coarse_id: 19
			coarse_id: 22
			coarse_id: 23
			coarse_id: 24
			coarse_id: 27
			coarse_id: 29
		}
		fine2multicoarse_param{
			coarse_id: 16
			coarse_id: 17
			coarse_id: 18
			coarse_id: 24
			coarse_id: 25
			coarse_id: 27
			coarse_id: 29
		}
		fine2multicoarse_param{
			coarse_id: 16
			coarse_id: 17
			coarse_id: 18
			coarse_id: 19
			coarse_id: 22
			coarse_id: 24
			coarse_id: 25
			coarse_id: 27
			coarse_id: 28
			coarse_id: 29
			coarse_id: 30
			coarse_id: 38
		}
		fine2multicoarse_param{
			coarse_id: 16
			coarse_id: 18
			coarse_id: 19
			coarse_id: 20
			coarse_id: 24
			coarse_id: 31
			coarse_id: 35
		}
		fine2multicoarse_param{
			coarse_id: 9
			coarse_id: 13
			coarse_id: 18
			coarse_id: 19
			coarse_id: 21
			coarse_id: 22
			coarse_id: 23
			coarse_id: 24
			coarse_id: 26
			coarse_id: 27
			coarse_id: 28
			coarse_id: 29
			coarse_id: 30
			coarse_id: 35
			coarse_id: 38
			coarse_id: 68
		}
		fine2multicoarse_param{
			coarse_id: 9
			coarse_id: 16
			coarse_id: 17
			coarse_id: 18
			coarse_id: 19
			coarse_id: 21
			coarse_id: 22
			coarse_id: 23
			coarse_id: 24
			coarse_id: 25
			coarse_id: 27
			coarse_id: 28
			coarse_id: 29
			coarse_id: 30
			coarse_id: 31
			coarse_id: 66
		}
		fine2multicoarse_param{
			coarse_id: 1
			coarse_id: 16
			coarse_id: 17
			coarse_id: 18
			coarse_id: 19
			coarse_id: 20
			coarse_id: 22
			coarse_id: 23
			coarse_id: 24
			coarse_id: 25
			coarse_id: 27
			coarse_id: 74
		}
		fine2multicoarse_param{
			coarse_id: 9
			coarse_id: 17
			coarse_id: 18
			coarse_id: 19
			coarse_id: 20
			coarse_id: 21
			coarse_id: 22
			coarse_id: 23
			coarse_id: 24
			coarse_id: 25
			coarse_id: 27
			coarse_id: 29
		}
		fine2multicoarse_param{
			coarse_id: 9
			coarse_id: 17
			coarse_id: 18
			coarse_id: 20
			coarse_id: 21
			coarse_id: 22
			coarse_id: 23
			coarse_id: 24
			coarse_id: 28
			coarse_id: 29
			coarse_id: 30
			coarse_id: 31
			coarse_id: 69
		}
		fine2multicoarse_param{
			coarse_id: 9
			coarse_id: 18
			coarse_id: 19
			coarse_id: 20
			coarse_id: 21
			coarse_id: 22
			coarse_id: 24
			coarse_id: 25
			coarse_id: 26
			coarse_id: 28
			coarse_id: 29
			coarse_id: 30
			coarse_id: 61
		}
		fine2multicoarse_param{
			coarse_id: 9
			coarse_id: 17
			coarse_id: 18
			coarse_id: 19
			coarse_id: 21
			coarse_id: 22
			coarse_id: 24
			coarse_id: 25
			coarse_id: 28
			coarse_id: 29
			coarse_id: 30
			coarse_id: 31
			coarse_id: 32
		}
		fine2multicoarse_param{
			coarse_id: 18
			coarse_id: 20
			coarse_id: 22
			coarse_id: 24
			coarse_id: 25
			coarse_id: 28
			coarse_id: 32
			coarse_id: 35
			coarse_id: 39
			coarse_id: 74
		}
		fine2multicoarse_param{
			coarse_id: 18
			coarse_id: 19
			coarse_id: 20
			coarse_id: 21
			coarse_id: 22
			coarse_id: 23
			coarse_id: 26
			coarse_id: 37
			coarse_id: 56
		}
		fine2multicoarse_param{
			coarse_id: 16
			coarse_id: 17
			coarse_id: 18
			coarse_id: 22
			coarse_id: 24
			coarse_id: 27
			coarse_id: 29
			coarse_id: 30
			coarse_id: 34
			coarse_id: 42
			coarse_id: 77
		}
		fine2multicoarse_param{
			coarse_id: 18
			coarse_id: 19
			coarse_id: 20
			coarse_id: 22
			coarse_id: 23
			coarse_id: 24
			coarse_id: 27
			coarse_id: 29
			coarse_id: 58
			coarse_id: 70
		}
		fine2multicoarse_param{
			coarse_id: 18
			coarse_id: 19
			coarse_id: 20
			coarse_id: 22
			coarse_id: 23
			coarse_id: 24
			coarse_id: 29
			coarse_id: 35
		}
		fine2multicoarse_param{
			coarse_id: 9
			coarse_id: 18
			coarse_id: 19
			coarse_id: 20
			coarse_id: 21
			coarse_id: 22
			coarse_id: 23
			coarse_id: 24
			coarse_id: 25
			coarse_id: 26
			coarse_id: 27
			coarse_id: 29
			coarse_id: 35
			coarse_id: 37
			coarse_id: 38
		}
		fine2multicoarse_param{
			coarse_id: 8
			coarse_id: 9
			coarse_id: 15
			coarse_id: 18
			coarse_id: 20
			coarse_id: 21
			coarse_id: 22
			coarse_id: 24
			coarse_id: 25
			coarse_id: 28
			coarse_id: 29
			coarse_id: 31
			coarse_id: 68
		}
		fine2multicoarse_param{
			coarse_id: 9
			coarse_id: 21
			coarse_id: 22
			coarse_id: 24
			coarse_id: 25
			coarse_id: 28
			coarse_id: 29
			coarse_id: 56
			coarse_id: 65
		}
		fine2multicoarse_param{
			coarse_id: 9
			coarse_id: 18
			coarse_id: 19
			coarse_id: 20
			coarse_id: 21
			coarse_id: 22
			coarse_id: 23
			coarse_id: 24
			coarse_id: 28
			coarse_id: 29
			coarse_id: 30
			coarse_id: 38
			coarse_id: 53
			coarse_id: 83
		}
		fine2multicoarse_param{
			coarse_id: 18
			coarse_id: 19
			coarse_id: 21
			coarse_id: 22
			coarse_id: 23
			coarse_id: 24
			coarse_id: 28
			coarse_id: 29
			coarse_id: 30
			coarse_id: 37
			coarse_id: 38
			coarse_id: 59
			coarse_id: 70
		}
		fine2multicoarse_param{
			coarse_id: 9
			coarse_id: 18
			coarse_id: 19
			coarse_id: 22
			coarse_id: 23
			coarse_id: 28
			coarse_id: 29
			coarse_id: 30
			coarse_id: 38
		}
		fine2multicoarse_param{
			coarse_id: 16
			coarse_id: 18
			coarse_id: 19
			coarse_id: 22
			coarse_id: 23
			coarse_id: 24
			coarse_id: 26
			coarse_id: 27
			coarse_id: 38
		}
		fine2multicoarse_param{
			coarse_id: 9
			coarse_id: 16
			coarse_id: 17
			coarse_id: 18
			coarse_id: 19
			coarse_id: 22
			coarse_id: 24
			coarse_id: 25
			coarse_id: 27
			coarse_id: 28
			coarse_id: 29
			coarse_id: 30
			coarse_id: 38
		}
		fine2multicoarse_param{
			coarse_id: 9
			coarse_id: 14
			coarse_id: 16
			coarse_id: 17
			coarse_id: 18
			coarse_id: 19
			coarse_id: 20
			coarse_id: 22
			coarse_id: 23
			coarse_id: 24
			coarse_id: 25
			coarse_id: 27
			coarse_id: 28
			coarse_id: 29
			coarse_id: 30
			coarse_id: 32
		}
		fine2multicoarse_param{
			coarse_id: 18
			coarse_id: 19
			coarse_id: 20
			coarse_id: 21
			coarse_id: 22
			coarse_id: 23
			coarse_id: 26
			coarse_id: 28
			coarse_id: 29
			coarse_id: 38
			coarse_id: 59
			coarse_id: 86
		}
		fine2multicoarse_param{
			coarse_id: 19
			coarse_id: 20
			coarse_id: 21
			coarse_id: 22
			coarse_id: 23
			coarse_id: 24
			coarse_id: 26
			coarse_id: 29
		}
		fine2multicoarse_param{
			coarse_id: 9
			coarse_id: 14
			coarse_id: 15
			coarse_id: 17
			coarse_id: 18
			coarse_id: 19
			coarse_id: 20
			coarse_id: 21
			coarse_id: 22
			coarse_id: 23
			coarse_id: 24
			coarse_id: 26
			coarse_id: 28
			coarse_id: 29
			coarse_id: 30
			coarse_id: 36
			coarse_id: 38
		}
		fine2multicoarse_param{
			coarse_id: 0
			coarse_id: 16
			coarse_id: 17
			coarse_id: 18
			coarse_id: 19
			coarse_id: 20
			coarse_id: 22
			coarse_id: 23
			coarse_id: 24
			coarse_id: 27
			coarse_id: 35
			coarse_id: 36
			coarse_id: 37
			coarse_id: 49
			coarse_id: 73
			coarse_id: 82
		}
		fine2multicoarse_param{
			coarse_id: 9
			coarse_id: 18
			coarse_id: 19
			coarse_id: 20
			coarse_id: 28
			coarse_id: 30
			coarse_id: 31
			coarse_id: 32
			coarse_id: 34
			coarse_id: 35
			coarse_id: 36
			coarse_id: 38
		}
		fine2multicoarse_param{
			coarse_id: 9
			coarse_id: 15
			coarse_id: 21
			coarse_id: 22
			coarse_id: 24
			coarse_id: 25
			coarse_id: 28
			coarse_id: 30
			coarse_id: 31
			coarse_id: 38
		}
		fine2multicoarse_param{
			coarse_id: 9
			coarse_id: 18
			coarse_id: 19
			coarse_id: 30
			coarse_id: 31
			coarse_id: 38
		}
		fine2multicoarse_param{
			coarse_id: 9
			coarse_id: 19
			coarse_id: 28
			coarse_id: 30
			coarse_id: 31
			coarse_id: 32
			coarse_id: 36
			coarse_id: 38
		}
		fine2multicoarse_param{
			coarse_id: 4
			coarse_id: 9
			coarse_id: 16
			coarse_id: 17
			coarse_id: 18
			coarse_id: 19
			coarse_id: 20
			coarse_id: 24
			coarse_id: 28
			coarse_id: 29
			coarse_id: 30
			coarse_id: 31
			coarse_id: 32
			coarse_id: 36
			coarse_id: 37
			coarse_id: 38
			coarse_id: 87
		}
		fine2multicoarse_param{
			coarse_id: 9
			coarse_id: 16
			coarse_id: 18
			coarse_id: 19
			coarse_id: 29
			coarse_id: 30
			coarse_id: 31
			coarse_id: 32
			coarse_id: 35
			coarse_id: 36
			coarse_id: 38
			coarse_id: 88
		}
		fine2multicoarse_param{
			coarse_id: 12
			coarse_id: 18
			coarse_id: 19
			coarse_id: 24
			coarse_id: 30
			coarse_id: 31
			coarse_id: 35
			coarse_id: 36
			coarse_id: 37
			coarse_id: 88
		}
		fine2multicoarse_param{
			coarse_id: 9
			coarse_id: 19
			coarse_id: 21
			coarse_id: 30
			coarse_id: 31
			coarse_id: 32
			coarse_id: 35
			coarse_id: 36
			coarse_id: 37
			coarse_id: 38
		}
		fine2multicoarse_param{
			coarse_id: 9
			coarse_id: 29
			coarse_id: 30
			coarse_id: 31
			coarse_id: 32
			coarse_id: 36
			coarse_id: 38
			coarse_id: 39
		}
		fine2multicoarse_param{
			coarse_id: 9
			coarse_id: 18
			coarse_id: 24
			coarse_id: 28
			coarse_id: 30
			coarse_id: 31
			coarse_id: 36
			coarse_id: 37
			coarse_id: 38
		}
		fine2multicoarse_param{
			coarse_id: 9
			coarse_id: 15
			coarse_id: 20
			coarse_id: 21
			coarse_id: 22
			coarse_id: 24
			coarse_id: 28
			coarse_id: 29
			coarse_id: 30
			coarse_id: 35
			coarse_id: 37
		}
		fine2multicoarse_param{
			coarse_id: 4
			coarse_id: 9
			coarse_id: 18
			coarse_id: 19
			coarse_id: 24
			coarse_id: 28
			coarse_id: 29
			coarse_id: 30
			coarse_id: 31
			coarse_id: 32
			coarse_id: 34
			coarse_id: 35
			coarse_id: 36
			coarse_id: 37
			coarse_id: 38
		}
		fine2multicoarse_param{
			coarse_id: 9
			coarse_id: 18
			coarse_id: 19
			coarse_id: 30
			coarse_id: 31
			coarse_id: 32
			coarse_id: 59
			coarse_id: 62
		}
		fine2multicoarse_param{
			coarse_id: 9
			coarse_id: 18
			coarse_id: 19
			coarse_id: 24
			coarse_id: 30
			coarse_id: 31
			coarse_id: 32
		}
		fine2multicoarse_param{
			coarse_id: 9
			coarse_id: 18
			coarse_id: 19
			coarse_id: 20
			coarse_id: 22
			coarse_id: 23
			coarse_id: 24
			coarse_id: 28
			coarse_id: 29
			coarse_id: 30
			coarse_id: 31
			coarse_id: 32
			coarse_id: 37
			coarse_id: 38
			coarse_id: 59
			coarse_id: 65
			coarse_id: 70
		}
		fine2multicoarse_param{
			coarse_id: 9
			coarse_id: 16
			coarse_id: 18
			coarse_id: 19
			coarse_id: 20
			coarse_id: 21
			coarse_id: 22
			coarse_id: 24
			coarse_id: 27
			coarse_id: 28
			coarse_id: 29
			coarse_id: 31
			coarse_id: 32
			coarse_id: 37
			coarse_id: 38
			coarse_id: 45
			coarse_id: 65
			coarse_id: 82
		}
		fine2multicoarse_param{
			coarse_id: 9
			coarse_id: 18
			coarse_id: 19
			coarse_id: 24
			coarse_id: 29
			coarse_id: 30
			coarse_id: 31
			coarse_id: 32
			coarse_id: 37
			coarse_id: 38
		}
		fine2multicoarse_param{
			coarse_id: 9
			coarse_id: 18
			coarse_id: 19
			coarse_id: 24
			coarse_id: 30
			coarse_id: 31
			coarse_id: 32
			coarse_id: 34
			coarse_id: 35
			coarse_id: 37
			coarse_id: 38
			coarse_id: 86
		}
		fine2multicoarse_param{
			coarse_id: 4
			coarse_id: 9
			coarse_id: 18
			coarse_id: 20
			coarse_id: 24
			coarse_id: 28
			coarse_id: 30
			coarse_id: 31
			coarse_id: 32
			coarse_id: 37
			coarse_id: 38
		}
		fine2multicoarse_param{
			coarse_id: 12
			coarse_id: 14
			coarse_id: 31
			coarse_id: 32
		}
		fine2multicoarse_param{
			coarse_id: 31
			coarse_id: 32
		}
		fine2multicoarse_param{
			coarse_id: 30
			coarse_id: 32
			coarse_id: 35
		}
		fine2multicoarse_param{
			coarse_id: 9
			coarse_id: 18
			coarse_id: 24
			coarse_id: 29
			coarse_id: 30
			coarse_id: 31
			coarse_id: 32
			coarse_id: 34
			coarse_id: 36
			coarse_id: 38
			coarse_id: 83
		}
		fine2multicoarse_param{
			coarse_id: 22
			coarse_id: 30
			coarse_id: 31
			coarse_id: 32
			coarse_id: 35
		}
		fine2multicoarse_param{
			coarse_id: 9
			coarse_id: 12
			coarse_id: 14
			coarse_id: 30
			coarse_id: 31
			coarse_id: 32
			coarse_id: 36
			coarse_id: 37
			coarse_id: 38
			coarse_id: 70
		}
		fine2multicoarse_param{
			coarse_id: 9
			coarse_id: 15
			coarse_id: 19
			coarse_id: 20
			coarse_id: 24
			coarse_id: 28
			coarse_id: 30
			coarse_id: 31
			coarse_id: 35
			coarse_id: 37
			coarse_id: 38
			coarse_id: 39
		}
		fine2multicoarse_param{
			coarse_id: 6
			coarse_id: 22
			coarse_id: 23
			coarse_id: 24
			coarse_id: 26
			coarse_id: 35
			coarse_id: 37
			coarse_id: 38
			coarse_id: 74
		}
		fine2multicoarse_param{
			coarse_id: 0
			coarse_id: 9
			coarse_id: 14
			coarse_id: 15
			coarse_id: 18
			coarse_id: 21
			coarse_id: 28
			coarse_id: 30
			coarse_id: 37
			coarse_id: 38
			coarse_id: 39
		}
		fine2multicoarse_param{
			coarse_id: 23
			coarse_id: 35
			coarse_id: 37
			coarse_id: 38
			coarse_id: 39
			coarse_id: 74
			coarse_id: 86
		}
		fine2multicoarse_param{
			coarse_id: 3
			coarse_id: 4
			coarse_id: 5
			coarse_id: 6
			coarse_id: 7
			coarse_id: 9
			coarse_id: 12
			coarse_id: 18
			coarse_id: 30
			coarse_id: 31
			coarse_id: 33
			coarse_id: 34
			coarse_id: 35
			coarse_id: 36
			coarse_id: 37
			coarse_id: 38
			coarse_id: 45
		}
		fine2multicoarse_param{
			coarse_id: 9
			coarse_id: 30
			coarse_id: 31
			coarse_id: 34
			coarse_id: 37
			coarse_id: 38
			coarse_id: 64
		}
		fine2multicoarse_param{
			coarse_id: 5
			coarse_id: 6
			coarse_id: 11
			coarse_id: 33
			coarse_id: 34
			coarse_id: 66
		}
		fine2multicoarse_param{
			coarse_id: 5
			coarse_id: 11
			coarse_id: 13
			coarse_id: 33
			coarse_id: 34
			coarse_id: 85
			coarse_id: 88
		}
		fine2multicoarse_param{
			coarse_id: 3
			coarse_id: 11
			coarse_id: 33
			coarse_id: 34
			coarse_id: 44
			coarse_id: 83
			coarse_id: 88
		}
		fine2multicoarse_param{
			coarse_id: 4
			coarse_id: 5
			coarse_id: 6
			coarse_id: 11
			coarse_id: 33
			coarse_id: 34
		}
		fine2multicoarse_param{
			coarse_id: 5
			coarse_id: 11
			coarse_id: 33
			coarse_id: 34
			coarse_id: 66
			coarse_id: 88
		}
		fine2multicoarse_param{
			coarse_id: 3
			coarse_id: 5
			coarse_id: 6
			coarse_id: 7
			coarse_id: 10
			coarse_id: 11
			coarse_id: 33
			coarse_id: 34
			coarse_id: 82
			coarse_id: 86
			coarse_id: 88
		}
		fine2multicoarse_param{
			coarse_id: 1
			coarse_id: 11
			coarse_id: 33
			coarse_id: 38
		}
		fine2multicoarse_param{
			coarse_id: 5
			coarse_id: 6
			coarse_id: 7
			coarse_id: 11
			coarse_id: 33
			coarse_id: 34
		}
		fine2multicoarse_param{
			coarse_id: 1
			coarse_id: 5
			coarse_id: 6
			coarse_id: 11
			coarse_id: 33
			coarse_id: 34
		}
		fine2multicoarse_param{
			coarse_id: 1
			coarse_id: 5
			coarse_id: 10
			coarse_id: 33
			coarse_id: 34
			coarse_id: 39
			coarse_id: 84
		}
		fine2multicoarse_param{
			coarse_id: 5
			coarse_id: 6
			coarse_id: 7
			coarse_id: 8
			coarse_id: 10
			coarse_id: 11
			coarse_id: 15
			coarse_id: 33
			coarse_id: 34
			coarse_id: 37
			coarse_id: 66
			coarse_id: 79
			coarse_id: 82
			coarse_id: 88
		}
		fine2multicoarse_param{
			coarse_id: 1
			coarse_id: 4
			coarse_id: 5
			coarse_id: 6
			coarse_id: 7
			coarse_id: 11
			coarse_id: 12
			coarse_id: 33
			coarse_id: 34
			coarse_id: 66
			coarse_id: 88
		}
		fine2multicoarse_param{
			coarse_id: 5
			coarse_id: 6
			coarse_id: 7
			coarse_id: 11
			coarse_id: 33
			coarse_id: 34
			coarse_id: 66
			coarse_id: 88
		}
		fine2multicoarse_param{
			coarse_id: 5
			coarse_id: 6
			coarse_id: 7
			coarse_id: 11
			coarse_id: 33
			coarse_id: 34
			coarse_id: 66
			coarse_id: 69
			coarse_id: 80
			coarse_id: 84
			coarse_id: 85
		}
		fine2multicoarse_param{
			coarse_id: 7
			coarse_id: 11
			coarse_id: 33
			coarse_id: 34
			coarse_id: 45
			coarse_id: 77
			coarse_id: 88
		}
		fine2multicoarse_param{
			coarse_id: 1
			coarse_id: 4
			coarse_id: 5
			coarse_id: 6
			coarse_id: 7
			coarse_id: 33
			coarse_id: 34
			coarse_id: 85
			coarse_id: 88
		}
		fine2multicoarse_param{
			coarse_id: 3
			coarse_id: 5
			coarse_id: 6
			coarse_id: 11
			coarse_id: 33
			coarse_id: 34
		}
		fine2multicoarse_param{
			coarse_id: 5
			coarse_id: 6
			coarse_id: 11
			coarse_id: 33
			coarse_id: 84
		}
		fine2multicoarse_param{
			coarse_id: 5
			coarse_id: 10
			coarse_id: 33
			coarse_id: 34
			coarse_id: 66
			coarse_id: 88
		}
		fine2multicoarse_param{
			coarse_id: 5
			coarse_id: 6
			coarse_id: 7
			coarse_id: 11
			coarse_id: 12
			coarse_id: 33
			coarse_id: 34
			coarse_id: 66
			coarse_id: 74
			coarse_id: 77
			coarse_id: 85
		}
		fine2multicoarse_param{
			coarse_id: 5
			coarse_id: 33
			coarse_id: 66
			coarse_id: 74
		}
		fine2multicoarse_param{
			coarse_id: 27
			coarse_id: 33
			coarse_id: 34
		}
		fine2multicoarse_param{
			coarse_id: 3
			coarse_id: 5
			coarse_id: 12
			coarse_id: 33
			coarse_id: 34
			coarse_id: 39
			coarse_id: 88
		}
		fine2multicoarse_param{
			coarse_id: 33
			coarse_id: 34
		}
		fine2multicoarse_param{
			coarse_id: 5
			coarse_id: 33
			coarse_id: 34
			coarse_id: 39
			coarse_id: 84
			coarse_id: 88
		}
		fine2multicoarse_param{
			coarse_id: 5
			coarse_id: 33
			coarse_id: 34
			coarse_id: 85
			coarse_id: 88
		}
		fine2multicoarse_param{
			coarse_id: 33
			coarse_id: 34
			coarse_id: 62
			coarse_id: 85
		}
		fine2multicoarse_param{
			coarse_id: 0
			coarse_id: 3
			coarse_id: 4
			coarse_id: 5
			coarse_id: 6
			coarse_id: 7
			coarse_id: 10
			coarse_id: 11
			coarse_id: 15
			coarse_id: 33
			coarse_id: 70
			coarse_id: 86
			coarse_id: 87
			coarse_id: 88
		}
		fine2multicoarse_param{
			coarse_id: 10
			coarse_id: 11
			coarse_id: 33
			coarse_id: 34
			coarse_id: 39
			coarse_id: 66
			coarse_id: 77
			coarse_id: 83
			coarse_id: 85
			coarse_id: 88
		}
		fine2multicoarse_param{
			coarse_id: 0
			coarse_id: 1
			coarse_id: 3
			coarse_id: 6
			coarse_id: 7
			coarse_id: 10
			coarse_id: 11
			coarse_id: 15
			coarse_id: 33
			coarse_id: 64
			coarse_id: 77
			coarse_id: 83
			coarse_id: 88
		}
		fine2multicoarse_param{
			coarse_id: 4
			coarse_id: 9
			coarse_id: 12
			coarse_id: 18
			coarse_id: 30
			coarse_id: 31
			coarse_id: 34
			coarse_id: 54
		}
		fine2multicoarse_param{
			coarse_id: 6
			coarse_id: 8
			coarse_id: 9
			coarse_id: 12
			coarse_id: 14
			coarse_id: 19
			coarse_id: 22
			coarse_id: 30
			coarse_id: 31
			coarse_id: 36
			coarse_id: 37
			coarse_id: 88
		}
		fine2multicoarse_param{
			coarse_id: 9
			coarse_id: 18
			coarse_id: 19
			coarse_id: 21
			coarse_id: 22
			coarse_id: 26
			coarse_id: 28
			coarse_id: 29
			coarse_id: 32
			coarse_id: 37
			coarse_id: 59
			coarse_id: 65
			coarse_id: 82
		}
		fine2multicoarse_param{
			coarse_id: 9
			coarse_id: 17
			coarse_id: 18
			coarse_id: 22
			coarse_id: 24
			coarse_id: 29
			coarse_id: 37
			coarse_id: 38
			coarse_id: 45
			coarse_id: 53
			coarse_id: 59
			coarse_id: 65
			coarse_id: 68
			coarse_id: 84
			coarse_id: 85
		}
		fine2multicoarse_param{
			coarse_id: 9
			coarse_id: 10
			coarse_id: 19
			coarse_id: 26
			coarse_id: 32
			coarse_id: 34
			coarse_id: 35
			coarse_id: 37
			coarse_id: 38
			coarse_id: 39
			coarse_id: 66
		}
		fine2multicoarse_param{
			coarse_id: 1
			coarse_id: 6
			coarse_id: 9
			coarse_id: 12
			coarse_id: 30
			coarse_id: 31
			coarse_id: 32
			coarse_id: 34
			coarse_id: 35
			coarse_id: 36
			coarse_id: 37
			coarse_id: 38
		}
		fine2multicoarse_param{
			coarse_id: 1
			coarse_id: 2
			coarse_id: 9
			coarse_id: 12
			coarse_id: 14
			coarse_id: 15
			coarse_id: 29
			coarse_id: 30
			coarse_id: 31
			coarse_id: 34
			coarse_id: 37
			coarse_id: 38
			coarse_id: 86
		}
		fine2multicoarse_param{
			coarse_id: 4
			coarse_id: 6
			coarse_id: 9
			coarse_id: 12
			coarse_id: 14
			coarse_id: 15
			coarse_id: 19
			coarse_id: 24
			coarse_id: 30
			coarse_id: 31
			coarse_id: 32
			coarse_id: 33
			coarse_id: 34
			coarse_id: 35
			coarse_id: 37
			coarse_id: 38
			coarse_id: 64
			coarse_id: 88
		}
		fine2multicoarse_param{
			coarse_id: 9
			coarse_id: 15
			coarse_id: 18
			coarse_id: 19
			coarse_id: 21
			coarse_id: 22
			coarse_id: 23
			coarse_id: 24
			coarse_id: 29
			coarse_id: 37
			coarse_id: 38
			coarse_id: 45
			coarse_id: 61
			coarse_id: 70
		}
		fine2multicoarse_param{
			coarse_id: 16
			coarse_id: 18
			coarse_id: 30
			coarse_id: 34
			coarse_id: 35
		}
		fine2multicoarse_param{
			coarse_id: 31
			coarse_id: 32
			coarse_id: 36
			coarse_id: 70
		}
		fine2multicoarse_param{
			coarse_id: 0
			coarse_id: 8
			coarse_id: 9
			coarse_id: 16
			coarse_id: 18
			coarse_id: 20
			coarse_id: 21
			coarse_id: 23
			coarse_id: 24
			coarse_id: 26
			coarse_id: 29
			coarse_id: 30
			coarse_id: 31
			coarse_id: 35
			coarse_id: 36
			coarse_id: 37
			coarse_id: 38
		}
		fine2multicoarse_param{
			coarse_id: 4
			coarse_id: 9
			coarse_id: 15
			coarse_id: 16
			coarse_id: 19
			coarse_id: 23
			coarse_id: 24
			coarse_id: 29
			coarse_id: 30
			coarse_id: 31
			coarse_id: 32
			coarse_id: 35
			coarse_id: 36
			coarse_id: 37
			coarse_id: 38
		}
		fine2multicoarse_param{
			coarse_id: 9
			coarse_id: 18
			coarse_id: 24
			coarse_id: 30
			coarse_id: 31
			coarse_id: 35
			coarse_id: 36
			coarse_id: 37
			coarse_id: 38
		}
		fine2multicoarse_param{
			coarse_id: 0
			coarse_id: 3
			coarse_id: 10
			coarse_id: 14
			coarse_id: 15
			coarse_id: 24
			coarse_id: 31
			coarse_id: 33
			coarse_id: 35
			coarse_id: 37
			coarse_id: 38
			coarse_id: 39
		}
		fine2multicoarse_param{
			coarse_id: 9
			coarse_id: 16
			coarse_id: 18
			coarse_id: 20
			coarse_id: 23
			coarse_id: 24
			coarse_id: 29
			coarse_id: 31
			coarse_id: 34
			coarse_id: 35
			coarse_id: 36
			coarse_id: 38
			coarse_id: 69
		}
		fine2multicoarse_param{
			coarse_id: 6
			coarse_id: 8
			coarse_id: 16
			coarse_id: 18
			coarse_id: 24
			coarse_id: 30
			coarse_id: 31
			coarse_id: 35
			coarse_id: 36
			coarse_id: 37
			coarse_id: 38
			coarse_id: 39
			coarse_id: 40
			coarse_id: 69
			coarse_id: 87
			coarse_id: 88
		}
		fine2multicoarse_param{
			coarse_id: 23
			coarse_id: 24
			coarse_id: 31
			coarse_id: 35
			coarse_id: 36
			coarse_id: 37
			coarse_id: 39
			coarse_id: 47
			coarse_id: 86
		}
		fine2multicoarse_param{
			coarse_id: 2
			coarse_id: 9
			coarse_id: 16
			coarse_id: 17
			coarse_id: 18
			coarse_id: 20
			coarse_id: 21
			coarse_id: 22
			coarse_id: 24
			coarse_id: 28
			coarse_id: 30
			coarse_id: 31
			coarse_id: 34
			coarse_id: 35
			coarse_id: 36
			coarse_id: 38
		}
		fine2multicoarse_param{
			coarse_id: 8
			coarse_id: 9
			coarse_id: 14
			coarse_id: 15
			coarse_id: 24
			coarse_id: 30
			coarse_id: 31
			coarse_id: 35
			coarse_id: 36
			coarse_id: 38
			coarse_id: 86
		}
		fine2multicoarse_param{
			coarse_id: 6
			coarse_id: 9
			coarse_id: 16
			coarse_id: 18
			coarse_id: 30
			coarse_id: 31
			coarse_id: 35
			coarse_id: 36
			coarse_id: 37
			coarse_id: 38
			coarse_id: 64
			coarse_id: 69
			coarse_id: 86
		}
		fine2multicoarse_param{
			coarse_id: 9
			coarse_id: 29
			coarse_id: 30
			coarse_id: 31
			coarse_id: 32
			coarse_id: 33
			coarse_id: 35
			coarse_id: 36
		}
		fine2multicoarse_param{
			coarse_id: 12
			coarse_id: 18
			coarse_id: 30
			coarse_id: 31
			coarse_id: 35
			coarse_id: 36
		}
		fine2multicoarse_param{
			coarse_id: 9
			coarse_id: 14
			coarse_id: 17
			coarse_id: 18
			coarse_id: 24
			coarse_id: 30
			coarse_id: 31
			coarse_id: 35
			coarse_id: 36
			coarse_id: 38
			coarse_id: 69
		}
		fine2multicoarse_param{
			coarse_id: 9
			coarse_id: 15
			coarse_id: 16
			coarse_id: 18
			coarse_id: 19
			coarse_id: 20
			coarse_id: 24
			coarse_id: 28
			coarse_id: 30
			coarse_id: 31
			coarse_id: 35
			coarse_id: 36
			coarse_id: 37
			coarse_id: 38
			coarse_id: 39
			coarse_id: 69
			coarse_id: 86
			coarse_id: 87
		}
		fine2multicoarse_param{
			coarse_id: 9
			coarse_id: 12
			coarse_id: 18
			coarse_id: 19
			coarse_id: 20
			coarse_id: 21
			coarse_id: 22
			coarse_id: 23
			coarse_id: 24
			coarse_id: 25
			coarse_id: 26
			coarse_id: 27
			coarse_id: 28
			coarse_id: 30
			coarse_id: 31
			coarse_id: 35
			coarse_id: 36
			coarse_id: 37
		}
		fine2multicoarse_param{
			coarse_id: 1
			coarse_id: 6
			coarse_id: 9
			coarse_id: 15
			coarse_id: 18
			coarse_id: 24
			coarse_id: 28
			coarse_id: 30
			coarse_id: 31
			coarse_id: 32
			coarse_id: 35
			coarse_id: 37
			coarse_id: 38
			coarse_id: 45
			coarse_id: 79
			coarse_id: 82
		}
		fine2multicoarse_param{
			coarse_id: 6
			coarse_id: 9
			coarse_id: 12
			coarse_id: 13
			coarse_id: 21
			coarse_id: 23
			coarse_id: 24
			coarse_id: 30
			coarse_id: 31
			coarse_id: 32
			coarse_id: 35
			coarse_id: 37
			coarse_id: 38
			coarse_id: 40
			coarse_id: 64
		}
		fine2multicoarse_param{
			coarse_id: 9
			coarse_id: 18
			coarse_id: 19
			coarse_id: 22
			coarse_id: 24
			coarse_id: 30
			coarse_id: 34
			coarse_id: 37
			coarse_id: 38
			coarse_id: 45
		}
		fine2multicoarse_param{
			coarse_id: 9
			coarse_id: 18
			coarse_id: 19
			coarse_id: 22
			coarse_id: 24
			coarse_id: 25
			coarse_id: 30
			coarse_id: 31
			coarse_id: 37
			coarse_id: 38
			coarse_id: 45
		}
		fine2multicoarse_param{
			coarse_id: 4
			coarse_id: 6
			coarse_id: 7
			coarse_id: 8
			coarse_id: 9
			coarse_id: 13
			coarse_id: 14
			coarse_id: 15
			coarse_id: 24
			coarse_id: 30
			coarse_id: 31
			coarse_id: 35
			coarse_id: 37
			coarse_id: 38
		}
		fine2multicoarse_param{
			coarse_id: 8
			coarse_id: 9
			coarse_id: 18
			coarse_id: 22
			coarse_id: 23
			coarse_id: 29
			coarse_id: 35
			coarse_id: 37
			coarse_id: 38
			coarse_id: 43
			coarse_id: 79
		}
		fine2multicoarse_param{
			coarse_id: 0
			coarse_id: 9
			coarse_id: 11
			coarse_id: 19
			coarse_id: 22
			coarse_id: 28
			coarse_id: 29
			coarse_id: 30
			coarse_id: 31
			coarse_id: 34
			coarse_id: 37
			coarse_id: 38
			coarse_id: 79
		}
		fine2multicoarse_param{
			coarse_id: 3
			coarse_id: 4
			coarse_id: 6
			coarse_id: 7
			coarse_id: 9
			coarse_id: 11
			coarse_id: 12
			coarse_id: 35
			coarse_id: 38
			coarse_id: 45
			coarse_id: 60
			coarse_id: 70
			coarse_id: 84
			coarse_id: 88
		}
		fine2multicoarse_param{
			coarse_id: 4
			coarse_id: 6
			coarse_id: 7
			coarse_id: 9
			coarse_id: 12
			coarse_id: 18
			coarse_id: 19
			coarse_id: 20
			coarse_id: 22
			coarse_id: 31
			coarse_id: 37
			coarse_id: 38
			coarse_id: 64
		}
		fine2multicoarse_param{
			coarse_id: 18
			coarse_id: 19
			coarse_id: 22
			coarse_id: 23
			coarse_id: 30
			coarse_id: 38
			coarse_id: 39
			coarse_id: 64
		}
		fine2multicoarse_param{
			coarse_id: 18
			coarse_id: 23
			coarse_id: 24
			coarse_id: 35
			coarse_id: 38
		}
		fine2multicoarse_param{
			coarse_id: 23
			coarse_id: 26
			coarse_id: 30
			coarse_id: 35
			coarse_id: 37
			coarse_id: 38
			coarse_id: 64
		}
		fine2multicoarse_param{
			coarse_id: 23
			coarse_id: 28
			coarse_id: 29
			coarse_id: 37
			coarse_id: 38
		}
		fine2multicoarse_param{
			coarse_id: 2
			coarse_id: 9
			coarse_id: 18
			coarse_id: 23
			coarse_id: 29
			coarse_id: 35
			coarse_id: 38
			coarse_id: 52
			coarse_id: 64
		}
		fine2multicoarse_param{
			coarse_id: 10
			coarse_id: 12
			coarse_id: 15
			coarse_id: 23
			coarse_id: 30
			coarse_id: 34
			coarse_id: 38
		}
		fine2multicoarse_param{
			coarse_id: 9
			coarse_id: 12
			coarse_id: 18
			coarse_id: 22
			coarse_id: 23
			coarse_id: 30
			coarse_id: 31
			coarse_id: 35
			coarse_id: 36
			coarse_id: 37
			coarse_id: 38
			coarse_id: 64
		}
		fine2multicoarse_param{
			coarse_id: 9
			coarse_id: 12
			coarse_id: 23
			coarse_id: 30
			coarse_id: 31
			coarse_id: 32
			coarse_id: 34
			coarse_id: 35
			coarse_id: 36
			coarse_id: 37
			coarse_id: 38
			coarse_id: 64
		}
		fine2multicoarse_param{
			coarse_id: 1
			coarse_id: 9
			coarse_id: 12
			coarse_id: 23
			coarse_id: 24
			coarse_id: 30
			coarse_id: 31
			coarse_id: 37
			coarse_id: 38
			coarse_id: 52
			coarse_id: 82
		}
		fine2multicoarse_param{
			coarse_id: 12
			coarse_id: 38
			coarse_id: 64
		}
		fine2multicoarse_param{
			coarse_id: 1
			coarse_id: 2
			coarse_id: 18
			coarse_id: 23
			coarse_id: 24
			coarse_id: 38
			coarse_id: 64
			coarse_id: 79
		}
		fine2multicoarse_param{
			coarse_id: 1
			coarse_id: 12
			coarse_id: 38
		}
		fine2multicoarse_param{
			coarse_id: 1
			coarse_id: 2
			coarse_id: 4
			coarse_id: 9
			coarse_id: 12
			coarse_id: 18
			coarse_id: 19
			coarse_id: 22
			coarse_id: 30
			coarse_id: 37
			coarse_id: 38
			coarse_id: 39
			coarse_id: 64
		}
		fine2multicoarse_param{
			coarse_id: 2
			coarse_id: 9
			coarse_id: 13
			coarse_id: 30
			coarse_id: 31
			coarse_id: 35
			coarse_id: 37
			coarse_id: 38
			coarse_id: 82
			coarse_id: 85
		}
		fine2multicoarse_param{
			coarse_id: 1
			coarse_id: 9
			coarse_id: 13
			coarse_id: 23
			coarse_id: 30
			coarse_id: 34
			coarse_id: 35
			coarse_id: 38
			coarse_id: 39
			coarse_id: 64
		}
		fine2multicoarse_param{
			coarse_id: 9
			coarse_id: 12
			coarse_id: 18
			coarse_id: 23
			coarse_id: 38
			coarse_id: 39
			coarse_id: 64
		}
		fine2multicoarse_param{
			coarse_id: 1
			coarse_id: 8
			coarse_id: 9
			coarse_id: 12
			coarse_id: 18
			coarse_id: 22
			coarse_id: 23
			coarse_id: 30
			coarse_id: 37
			coarse_id: 38
			coarse_id: 55
			coarse_id: 64
		}
		fine2multicoarse_param{
			coarse_id: 9
			coarse_id: 17
			coarse_id: 30
			coarse_id: 37
			coarse_id: 38
			coarse_id: 85
		}
		fine2multicoarse_param{
			coarse_id: 9
			coarse_id: 18
			coarse_id: 21
			coarse_id: 23
			coarse_id: 28
			coarse_id: 30
			coarse_id: 34
			coarse_id: 36
			coarse_id: 38
			coarse_id: 64
		}
		fine2multicoarse_param{
			coarse_id: 9
			coarse_id: 12
			coarse_id: 18
			coarse_id: 23
			coarse_id: 30
			coarse_id: 31
			coarse_id: 38
			coarse_id: 64
		}
		fine2multicoarse_param{
			coarse_id: 16
			coarse_id: 19
			coarse_id: 20
			coarse_id: 23
			coarse_id: 30
			coarse_id: 31
			coarse_id: 35
			coarse_id: 36
			coarse_id: 38
			coarse_id: 39
		}
		fine2multicoarse_param{
			coarse_id: 16
			coarse_id: 31
			coarse_id: 35
			coarse_id: 36
			coarse_id: 39
		}
		fine2multicoarse_param{
			coarse_id: 30
			coarse_id: 31
			coarse_id: 36
			coarse_id: 37
			coarse_id: 38
			coarse_id: 39
			coarse_id: 66
		}
		fine2multicoarse_param{
			coarse_id: 38
			coarse_id: 39
		}
		fine2multicoarse_param{
			coarse_id: 0
			coarse_id: 5
			coarse_id: 6
			coarse_id: 10
			coarse_id: 25
			coarse_id: 28
			coarse_id: 33
			coarse_id: 50
			coarse_id: 64
			coarse_id: 71
		}
		fine2multicoarse_param{
			coarse_id: 0
			coarse_id: 3
			coarse_id: 4
			coarse_id: 5
			coarse_id: 6
			coarse_id: 7
			coarse_id: 10
			coarse_id: 11
			coarse_id: 15
			coarse_id: 18
			coarse_id: 37
			coarse_id: 44
			coarse_id: 64
			coarse_id: 83
			coarse_id: 88
		}
		fine2multicoarse_param{
			coarse_id: 0
			coarse_id: 6
			coarse_id: 10
			coarse_id: 11
			coarse_id: 15
			coarse_id: 18
			coarse_id: 28
			coarse_id: 50
			coarse_id: 61
			coarse_id: 64
		}
		fine2multicoarse_param{
			coarse_id: 10
			coarse_id: 33
			coarse_id: 39
			coarse_id: 64
		}
		fine2multicoarse_param{
			coarse_id: 10
			coarse_id: 33
			coarse_id: 39
		}
		fine2multicoarse_param{
			coarse_id: 0
			coarse_id: 1
			coarse_id: 6
			coarse_id: 7
			coarse_id: 10
			coarse_id: 15
			coarse_id: 39
			coarse_id: 50
			coarse_id: 61
			coarse_id: 87
		}
		fine2multicoarse_param{
			coarse_id: 0
			coarse_id: 6
			coarse_id: 7
			coarse_id: 10
			coarse_id: 15
			coarse_id: 38
			coarse_id: 50
			coarse_id: 64
			coarse_id: 70
			coarse_id: 87
		}
		fine2multicoarse_param{
			coarse_id: 10
			coarse_id: 11
			coarse_id: 15
			coarse_id: 33
		}
		fine2multicoarse_param{
			coarse_id: 0
			coarse_id: 3
			coarse_id: 6
			coarse_id: 10
			coarse_id: 11
			coarse_id: 15
			coarse_id: 37
			coarse_id: 64
			coarse_id: 82
			coarse_id: 83
			coarse_id: 88
		}
		fine2multicoarse_param{
			coarse_id: 41
			coarse_id: 43
			coarse_id: 46
			coarse_id: 50
			coarse_id: 52
			coarse_id: 53
			coarse_id: 56
			coarse_id: 59
			coarse_id: 65
			coarse_id: 66
			coarse_id: 74
			coarse_id: 78
			coarse_id: 80
			coarse_id: 81
			coarse_id: 83
			coarse_id: 85
		}
		fine2multicoarse_param{
			coarse_id: 40
			coarse_id: 49
			coarse_id: 61
			coarse_id: 70
			coarse_id: 75
			coarse_id: 82
		}
		fine2multicoarse_param{
			coarse_id: 40
			coarse_id: 49
			coarse_id: 50
			coarse_id: 61
			coarse_id: 64
			coarse_id: 70
			coarse_id: 82
		}
		fine2multicoarse_param{
			coarse_id: 40
			coarse_id: 45
			coarse_id: 46
			coarse_id: 50
			coarse_id: 52
			coarse_id: 56
			coarse_id: 59
			coarse_id: 60
			coarse_id: 63
			coarse_id: 65
			coarse_id: 66
			coarse_id: 78
			coarse_id: 81
		}
		fine2multicoarse_param{
			coarse_id: 40
			coarse_id: 44
			coarse_id: 46
			coarse_id: 50
			coarse_id: 65
		}
		fine2multicoarse_param{
			coarse_id: 15
			coarse_id: 52
			coarse_id: 55
			coarse_id: 57
			coarse_id: 71
			coarse_id: 87
		}
		fine2multicoarse_param{
			coarse_id: 8
			coarse_id: 55
			coarse_id: 57
			coarse_id: 63
			coarse_id: 71
			coarse_id: 73
		}
		fine2multicoarse_param{
			coarse_id: 8
			coarse_id: 55
			coarse_id: 57
			coarse_id: 62
			coarse_id: 71
		}
		fine2multicoarse_param{
			coarse_id: 41
			coarse_id: 45
			coarse_id: 48
			coarse_id: 56
			coarse_id: 61
			coarse_id: 64
			coarse_id: 66
			coarse_id: 78
			coarse_id: 80
		}
		fine2multicoarse_param{
			coarse_id: 48
			coarse_id: 52
			coarse_id: 57
			coarse_id: 63
			coarse_id: 66
			coarse_id: 67
			coarse_id: 68
		}
		fine2multicoarse_param{
			coarse_id: 55
			coarse_id: 57
			coarse_id: 58
			coarse_id: 63
			coarse_id: 68
			coarse_id: 69
			coarse_id: 71
			coarse_id: 76
			coarse_id: 87
		}
		fine2multicoarse_param{
			coarse_id: 41
			coarse_id: 43
			coarse_id: 44
			coarse_id: 47
			coarse_id: 48
			coarse_id: 53
			coarse_id: 54
			coarse_id: 64
			coarse_id: 65
			coarse_id: 67
			coarse_id: 72
			coarse_id: 78
			coarse_id: 80
		}
		fine2multicoarse_param{
			coarse_id: 33
			coarse_id: 41
			coarse_id: 43
			coarse_id: 45
			coarse_id: 52
			coarse_id: 54
			coarse_id: 57
			coarse_id: 58
			coarse_id: 64
			coarse_id: 66
			coarse_id: 68
			coarse_id: 78
			coarse_id: 79
			coarse_id: 80
			coarse_id: 83
		}
		fine2multicoarse_param{
			coarse_id: 42
			coarse_id: 43
			coarse_id: 45
			coarse_id: 49
			coarse_id: 54
			coarse_id: 61
			coarse_id: 62
			coarse_id: 70
			coarse_id: 74
			coarse_id: 75
			coarse_id: 77
			coarse_id: 79
			coarse_id: 82
		}
		fine2multicoarse_param{
			coarse_id: 40
			coarse_id: 41
			coarse_id: 43
			coarse_id: 44
			coarse_id: 45
			coarse_id: 49
			coarse_id: 52
			coarse_id: 53
			coarse_id: 54
			coarse_id: 57
			coarse_id: 59
			coarse_id: 62
			coarse_id: 63
			coarse_id: 64
			coarse_id: 67
			coarse_id: 72
			coarse_id: 77
			coarse_id: 78
			coarse_id: 79
			coarse_id: 80
			coarse_id: 81
			coarse_id: 82
			coarse_id: 84
			coarse_id: 86
		}
		fine2multicoarse_param{
			coarse_id: 46
			coarse_id: 50
			coarse_id: 57
			coarse_id: 58
			coarse_id: 69
			coarse_id: 71
			coarse_id: 74
			coarse_id: 78
			coarse_id: 82
		}
		fine2multicoarse_param{
			coarse_id: 24
			coarse_id: 44
			coarse_id: 46
			coarse_id: 49
			coarse_id: 53
			coarse_id: 56
			coarse_id: 59
			coarse_id: 60
			coarse_id: 61
			coarse_id: 68
			coarse_id: 70
			coarse_id: 72
			coarse_id: 74
			coarse_id: 75
			coarse_id: 79
			coarse_id: 81
			coarse_id: 82
			coarse_id: 87
		}
		fine2multicoarse_param{
			coarse_id: 40
			coarse_id: 43
			coarse_id: 62
			coarse_id: 67
			coarse_id: 77
			coarse_id: 78
			coarse_id: 79
			coarse_id: 83
			coarse_id: 84
			coarse_id: 85
			coarse_id: 88
		}
		fine2multicoarse_param{
			coarse_id: 8
			coarse_id: 38
			coarse_id: 40
			coarse_id: 42
			coarse_id: 49
			coarse_id: 50
			coarse_id: 58
			coarse_id: 60
			coarse_id: 62
			coarse_id: 73
			coarse_id: 78
		}
		fine2multicoarse_param{
			coarse_id: 15
			coarse_id: 41
			coarse_id: 42
			coarse_id: 50
			coarse_id: 62
			coarse_id: 71
			coarse_id: 73
			coarse_id: 87
		}
		fine2multicoarse_param{
			coarse_id: 40
			coarse_id: 43
			coarse_id: 44
			coarse_id: 46
			coarse_id: 50
			coarse_id: 53
			coarse_id: 66
			coarse_id: 71
			coarse_id: 72
			coarse_id: 74
			coarse_id: 81
		}
		fine2multicoarse_param{
			coarse_id: 0
			coarse_id: 40
			coarse_id: 42
			coarse_id: 43
			coarse_id: 44
			coarse_id: 46
			coarse_id: 49
			coarse_id: 50
			coarse_id: 53
			coarse_id: 59
			coarse_id: 60
			coarse_id: 61
			coarse_id: 65
			coarse_id: 66
			coarse_id: 70
			coarse_id: 74
			coarse_id: 75
			coarse_id: 78
			coarse_id: 79
			coarse_id: 80
			coarse_id: 81
			coarse_id: 82
			coarse_id: 83
		}
		fine2multicoarse_param{
			coarse_id: 18
			coarse_id: 40
			coarse_id: 45
			coarse_id: 49
			coarse_id: 50
			coarse_id: 59
			coarse_id: 61
			coarse_id: 65
			coarse_id: 74
			coarse_id: 81
			coarse_id: 82
		}
		fine2multicoarse_param{
			coarse_id: 40
			coarse_id: 41
			coarse_id: 43
			coarse_id: 44
			coarse_id: 46
			coarse_id: 48
			coarse_id: 50
			coarse_id: 52
			coarse_id: 53
			coarse_id: 54
			coarse_id: 56
			coarse_id: 57
			coarse_id: 59
			coarse_id: 60
			coarse_id: 64
			coarse_id: 65
			coarse_id: 66
			coarse_id: 67
			coarse_id: 69
			coarse_id: 72
			coarse_id: 74
			coarse_id: 76
			coarse_id: 78
			coarse_id: 80
			coarse_id: 85
			coarse_id: 87
		}
		fine2multicoarse_param{
			coarse_id: 40
			coarse_id: 41
			coarse_id: 42
			coarse_id: 46
			coarse_id: 49
			coarse_id: 50
			coarse_id: 61
			coarse_id: 65
			coarse_id: 66
			coarse_id: 68
			coarse_id: 70
			coarse_id: 74
			coarse_id: 75
		}
		fine2multicoarse_param{
			coarse_id: 40
			coarse_id: 41
			coarse_id: 49
			coarse_id: 53
			coarse_id: 54
			coarse_id: 56
			coarse_id: 57
			coarse_id: 59
			coarse_id: 61
			coarse_id: 67
			coarse_id: 72
			coarse_id: 75
			coarse_id: 78
			coarse_id: 80
			coarse_id: 82
		}
		fine2multicoarse_param{
			coarse_id: 40
			coarse_id: 41
			coarse_id: 43
			coarse_id: 50
			coarse_id: 53
			coarse_id: 54
			coarse_id: 61
			coarse_id: 62
			coarse_id: 63
			coarse_id: 67
			coarse_id: 72
			coarse_id: 75
			coarse_id: 78
			coarse_id: 80
			coarse_id: 81
			coarse_id: 82
			coarse_id: 83
		}
		fine2multicoarse_param{
			coarse_id: 39
			coarse_id: 41
			coarse_id: 47
			coarse_id: 48
			coarse_id: 52
			coarse_id: 74
			coarse_id: 86
		}
		fine2multicoarse_param{
			coarse_id: 40
			coarse_id: 44
			coarse_id: 51
			coarse_id: 53
			coarse_id: 65
			coarse_id: 70
			coarse_id: 72
			coarse_id: 77
			coarse_id: 81
		}
		fine2multicoarse_param{
			coarse_id: 33
			coarse_id: 41
			coarse_id: 44
			coarse_id: 45
			coarse_id: 47
			coarse_id: 49
			coarse_id: 54
			coarse_id: 57
			coarse_id: 58
			coarse_id: 59
			coarse_id: 63
			coarse_id: 66
			coarse_id: 67
			coarse_id: 69
			coarse_id: 72
			coarse_id: 77
			coarse_id: 79
			coarse_id: 80
			coarse_id: 81
			coarse_id: 84
		}
		fine2multicoarse_param{
			coarse_id: 4
			coarse_id: 5
			coarse_id: 6
			coarse_id: 7
			coarse_id: 16
			coarse_id: 18
			coarse_id: 27
			coarse_id: 30
			coarse_id: 31
			coarse_id: 40
			coarse_id: 41
			coarse_id: 45
			coarse_id: 50
			coarse_id: 52
			coarse_id: 54
			coarse_id: 55
			coarse_id: 57
			coarse_id: 58
			coarse_id: 60
			coarse_id: 64
			coarse_id: 66
			coarse_id: 67
			coarse_id: 69
			coarse_id: 71
			coarse_id: 78
			coarse_id: 79
			coarse_id: 84
			coarse_id: 86
		}
		fine2multicoarse_param{
			coarse_id: 22
			coarse_id: 44
			coarse_id: 45
			coarse_id: 65
			coarse_id: 73
		}
		fine2multicoarse_param{
			coarse_id: 24
			coarse_id: 26
			coarse_id: 42
			coarse_id: 44
			coarse_id: 50
			coarse_id: 54
			coarse_id: 73
		}
		fine2multicoarse_param{
			coarse_id: 44
			coarse_id: 49
			coarse_id: 56
			coarse_id: 59
			coarse_id: 61
			coarse_id: 70
			coarse_id: 75
			coarse_id: 79
		}
		fine2multicoarse_param{
			coarse_id: 40
			coarse_id: 41
			coarse_id: 46
			coarse_id: 50
			coarse_id: 59
			coarse_id: 65
			coarse_id: 66
			coarse_id: 74
			coarse_id: 82
		}
		fine2multicoarse_param{
			coarse_id: 15
			coarse_id: 42
			coarse_id: 44
			coarse_id: 49
			coarse_id: 50
			coarse_id: 52
			coarse_id: 61
			coarse_id: 64
			coarse_id: 70
			coarse_id: 75
			coarse_id: 87
		}
		fine2multicoarse_param{
			coarse_id: 16
			coarse_id: 18
			coarse_id: 22
			coarse_id: 24
			coarse_id: 28
			coarse_id: 32
			coarse_id: 43
			coarse_id: 45
			coarse_id: 49
			coarse_id: 50
			coarse_id: 56
			coarse_id: 59
			coarse_id: 61
			coarse_id: 65
			coarse_id: 66
			coarse_id: 70
			coarse_id: 74
			coarse_id: 75
			coarse_id: 79
			coarse_id: 82
		}
		fine2multicoarse_param{
			coarse_id: 41
			coarse_id: 44
			coarse_id: 45
			coarse_id: 49
			coarse_id: 53
			coarse_id: 54
			coarse_id: 56
			coarse_id: 61
			coarse_id: 67
			coarse_id: 72
			coarse_id: 75
			coarse_id: 77
			coarse_id: 79
			coarse_id: 80
			coarse_id: 84
		}
		fine2multicoarse_param{
			coarse_id: 57
			coarse_id: 63
			coarse_id: 67
			coarse_id: 68
		}
		fine2multicoarse_param{
			coarse_id: 47
			coarse_id: 48
			coarse_id: 52
			coarse_id: 55
			coarse_id: 64
			coarse_id: 71
			coarse_id: 86
			coarse_id: 87
		}
		fine2multicoarse_param{
			coarse_id: 32
			coarse_id: 44
			coarse_id: 45
			coarse_id: 46
			coarse_id: 54
			coarse_id: 65
			coarse_id: 67
			coarse_id: 72
			coarse_id: 77
			coarse_id: 79
			coarse_id: 81
			coarse_id: 82
			coarse_id: 84
		}
		fine2multicoarse_param{
			coarse_id: 38
			coarse_id: 39
			coarse_id: 40
			coarse_id: 49
			coarse_id: 50
			coarse_id: 51
			coarse_id: 61
			coarse_id: 69
			coarse_id: 70
			coarse_id: 75
			coarse_id: 82
		}
		fine2multicoarse_param{
			coarse_id: 40
			coarse_id: 44
			coarse_id: 48
			coarse_id: 49
			coarse_id: 50
			coarse_id: 65
			coarse_id: 67
			coarse_id: 74
			coarse_id: 81
		}
		fine2multicoarse_param{
			coarse_id: 10
			coarse_id: 40
			coarse_id: 45
			coarse_id: 49
			coarse_id: 61
			coarse_id: 62
			coarse_id: 72
			coarse_id: 77
			coarse_id: 79
			coarse_id: 81
			coarse_id: 83
		}
		fine2multicoarse_param{
			coarse_id: 41
			coarse_id: 47
			coarse_id: 48
			coarse_id: 52
			coarse_id: 55
			coarse_id: 64
			coarse_id: 81
		}
		fine2multicoarse_param{
			coarse_id: 42
			coarse_id: 43
			coarse_id: 44
			coarse_id: 49
			coarse_id: 56
			coarse_id: 59
			coarse_id: 61
			coarse_id: 65
			coarse_id: 66
			coarse_id: 70
			coarse_id: 74
			coarse_id: 75
			coarse_id: 78
			coarse_id: 79
			coarse_id: 83
		}
		fine2multicoarse_param{
			coarse_id: 57
			coarse_id: 58
			coarse_id: 60
			coarse_id: 64
			coarse_id: 65
			coarse_id: 67
			coarse_id: 69
			coarse_id: 86
			coarse_id: 87
		}
		fine2multicoarse_param{
			coarse_id: 40
			coarse_id: 42
			coarse_id: 49
			coarse_id: 50
			coarse_id: 61
			coarse_id: 62
			coarse_id: 75
			coarse_id: 81
			coarse_id: 82
			coarse_id: 87
		}
		fine2multicoarse_param{
			coarse_id: 41
			coarse_id: 43
			coarse_id: 44
			coarse_id: 46
			coarse_id: 53
			coarse_id: 54
			coarse_id: 56
			coarse_id: 59
			coarse_id: 63
			coarse_id: 64
			coarse_id: 65
			coarse_id: 66
			coarse_id: 67
			coarse_id: 70
			coarse_id: 72
			coarse_id: 74
			coarse_id: 78
			coarse_id: 79
			coarse_id: 80
			coarse_id: 81
		}
		fine2multicoarse_param{
			coarse_id: 18
			coarse_id: 40
			coarse_id: 41
			coarse_id: 42
			coarse_id: 44
			coarse_id: 46
			coarse_id: 49
			coarse_id: 50
			coarse_id: 57
			coarse_id: 60
			coarse_id: 61
			coarse_id: 65
			coarse_id: 67
			coarse_id: 71
			coarse_id: 72
			coarse_id: 74
			coarse_id: 75
			coarse_id: 79
			coarse_id: 81
			coarse_id: 82
		}
		fine2multicoarse_param{
			coarse_id: 8
			coarse_id: 9
			coarse_id: 38
			coarse_id: 39
			coarse_id: 41
			coarse_id: 44
			coarse_id: 48
			coarse_id: 52
			coarse_id: 61
			coarse_id: 70
			coarse_id: 71
			coarse_id: 74
		}
		fine2multicoarse_param{
			coarse_id: 41
			coarse_id: 47
			coarse_id: 48
			coarse_id: 52
			coarse_id: 55
			coarse_id: 57
			coarse_id: 64
			coarse_id: 71
			coarse_id: 78
			coarse_id: 86
			coarse_id: 87
		}
		fine2multicoarse_param{
			coarse_id: 39
			coarse_id: 40
			coarse_id: 41
			coarse_id: 45
			coarse_id: 46
			coarse_id: 49
			coarse_id: 52
			coarse_id: 57
			coarse_id: 65
			coarse_id: 68
			coarse_id: 71
			coarse_id: 73
			coarse_id: 75
			coarse_id: 76
			coarse_id: 87
		}
		fine2multicoarse_param{
			coarse_id: 40
			coarse_id: 41
			coarse_id: 44
			coarse_id: 46
			coarse_id: 49
			coarse_id: 61
			coarse_id: 66
			coarse_id: 70
			coarse_id: 74
			coarse_id: 79
			coarse_id: 82
		}
		fine2multicoarse_param{
			coarse_id: 10
			coarse_id: 13
			coarse_id: 45
			coarse_id: 49
			coarse_id: 50
			coarse_id: 56
			coarse_id: 59
			coarse_id: 61
			coarse_id: 70
			coarse_id: 74
			coarse_id: 75
			coarse_id: 77
			coarse_id: 82
			coarse_id: 83
			coarse_id: 88
		}
		fine2multicoarse_param{
			coarse_id: 43
			coarse_id: 52
			coarse_id: 53
			coarse_id: 54
			coarse_id: 56
			coarse_id: 67
			coarse_id: 78
			coarse_id: 80
		}
		fine2multicoarse_param{
			coarse_id: 43
			coarse_id: 48
			coarse_id: 54
			coarse_id: 63
			coarse_id: 67
			coarse_id: 72
			coarse_id: 78
			coarse_id: 80
			coarse_id: 83
		}
		fine2multicoarse_param{
			coarse_id: 11
			coarse_id: 33
			coarse_id: 43
			coarse_id: 44
			coarse_id: 62
			coarse_id: 64
			coarse_id: 66
			coarse_id: 72
			coarse_id: 73
			coarse_id: 77
			coarse_id: 78
			coarse_id: 79
			coarse_id: 81
			coarse_id: 83
		}
		fine2multicoarse_param{
			coarse_id: 5
			coarse_id: 9
			coarse_id: 33
			coarse_id: 35
			coarse_id: 40
			coarse_id: 41
			coarse_id: 44
			coarse_id: 45
			coarse_id: 46
			coarse_id: 48
			coarse_id: 50
			coarse_id: 51
			coarse_id: 52
			coarse_id: 59
			coarse_id: 60
			coarse_id: 61
			coarse_id: 62
			coarse_id: 66
			coarse_id: 69
			coarse_id: 73
			coarse_id: 74
			coarse_id: 76
			coarse_id: 80
			coarse_id: 81
			coarse_id: 82
			coarse_id: 87
		}
		fine2multicoarse_param{
			coarse_id: 18
			coarse_id: 24
			coarse_id: 40
			coarse_id: 46
			coarse_id: 49
			coarse_id: 50
			coarse_id: 54
			coarse_id: 61
			coarse_id: 65
			coarse_id: 66
			coarse_id: 70
			coarse_id: 74
			coarse_id: 75
			coarse_id: 78
			coarse_id: 79
			coarse_id: 80
			coarse_id: 82
		}
		fine2multicoarse_param{
			coarse_id: 43
			coarse_id: 54
			coarse_id: 64
			coarse_id: 66
			coarse_id: 67
			coarse_id: 72
			coarse_id: 80
		}
		fine2multicoarse_param{
			coarse_id: 42
			coarse_id: 49
			coarse_id: 50
			coarse_id: 61
			coarse_id: 70
			coarse_id: 74
			coarse_id: 75
			coarse_id: 82
		}
		fine2multicoarse_param{
			coarse_id: 10
			coarse_id: 13
			coarse_id: 15
			coarse_id: 41
			coarse_id: 48
			coarse_id: 52
			coarse_id: 55
			coarse_id: 57
			coarse_id: 66
			coarse_id: 71
			coarse_id: 86
			coarse_id: 87
		}
		fine2multicoarse_param{
			coarse_id: 35
			coarse_id: 44
			coarse_id: 45
			coarse_id: 46
			coarse_id: 49
			coarse_id: 50
			coarse_id: 51
			coarse_id: 54
			coarse_id: 59
			coarse_id: 61
			coarse_id: 75
			coarse_id: 77
			coarse_id: 79
			coarse_id: 81
			coarse_id: 82
			coarse_id: 83
		}
		fine2multicoarse_param{
			coarse_id: 5
			coarse_id: 41
			coarse_id: 43
			coarse_id: 45
			coarse_id: 46
			coarse_id: 48
			coarse_id: 50
			coarse_id: 52
			coarse_id: 61
			coarse_id: 64
			coarse_id: 66
			coarse_id: 70
			coarse_id: 74
			coarse_id: 80
			coarse_id: 86
		}
		fine2multicoarse_param{
			coarse_id: 9
			coarse_id: 11
			coarse_id: 12
			coarse_id: 18
			coarse_id: 32
			coarse_id: 43
			coarse_id: 44
			coarse_id: 45
			coarse_id: 49
			coarse_id: 50
			coarse_id: 59
			coarse_id: 61
			coarse_id: 63
			coarse_id: 64
			coarse_id: 65
			coarse_id: 67
			coarse_id: 70
			coarse_id: 73
			coarse_id: 75
			coarse_id: 77
			coarse_id: 79
			coarse_id: 81
			coarse_id: 83
			coarse_id: 84
			coarse_id: 85
		}
		fine2multicoarse_param{
			coarse_id: 10
			coarse_id: 33
			coarse_id: 40
			coarse_id: 41
			coarse_id: 43
			coarse_id: 44
			coarse_id: 46
			coarse_id: 49
			coarse_id: 50
			coarse_id: 53
			coarse_id: 59
			coarse_id: 61
			coarse_id: 64
			coarse_id: 66
			coarse_id: 67
			coarse_id: 68
			coarse_id: 70
			coarse_id: 72
			coarse_id: 74
			coarse_id: 75
			coarse_id: 77
			coarse_id: 79
			coarse_id: 81
			coarse_id: 82
		}
		fine2multicoarse_param{
			coarse_id: 50
			coarse_id: 51
			coarse_id: 61
			coarse_id: 70
			coarse_id: 75
			coarse_id: 82
		}
		fine2multicoarse_param{
			coarse_id: 63
			coarse_id: 65
			coarse_id: 67
			coarse_id: 71
		}
		fine2multicoarse_param{
			coarse_id: 11
			coarse_id: 19
			coarse_id: 40
			coarse_id: 43
			coarse_id: 61
			coarse_id: 78
			coarse_id: 83
		}
		fine2multicoarse_param{
			coarse_id: 52
			coarse_id: 57
			coarse_id: 60
			coarse_id: 63
			coarse_id: 67
			coarse_id: 68
			coarse_id: 78
		}
		fine2multicoarse_param{
			coarse_id: 3
			coarse_id: 40
			coarse_id: 41
			coarse_id: 44
			coarse_id: 45
			coarse_id: 67
			coarse_id: 71
			coarse_id: 77
			coarse_id: 79
			coarse_id: 81
			coarse_id: 83
			coarse_id: 84
		}
		fine2multicoarse_param{
			coarse_id: 40
			coarse_id: 43
			coarse_id: 44
			coarse_id: 45
			coarse_id: 46
			coarse_id: 48
			coarse_id: 49
			coarse_id: 50
			coarse_id: 56
			coarse_id: 57
			coarse_id: 61
			coarse_id: 62
			coarse_id: 65
			coarse_id: 66
			coarse_id: 67
			coarse_id: 72
			coarse_id: 74
			coarse_id: 77
			coarse_id: 78
			coarse_id: 79
			coarse_id: 81
			coarse_id: 83
			coarse_id: 85
		}
		fine2multicoarse_param{
			coarse_id: 33
			coarse_id: 40
			coarse_id: 41
			coarse_id: 46
			coarse_id: 49
			coarse_id: 52
			coarse_id: 55
			coarse_id: 57
			coarse_id: 58
			coarse_id: 60
			coarse_id: 65
			coarse_id: 66
			coarse_id: 67
			coarse_id: 69
			coarse_id: 71
			coarse_id: 74
			coarse_id: 81
			coarse_id: 82
			coarse_id: 86
		}
		fine2multicoarse_param{
			coarse_id: 8
			coarse_id: 40
			coarse_id: 52
			coarse_id: 55
			coarse_id: 57
			coarse_id: 58
			coarse_id: 67
			coarse_id: 76
			coarse_id: 87
		}
		fine2multicoarse_param{
			coarse_id: 40
			coarse_id: 41
			coarse_id: 44
			coarse_id: 46
			coarse_id: 49
			coarse_id: 50
			coarse_id: 54
			coarse_id: 59
			coarse_id: 65
			coarse_id: 66
			coarse_id: 67
			coarse_id: 72
			coarse_id: 74
			coarse_id: 75
			coarse_id: 77
			coarse_id: 79
			coarse_id: 81
			coarse_id: 83
		}
		fine2multicoarse_param{
			coarse_id: 43
			coarse_id: 49
			coarse_id: 51
			coarse_id: 61
			coarse_id: 70
			coarse_id: 74
			coarse_id: 75
			coarse_id: 81
			coarse_id: 82
		}
		fine2multicoarse_param{
			coarse_id: 52
			coarse_id: 55
			coarse_id: 60
			coarse_id: 63
			coarse_id: 64
			coarse_id: 67
			coarse_id: 68
			coarse_id: 70
			coarse_id: 72
			coarse_id: 75
			coarse_id: 77
			coarse_id: 79
		}
		fine2multicoarse_param{
			coarse_id: 11
			coarse_id: 32
			coarse_id: 40
			coarse_id: 48
			coarse_id: 71
			coarse_id: 75
			coarse_id: 78
		}
		fine2multicoarse_param{
			coarse_id: 40
			coarse_id: 43
			coarse_id: 44
			coarse_id: 46
			coarse_id: 50
			coarse_id: 53
			coarse_id: 54
			coarse_id: 66
			coarse_id: 67
			coarse_id: 72
			coarse_id: 74
			coarse_id: 78
			coarse_id: 80
		}
		fine2multicoarse_param{
			coarse_id: 18
			coarse_id: 43
			coarse_id: 46
			coarse_id: 49
			coarse_id: 53
			coarse_id: 54
			coarse_id: 56
			coarse_id: 59
			coarse_id: 61
			coarse_id: 67
			coarse_id: 70
			coarse_id: 72
			coarse_id: 74
			coarse_id: 78
			coarse_id: 79
			coarse_id: 80
			coarse_id: 81
			coarse_id: 82
			coarse_id: 83
		}
		fine2multicoarse_param{
			coarse_id: 41
			coarse_id: 44
			coarse_id: 53
			coarse_id: 57
			coarse_id: 58
			coarse_id: 63
			coarse_id: 64
			coarse_id: 68
			coarse_id: 72
		}
		fine2multicoarse_param{
			coarse_id: 40
			coarse_id: 43
			coarse_id: 53
			coarse_id: 54
			coarse_id: 64
			coarse_id: 65
			coarse_id: 67
			coarse_id: 72
			coarse_id: 75
			coarse_id: 78
			coarse_id: 80
		}
		fine2multicoarse_param{
			coarse_id: 43
			coarse_id: 44
			coarse_id: 46
			coarse_id: 53
			coarse_id: 54
			coarse_id: 65
			coarse_id: 67
			coarse_id: 72
			coarse_id: 74
			coarse_id: 75
			coarse_id: 78
			coarse_id: 80
		}
		fine2multicoarse_param{
			coarse_id: 43
			coarse_id: 44
			coarse_id: 46
			coarse_id: 53
			coarse_id: 54
			coarse_id: 64
			coarse_id: 65
			coarse_id: 67
			coarse_id: 72
			coarse_id: 75
			coarse_id: 78
			coarse_id: 80
		}
		fine2multicoarse_param{
			coarse_id: 47
			coarse_id: 48
			coarse_id: 52
			coarse_id: 64
			coarse_id: 86
			coarse_id: 87
			coarse_id: 88
		}
		fine2multicoarse_param{
			coarse_id: 55
			coarse_id: 71
			coarse_id: 87
		}
		fine2multicoarse_param{
			coarse_id: 43
			coarse_id: 44
			coarse_id: 46
			coarse_id: 53
			coarse_id: 54
			coarse_id: 59
			coarse_id: 65
			coarse_id: 67
			coarse_id: 68
			coarse_id: 72
		}
		fine2multicoarse_param{
			coarse_id: 40
			coarse_id: 46
			coarse_id: 50
			coarse_id: 59
		}
		fine2multicoarse_param{
			coarse_id: 40
			coarse_id: 43
			coarse_id: 44
			coarse_id: 46
			coarse_id: 49
			coarse_id: 50
			coarse_id: 53
			coarse_id: 54
			coarse_id: 59
			coarse_id: 65
			coarse_id: 66
			coarse_id: 67
			coarse_id: 72
			coarse_id: 74
			coarse_id: 75
			coarse_id: 79
			coarse_id: 80
			coarse_id: 81
			coarse_id: 82
			coarse_id: 85
		}
		fine2multicoarse_param{
			coarse_id: 6
			coarse_id: 7
			coarse_id: 10
			coarse_id: 11
			coarse_id: 31
			coarse_id: 33
			coarse_id: 34
			coarse_id: 40
			coarse_id: 41
			coarse_id: 44
			coarse_id: 46
			coarse_id: 49
			coarse_id: 52
			coarse_id: 59
			coarse_id: 66
			coarse_id: 70
			coarse_id: 71
			coarse_id: 74
			coarse_id: 80
			coarse_id: 85
			coarse_id: 86
		}
		fine2multicoarse_param{
			coarse_id: 1
			coarse_id: 2
			coarse_id: 5
			coarse_id: 8
			coarse_id: 12
			coarse_id: 33
			coarse_id: 38
			coarse_id: 41
			coarse_id: 43
			coarse_id: 49
			coarse_id: 52
			coarse_id: 55
			coarse_id: 62
			coarse_id: 64
			coarse_id: 66
			coarse_id: 69
			coarse_id: 70
			coarse_id: 71
			coarse_id: 73
			coarse_id: 74
			coarse_id: 80
		}
		fine2multicoarse_param{
			coarse_id: 0
			coarse_id: 7
			coarse_id: 10
			coarse_id: 33
			coarse_id: 40
			coarse_id: 44
			coarse_id: 49
			coarse_id: 50
			coarse_id: 51
			coarse_id: 60
			coarse_id: 61
			coarse_id: 66
			coarse_id: 70
			coarse_id: 75
			coarse_id: 78
			coarse_id: 81
			coarse_id: 82
		}
		fine2multicoarse_param{
			coarse_id: 13
			coarse_id: 40
			coarse_id: 41
			coarse_id: 46
			coarse_id: 49
			coarse_id: 50
			coarse_id: 52
			coarse_id: 57
			coarse_id: 58
			coarse_id: 59
			coarse_id: 60
			coarse_id: 66
			coarse_id: 67
			coarse_id: 68
			coarse_id: 69
			coarse_id: 70
			coarse_id: 71
			coarse_id: 74
			coarse_id: 76
			coarse_id: 82
			coarse_id: 86
		}
		fine2multicoarse_param{
			coarse_id: 41
			coarse_id: 43
			coarse_id: 45
			coarse_id: 46
			coarse_id: 48
			coarse_id: 53
			coarse_id: 54
			coarse_id: 56
			coarse_id: 59
			coarse_id: 72
			coarse_id: 74
			coarse_id: 79
			coarse_id: 80
			coarse_id: 81
			coarse_id: 83
		}
		fine2multicoarse_param{
			coarse_id: 43
			coarse_id: 54
			coarse_id: 80
		}
		fine2multicoarse_param{
			coarse_id: 40
			coarse_id: 41
			coarse_id: 43
			coarse_id: 44
			coarse_id: 45
			coarse_id: 46
			coarse_id: 48
			coarse_id: 50
			coarse_id: 51
			coarse_id: 55
			coarse_id: 56
			coarse_id: 57
			coarse_id: 60
			coarse_id: 61
			coarse_id: 62
			coarse_id: 64
			coarse_id: 66
			coarse_id: 67
			coarse_id: 70
			coarse_id: 72
			coarse_id: 74
			coarse_id: 77
			coarse_id: 80
			coarse_id: 81
		}
		fine2multicoarse_param{
			coarse_id: 41
			coarse_id: 54
			coarse_id: 56
			coarse_id: 72
			coarse_id: 78
			coarse_id: 80
		}
		fine2multicoarse_param{
			coarse_id: 42
			coarse_id: 56
			coarse_id: 61
			coarse_id: 62
			coarse_id: 70
			coarse_id: 74
			coarse_id: 75
			coarse_id: 78
			coarse_id: 79
		}
		fine2multicoarse_param{
			coarse_id: 47
			coarse_id: 48
			coarse_id: 52
			coarse_id: 64
			coarse_id: 71
			coarse_id: 78
		}
		fine2multicoarse_param{
			coarse_id: 43
			coarse_id: 47
			coarse_id: 48
			coarse_id: 52
			coarse_id: 53
			coarse_id: 57
			coarse_id: 63
			coarse_id: 64
			coarse_id: 66
			coarse_id: 78
			coarse_id: 80
		}
		fine2multicoarse_param{
			coarse_id: 11
			coarse_id: 16
			coarse_id: 43
			coarse_id: 46
			coarse_id: 49
			coarse_id: 50
			coarse_id: 53
			coarse_id: 59
			coarse_id: 61
			coarse_id: 66
			coarse_id: 70
			coarse_id: 71
			coarse_id: 72
			coarse_id: 74
			coarse_id: 75
			coarse_id: 77
			coarse_id: 78
			coarse_id: 79
			coarse_id: 81
			coarse_id: 82
			coarse_id: 83
			coarse_id: 85
		}
		fine2multicoarse_param{
			coarse_id: 80
			coarse_id: 83
			coarse_id: 86
		}
		fine2multicoarse_param{
			coarse_id: 40
			coarse_id: 49
			coarse_id: 61
			coarse_id: 70
			coarse_id: 75
			coarse_id: 82
		}
		fine2multicoarse_param{
			coarse_id: 40
			coarse_id: 41
			coarse_id: 45
			coarse_id: 46
			coarse_id: 49
			coarse_id: 54
			coarse_id: 56
			coarse_id: 61
			coarse_id: 64
			coarse_id: 66
			coarse_id: 70
			coarse_id: 75
			coarse_id: 77
			coarse_id: 78
			coarse_id: 79
			coarse_id: 81
			coarse_id: 82
			coarse_id: 83
		}
		fine2multicoarse_param{
			coarse_id: 11
			coarse_id: 40
			coarse_id: 44
			coarse_id: 45
			coarse_id: 46
			coarse_id: 51
			coarse_id: 65
			coarse_id: 72
			coarse_id: 77
			coarse_id: 79
			coarse_id: 81
			coarse_id: 83
		}
		fine2multicoarse_param{
			coarse_id: 44
			coarse_id: 45
			coarse_id: 49
			coarse_id: 53
			coarse_id: 59
			coarse_id: 72
			coarse_id: 77
			coarse_id: 79
			coarse_id: 81
			coarse_id: 82
		}
		fine2multicoarse_param{
			coarse_id: 45
			coarse_id: 46
			coarse_id: 49
			coarse_id: 51
			coarse_id: 59
			coarse_id: 72
			coarse_id: 77
			coarse_id: 79
			coarse_id: 81
			coarse_id: 83
		}
		fine2multicoarse_param{
			coarse_id: 7
			coarse_id: 10
			coarse_id: 33
			coarse_id: 40
			coarse_id: 41
			coarse_id: 44
			coarse_id: 48
			coarse_id: 49
			coarse_id: 52
			coarse_id: 56
			coarse_id: 64
			coarse_id: 65
			coarse_id: 68
			coarse_id: 70
			coarse_id: 71
			coarse_id: 72
			coarse_id: 74
			coarse_id: 77
			coarse_id: 79
			coarse_id: 81
			coarse_id: 83
			coarse_id: 87
		}
		fine2multicoarse_param{
			coarse_id: 40
			coarse_id: 41
			coarse_id: 44
			coarse_id: 46
			coarse_id: 49
			coarse_id: 54
			coarse_id: 59
			coarse_id: 64
			coarse_id: 65
			coarse_id: 66
			coarse_id: 67
			coarse_id: 70
			coarse_id: 72
			coarse_id: 74
			coarse_id: 75
			coarse_id: 77
			coarse_id: 79
			coarse_id: 81
		}
		fine2multicoarse_param{
			coarse_id: 40
			coarse_id: 43
			coarse_id: 53
			coarse_id: 65
			coarse_id: 66
			coarse_id: 72
			coarse_id: 74
			coarse_id: 81
		}
		fine2multicoarse_param{
			coarse_id: 43
			coarse_id: 54
			coarse_id: 61
			coarse_id: 70
			coarse_id: 77
			coarse_id: 78
			coarse_id: 79
			coarse_id: 81
			coarse_id: 83
			coarse_id: 84
		}
		fine2multicoarse_param{
			coarse_id: 52
			coarse_id: 55
			coarse_id: 57
			coarse_id: 62
			coarse_id: 63
			coarse_id: 71
			coarse_id: 87
		}
		fine2multicoarse_param{
			coarse_id: 57
			coarse_id: 63
			coarse_id: 68
		}
		fine2multicoarse_param{
			coarse_id: 6
			coarse_id: 8
			coarse_id: 40
			coarse_id: 41
			coarse_id: 44
			coarse_id: 46
			coarse_id: 49
			coarse_id: 50
			coarse_id: 53
			coarse_id: 59
			coarse_id: 66
			coarse_id: 72
			coarse_id: 74
			coarse_id: 75
			coarse_id: 76
			coarse_id: 79
			coarse_id: 81
			coarse_id: 82
		}
		fine2multicoarse_param{
			coarse_id: 7
			coarse_id: 38
			coarse_id: 40
			coarse_id: 50
			coarse_id: 59
			coarse_id: 61
			coarse_id: 65
			coarse_id: 73
			coarse_id: 74
			coarse_id: 82
		}
		fine2multicoarse_param{
			coarse_id: 9
			coarse_id: 18
			coarse_id: 31
			coarse_id: 41
			coarse_id: 42
			coarse_id: 45
			coarse_id: 46
			coarse_id: 49
			coarse_id: 50
			coarse_id: 61
			coarse_id: 70
			coarse_id: 75
			coarse_id: 77
			coarse_id: 78
			coarse_id: 79
			coarse_id: 81
			coarse_id: 82
		}
		fine2multicoarse_param{
			coarse_id: 0
			coarse_id: 40
			coarse_id: 42
			coarse_id: 44
			coarse_id: 45
			coarse_id: 46
			coarse_id: 49
			coarse_id: 50
			coarse_id: 61
			coarse_id: 72
			coarse_id: 74
			coarse_id: 75
			coarse_id: 77
			coarse_id: 79
			coarse_id: 81
			coarse_id: 82
			coarse_id: 83
		}
		fine2multicoarse_param{
			coarse_id: 28
			coarse_id: 43
			coarse_id: 45
			coarse_id: 49
			coarse_id: 52
			coarse_id: 53
			coarse_id: 54
			coarse_id: 56
			coarse_id: 59
			coarse_id: 61
			coarse_id: 64
			coarse_id: 70
			coarse_id: 75
			coarse_id: 79
			coarse_id: 82
			coarse_id: 83
		}
		fine2multicoarse_param{
			coarse_id: 40
			coarse_id: 41
			coarse_id: 48
			coarse_id: 50
			coarse_id: 52
			coarse_id: 55
			coarse_id: 57
			coarse_id: 58
			coarse_id: 62
			coarse_id: 63
			coarse_id: 71
			coarse_id: 78
		}
		fine2multicoarse_param{
			coarse_id: 40
			coarse_id: 41
			coarse_id: 44
			coarse_id: 45
			coarse_id: 49
			coarse_id: 51
			coarse_id: 58
			coarse_id: 59
			coarse_id: 60
			coarse_id: 64
			coarse_id: 65
			coarse_id: 68
			coarse_id: 72
			coarse_id: 73
			coarse_id: 75
			coarse_id: 77
			coarse_id: 81
			coarse_id: 82
		}
		fine2multicoarse_param{
			coarse_id: 40
			coarse_id: 41
			coarse_id: 43
			coarse_id: 48
			coarse_id: 52
			coarse_id: 53
			coarse_id: 54
			coarse_id: 56
			coarse_id: 59
			coarse_id: 64
			coarse_id: 66
			coarse_id: 67
			coarse_id: 72
			coarse_id: 78
			coarse_id: 79
			coarse_id: 80
			coarse_id: 83
		}
		fine2multicoarse_param{
			coarse_id: 43
			coarse_id: 45
			coarse_id: 50
			coarse_id: 54
			coarse_id: 56
			coarse_id: 59
			coarse_id: 75
			coarse_id: 78
			coarse_id: 79
			coarse_id: 80
		}
		fine2multicoarse_param{
			coarse_id: 44
			coarse_id: 45
			coarse_id: 54
			coarse_id: 67
			coarse_id: 72
			coarse_id: 77
			coarse_id: 78
			coarse_id: 79
			coarse_id: 81
			coarse_id: 83
		}
		fine2multicoarse_param{
			coarse_id: 9
			coarse_id: 17
			coarse_id: 18
			coarse_id: 24
			coarse_id: 41
			coarse_id: 49
			coarse_id: 50
			coarse_id: 58
			coarse_id: 62
			coarse_id: 65
			coarse_id: 66
			coarse_id: 73
			coarse_id: 76
			coarse_id: 88
		}
		fine2multicoarse_param{
			coarse_id: 16
			coarse_id: 40
			coarse_id: 41
			coarse_id: 46
			coarse_id: 48
			coarse_id: 49
			coarse_id: 50
			coarse_id: 61
			coarse_id: 66
			coarse_id: 67
			coarse_id: 70
			coarse_id: 74
			coarse_id: 75
			coarse_id: 80
			coarse_id: 82
		}
		fine2multicoarse_param{
			coarse_id: 44
			coarse_id: 45
			coarse_id: 46
			coarse_id: 49
			coarse_id: 51
			coarse_id: 54
			coarse_id: 61
			coarse_id: 70
			coarse_id: 79
			coarse_id: 81
			coarse_id: 82
		}
		fine2multicoarse_param{
			coarse_id: 15
			coarse_id: 28
			coarse_id: 39
			coarse_id: 41
			coarse_id: 48
			coarse_id: 52
			coarse_id: 55
			coarse_id: 65
			coarse_id: 71
			coarse_id: 86
			coarse_id: 87
		}
		fine2multicoarse_param{
			coarse_id: 41
			coarse_id: 43
			coarse_id: 46
			coarse_id: 53
			coarse_id: 54
			coarse_id: 56
			coarse_id: 59
			coarse_id: 64
			coarse_id: 65
			coarse_id: 72
			coarse_id: 75
			coarse_id: 78
			coarse_id: 79
			coarse_id: 80
		}
		fine2multicoarse_param{
			coarse_id: 43
			coarse_id: 53
			coarse_id: 54
			coarse_id: 64
			coarse_id: 65
			coarse_id: 67
			coarse_id: 72
		}
		fine2multicoarse_param{
			coarse_id: 41
			coarse_id: 44
			coarse_id: 54
			coarse_id: 59
			coarse_id: 61
			coarse_id: 67
			coarse_id: 72
			coarse_id: 77
			coarse_id: 79
			coarse_id: 80
		}
		fine2multicoarse_param{
			coarse_id: 42
			coarse_id: 49
			coarse_id: 50
			coarse_id: 53
			coarse_id: 56
			coarse_id: 59
			coarse_id: 61
			coarse_id: 65
			coarse_id: 70
			coarse_id: 74
			coarse_id: 75
			coarse_id: 79
			coarse_id: 81
			coarse_id: 82
		}
		fine2multicoarse_param{
			coarse_id: 43
			coarse_id: 44
			coarse_id: 46
			coarse_id: 50
			coarse_id: 53
			coarse_id: 54
			coarse_id: 62
			coarse_id: 65
			coarse_id: 67
			coarse_id: 72
			coarse_id: 75
			coarse_id: 78
			coarse_id: 81
		}
		fine2multicoarse_param{
			coarse_id: 44
			coarse_id: 49
			coarse_id: 53
			coarse_id: 54
			coarse_id: 59
			coarse_id: 65
			coarse_id: 67
			coarse_id: 68
			coarse_id: 72
			coarse_id: 75
			coarse_id: 77
			coarse_id: 81
		}
		fine2multicoarse_param{
			coarse_id: 40
			coarse_id: 41
			coarse_id: 45
			coarse_id: 46
			coarse_id: 48
			coarse_id: 50
			coarse_id: 53
			coarse_id: 54
			coarse_id: 56
			coarse_id: 58
			coarse_id: 69
			coarse_id: 72
			coarse_id: 75
			coarse_id: 77
			coarse_id: 78
			coarse_id: 79
			coarse_id: 80
			coarse_id: 83
			coarse_id: 84
		}
		fine2multicoarse_param{
			coarse_id: 10
			coarse_id: 43
			coarse_id: 61
			coarse_id: 70
			coarse_id: 74
			coarse_id: 83
			coarse_id: 84
		}
		fine2multicoarse_param{
			coarse_id: 18
			coarse_id: 24
			coarse_id: 25
			coarse_id: 43
			coarse_id: 53
			coarse_id: 54
			coarse_id: 56
			coarse_id: 59
			coarse_id: 68
			coarse_id: 72
			coarse_id: 79
			coarse_id: 80
			coarse_id: 81
		}
		fine2multicoarse_param{
			coarse_id: 41
			coarse_id: 44
			coarse_id: 46
			coarse_id: 48
			coarse_id: 59
			coarse_id: 65
			coarse_id: 68
			coarse_id: 71
			coarse_id: 72
			coarse_id: 77
		}
		fine2multicoarse_param{
			coarse_id: 41
			coarse_id: 48
			coarse_id: 52
			coarse_id: 55
			coarse_id: 57
			coarse_id: 59
			coarse_id: 62
			coarse_id: 63
			coarse_id: 71
			coarse_id: 78
			coarse_id: 87
		}
		fine2multicoarse_param{
			coarse_id: 15
			coarse_id: 21
			coarse_id: 28
			coarse_id: 69
			coarse_id: 76
		}
		fine2multicoarse_param{
			coarse_id: 39
			coarse_id: 41
			coarse_id: 47
			coarse_id: 48
			coarse_id: 52
			coarse_id: 64
			coarse_id: 66
			coarse_id: 71
		}
		fine2multicoarse_param{
			coarse_id: 10
			coarse_id: 18
			coarse_id: 28
			coarse_id: 32
			coarse_id: 43
			coarse_id: 44
			coarse_id: 46
			coarse_id: 52
			coarse_id: 53
			coarse_id: 54
			coarse_id: 56
			coarse_id: 65
			coarse_id: 66
			coarse_id: 67
			coarse_id: 70
			coarse_id: 74
			coarse_id: 78
			coarse_id: 79
			coarse_id: 80
			coarse_id: 81
			coarse_id: 83
		}
		fine2multicoarse_param{
			coarse_id: 15
			coarse_id: 48
			coarse_id: 52
			coarse_id: 55
			coarse_id: 57
			coarse_id: 62
			coarse_id: 71
			coarse_id: 87
		}
		fine2multicoarse_param{
			coarse_id: 40
			coarse_id: 41
			coarse_id: 44
			coarse_id: 45
			coarse_id: 46
			coarse_id: 49
			coarse_id: 50
			coarse_id: 59
			coarse_id: 60
			coarse_id: 64
			coarse_id: 71
			coarse_id: 73
			coarse_id: 77
			coarse_id: 78
			coarse_id: 79
			coarse_id: 80
			coarse_id: 81
			coarse_id: 83
			coarse_id: 87
		}
		fine2multicoarse_param{
			coarse_id: 38
			coarse_id: 40
			coarse_id: 41
			coarse_id: 42
			coarse_id: 43
			coarse_id: 44
			coarse_id: 45
			coarse_id: 46
			coarse_id: 49
			coarse_id: 50
			coarse_id: 53
			coarse_id: 59
			coarse_id: 61
			coarse_id: 65
			coarse_id: 66
			coarse_id: 68
			coarse_id: 74
			coarse_id: 75
			coarse_id: 78
			coarse_id: 81
			coarse_id: 82
		}
		fine2multicoarse_param{
			coarse_id: 7
			coarse_id: 27
			coarse_id: 40
			coarse_id: 42
			coarse_id: 44
			coarse_id: 46
			coarse_id: 49
			coarse_id: 50
			coarse_id: 59
			coarse_id: 61
			coarse_id: 65
			coarse_id: 66
			coarse_id: 70
			coarse_id: 74
			coarse_id: 75
			coarse_id: 77
			coarse_id: 79
			coarse_id: 80
			coarse_id: 81
			coarse_id: 82
		}
		fine2multicoarse_param{
			coarse_id: 4
			coarse_id: 45
			coarse_id: 58
			coarse_id: 67
			coarse_id: 72
			coarse_id: 77
			coarse_id: 79
			coarse_id: 83
			coarse_id: 84
		}
		fine2multicoarse_param{
			coarse_id: 41
			coarse_id: 44
			coarse_id: 46
			coarse_id: 49
			coarse_id: 50
			coarse_id: 56
			coarse_id: 65
			coarse_id: 66
			coarse_id: 67
			coarse_id: 72
			coarse_id: 77
			coarse_id: 82
		}
		fine2multicoarse_param{
			coarse_id: 40
			coarse_id: 42
			coarse_id: 46
			coarse_id: 62
			coarse_id: 72
			coarse_id: 74
			coarse_id: 75
			coarse_id: 82
		}
		fine2multicoarse_param{
			coarse_id: 39
			coarse_id: 52
			coarse_id: 63
			coarse_id: 68
		}
		fine2multicoarse_param{
			coarse_id: 41
			coarse_id: 53
			coarse_id: 54
			coarse_id: 67
			coarse_id: 72
			coarse_id: 78
			coarse_id: 80
		}
		fine2multicoarse_param{
			coarse_id: 40
			coarse_id: 43
			coarse_id: 44
			coarse_id: 46
			coarse_id: 53
			coarse_id: 54
			coarse_id: 61
			coarse_id: 62
			coarse_id: 65
			coarse_id: 66
			coarse_id: 67
			coarse_id: 70
			coarse_id: 72
			coarse_id: 74
			coarse_id: 75
			coarse_id: 77
			coarse_id: 81
			coarse_id: 82
		}
		fine2multicoarse_param{
			coarse_id: 44
			coarse_id: 45
			coarse_id: 46
			coarse_id: 51
			coarse_id: 53
			coarse_id: 59
			coarse_id: 67
			coarse_id: 72
			coarse_id: 77
			coarse_id: 79
			coarse_id: 81
		}
		fine2multicoarse_param{
			coarse_id: 44
			coarse_id: 45
			coarse_id: 46
			coarse_id: 50
			coarse_id: 59
			coarse_id: 65
			coarse_id: 67
			coarse_id: 70
			coarse_id: 72
			coarse_id: 73
			coarse_id: 74
			coarse_id: 77
			coarse_id: 79
			coarse_id: 81
			coarse_id: 83
		}
		fine2multicoarse_param{
			coarse_id: 18
			coarse_id: 20
			coarse_id: 22
			coarse_id: 24
			coarse_id: 26
			coarse_id: 40
			coarse_id: 49
			coarse_id: 50
			coarse_id: 61
			coarse_id: 62
			coarse_id: 70
			coarse_id: 78
			coarse_id: 82
			coarse_id: 84
		}
		fine2multicoarse_param{
			coarse_id: 41
			coarse_id: 43
			coarse_id: 53
			coarse_id: 54
			coarse_id: 56
			coarse_id: 67
			coarse_id: 72
			coarse_id: 80
		}
		fine2multicoarse_param{
			coarse_id: 52
			coarse_id: 55
			coarse_id: 57
			coarse_id: 71
			coarse_id: 87
		}
		fine2multicoarse_param{
			coarse_id: 55
			coarse_id: 57
			coarse_id: 58
			coarse_id: 63
			coarse_id: 68
		}
		fine2multicoarse_param{
			coarse_id: 41
			coarse_id: 43
			coarse_id: 44
			coarse_id: 48
			coarse_id: 51
			coarse_id: 53
			coarse_id: 54
			coarse_id: 56
			coarse_id: 67
			coarse_id: 70
			coarse_id: 72
			coarse_id: 77
			coarse_id: 79
			coarse_id: 80
		}
		fine2multicoarse_param{
			coarse_id: 39
			coarse_id: 41
			coarse_id: 48
			coarse_id: 50
			coarse_id: 52
			coarse_id: 55
			coarse_id: 57
			coarse_id: 58
			coarse_id: 61
			coarse_id: 62
			coarse_id: 71
			coarse_id: 76
			coarse_id: 87
		}
		fine2multicoarse_param{
			coarse_id: 31
			coarse_id: 40
			coarse_id: 42
			coarse_id: 43
			coarse_id: 46
			coarse_id: 49
			coarse_id: 50
			coarse_id: 59
			coarse_id: 61
			coarse_id: 62
			coarse_id: 64
			coarse_id: 65
			coarse_id: 66
			coarse_id: 70
			coarse_id: 74
			coarse_id: 75
			coarse_id: 78
			coarse_id: 82
			coarse_id: 83
		}
		fine2multicoarse_param{
			coarse_id: 41
			coarse_id: 42
			coarse_id: 45
			coarse_id: 46
			coarse_id: 50
			coarse_id: 52
			coarse_id: 53
			coarse_id: 54
			coarse_id: 56
			coarse_id: 59
			coarse_id: 60
			coarse_id: 65
			coarse_id: 66
			coarse_id: 67
			coarse_id: 72
			coarse_id: 84
		}
		fine2multicoarse_param{
			coarse_id: 40
			coarse_id: 42
			coarse_id: 49
			coarse_id: 50
			coarse_id: 65
			coarse_id: 73
			coarse_id: 78
		}
		fine2multicoarse_param{
			coarse_id: 43
			coarse_id: 57
			coarse_id: 58
			coarse_id: 63
			coarse_id: 67
			coarse_id: 71
			coarse_id: 78
			coarse_id: 80
		}
		fine2multicoarse_param{
			coarse_id: 6
			coarse_id: 15
			coarse_id: 26
			coarse_id: 35
			coarse_id: 38
			coarse_id: 39
			coarse_id: 40
			coarse_id: 41
			coarse_id: 44
			coarse_id: 45
			coarse_id: 47
			coarse_id: 48
			coarse_id: 50
			coarse_id: 52
			coarse_id: 55
			coarse_id: 57
			coarse_id: 64
			coarse_id: 65
			coarse_id: 71
			coarse_id: 75
			coarse_id: 87
		}
		fine2multicoarse_param{
			coarse_id: 33
			coarse_id: 40
			coarse_id: 43
			coarse_id: 46
			coarse_id: 50
			coarse_id: 59
			coarse_id: 65
			coarse_id: 66
			coarse_id: 67
			coarse_id: 71
			coarse_id: 72
			coarse_id: 74
			coarse_id: 81
			coarse_id: 83
			coarse_id: 85
			coarse_id: 87
		}
		fine2multicoarse_param{
			coarse_id: 41
			coarse_id: 53
			coarse_id: 54
			coarse_id: 56
			coarse_id: 61
			coarse_id: 64
			coarse_id: 80
		}
		fine2multicoarse_param{
			coarse_id: 52
			coarse_id: 55
			coarse_id: 57
			coarse_id: 63
			coarse_id: 78
		}
		fine2multicoarse_param{
			coarse_id: 7
			coarse_id: 40
			coarse_id: 61
			coarse_id: 65
			coarse_id: 72
		}
		fine2multicoarse_param{
			coarse_id: 44
			coarse_id: 45
			coarse_id: 46
			coarse_id: 59
			coarse_id: 64
			coarse_id: 72
			coarse_id: 74
			coarse_id: 77
			coarse_id: 78
			coarse_id: 79
			coarse_id: 81
			coarse_id: 83
			coarse_id: 84
		}
		fine2multicoarse_param{
			coarse_id: 16
			coarse_id: 18
			coarse_id: 21
			coarse_id: 22
			coarse_id: 26
			coarse_id: 45
			coarse_id: 49
			coarse_id: 50
			coarse_id: 59
			coarse_id: 61
			coarse_id: 70
			coarse_id: 75
			coarse_id: 82
			coarse_id: 83
		}
		fine2multicoarse_param{
			coarse_id: 48
			coarse_id: 57
			coarse_id: 58
			coarse_id: 60
			coarse_id: 62
			coarse_id: 63
			coarse_id: 64
			coarse_id: 66
			coarse_id: 67
			coarse_id: 68
		}
		fine2multicoarse_param{
			coarse_id: 44
			coarse_id: 45
			coarse_id: 46
			coarse_id: 49
			coarse_id: 50
			coarse_id: 51
			coarse_id: 57
			coarse_id: 58
			coarse_id: 59
			coarse_id: 61
			coarse_id: 65
			coarse_id: 66
			coarse_id: 72
			coarse_id: 74
			coarse_id: 75
			coarse_id: 81
			coarse_id: 82
		}
		fine2multicoarse_param{
			coarse_id: 40
			coarse_id: 43
			coarse_id: 46
			coarse_id: 48
			coarse_id: 50
			coarse_id: 53
			coarse_id: 54
			coarse_id: 57
			coarse_id: 58
			coarse_id: 62
			coarse_id: 63
			coarse_id: 64
			coarse_id: 67
			coarse_id: 72
			coarse_id: 78
			coarse_id: 80
			coarse_id: 81
		}
		fine2multicoarse_param{
			coarse_id: 44
			coarse_id: 45
			coarse_id: 56
			coarse_id: 64
			coarse_id: 77
			coarse_id: 79
			coarse_id: 81
			coarse_id: 85
		}
		fine2multicoarse_param{
			coarse_id: 57
			coarse_id: 58
			coarse_id: 60
			coarse_id: 68
			coarse_id: 76
		}
		fine2multicoarse_param{
			coarse_id: 8
			coarse_id: 41
			coarse_id: 44
			coarse_id: 45
			coarse_id: 56
			coarse_id: 66
			coarse_id: 67
			coarse_id: 73
			coarse_id: 83
			coarse_id: 84
			coarse_id: 88
		}
		fine2multicoarse_param{
			coarse_id: 52
			coarse_id: 55
			coarse_id: 57
			coarse_id: 58
			coarse_id: 60
			coarse_id: 63
			coarse_id: 68
			coarse_id: 71
			coarse_id: 73
			coarse_id: 82
		}
		fine2multicoarse_param{
			coarse_id: 55
			coarse_id: 59
			coarse_id: 61
			coarse_id: 78
			coarse_id: 87
		}
		fine2multicoarse_param{
			coarse_id: 40
			coarse_id: 41
			coarse_id: 44
			coarse_id: 45
			coarse_id: 58
			coarse_id: 65
			coarse_id: 72
			coarse_id: 77
			coarse_id: 78
			coarse_id: 79
			coarse_id: 81
			coarse_id: 82
			coarse_id: 83
		}
		fine2multicoarse_param{
			coarse_id: 40
			coarse_id: 42
			coarse_id: 49
			coarse_id: 50
			coarse_id: 61
			coarse_id: 70
			coarse_id: 78
			coarse_id: 82
		}
		fine2multicoarse_param{
			coarse_id: 40
			coarse_id: 41
			coarse_id: 53
			coarse_id: 59
			coarse_id: 61
			coarse_id: 72
			coarse_id: 78
			coarse_id: 80
		}
		fine2multicoarse_param{
			coarse_id: 5
			coarse_id: 38
			coarse_id: 39
			coarse_id: 41
			coarse_id: 48
			coarse_id: 52
			coarse_id: 64
			coarse_id: 66
			coarse_id: 78
			coarse_id: 80
			coarse_id: 84
			coarse_id: 85
			coarse_id: 88
		}
		fine2multicoarse_param{
			coarse_id: 44
			coarse_id: 57
			coarse_id: 59
			coarse_id: 63
			coarse_id: 64
			coarse_id: 65
			coarse_id: 68
			coarse_id: 72
			coarse_id: 75
			coarse_id: 87
		}
		fine2multicoarse_param{
			coarse_id: 43
			coarse_id: 63
			coarse_id: 67
			coarse_id: 71
			coarse_id: 77
			coarse_id: 78
			coarse_id: 81
			coarse_id: 83
			coarse_id: 84
			coarse_id: 85
		}
		fine2multicoarse_param{
			coarse_id: 41
			coarse_id: 43
			coarse_id: 46
			coarse_id: 48
			coarse_id: 52
			coarse_id: 55
			coarse_id: 56
			coarse_id: 57
			coarse_id: 64
			coarse_id: 66
			coarse_id: 67
			coarse_id: 78
			coarse_id: 80
			coarse_id: 84
		}
		fine2multicoarse_param{
			coarse_id: 7
			coarse_id: 33
			coarse_id: 40
			coarse_id: 43
			coarse_id: 45
			coarse_id: 46
			coarse_id: 49
			coarse_id: 50
			coarse_id: 59
			coarse_id: 61
			coarse_id: 64
			coarse_id: 65
			coarse_id: 66
			coarse_id: 70
			coarse_id: 71
			coarse_id: 74
			coarse_id: 75
			coarse_id: 77
			coarse_id: 83
			coarse_id: 84
			coarse_id: 85
			coarse_id: 86
		}
		fine2multicoarse_param{
			coarse_id: 9
			coarse_id: 22
			coarse_id: 40
			coarse_id: 42
			coarse_id: 43
			coarse_id: 44
			coarse_id: 45
			coarse_id: 46
			coarse_id: 49
			coarse_id: 50
			coarse_id: 53
			coarse_id: 59
			coarse_id: 61
			coarse_id: 65
			coarse_id: 67
			coarse_id: 70
			coarse_id: 74
			coarse_id: 75
			coarse_id: 77
			coarse_id: 78
			coarse_id: 79
			coarse_id: 80
			coarse_id: 81
			coarse_id: 82
		}
		fine2multicoarse_param{
			coarse_id: 39
			coarse_id: 57
			coarse_id: 58
			coarse_id: 63
			coarse_id: 69
			coarse_id: 71
			coarse_id: 72
		}
		fine2multicoarse_param{
			coarse_id: 7
			coarse_id: 24
			coarse_id: 40
			coarse_id: 41
			coarse_id: 43
			coarse_id: 44
			coarse_id: 45
			coarse_id: 46
			coarse_id: 49
			coarse_id: 50
			coarse_id: 65
			coarse_id: 66
			coarse_id: 67
			coarse_id: 70
			coarse_id: 72
			coarse_id: 74
			coarse_id: 78
			coarse_id: 79
			coarse_id: 82
			coarse_id: 83
		}
		fine2multicoarse_param{
			coarse_id: 22
			coarse_id: 24
			coarse_id: 43
			coarse_id: 44
			coarse_id: 45
			coarse_id: 49
			coarse_id: 54
			coarse_id: 56
			coarse_id: 61
			coarse_id: 67
			coarse_id: 70
			coarse_id: 74
			coarse_id: 77
			coarse_id: 78
			coarse_id: 79
			coarse_id: 80
			coarse_id: 83
			coarse_id: 85
		}
		fine2multicoarse_param{
			coarse_id: 22
			coarse_id: 40
			coarse_id: 41
			coarse_id: 43
			coarse_id: 44
			coarse_id: 45
			coarse_id: 46
			coarse_id: 49
			coarse_id: 50
			coarse_id: 53
			coarse_id: 56
			coarse_id: 59
			coarse_id: 61
			coarse_id: 65
			coarse_id: 66
			coarse_id: 67
			coarse_id: 70
			coarse_id: 72
			coarse_id: 74
			coarse_id: 75
			coarse_id: 77
			coarse_id: 78
			coarse_id: 79
			coarse_id: 81
			coarse_id: 82
		}
		fine2multicoarse_param{
			coarse_id: 43
			coarse_id: 44
			coarse_id: 46
			coarse_id: 53
			coarse_id: 59
			coarse_id: 64
			coarse_id: 65
			coarse_id: 67
			coarse_id: 72
			coarse_id: 75
		}
		fine2multicoarse_param{
			coarse_id: 43
			coarse_id: 44
			coarse_id: 45
			coarse_id: 56
			coarse_id: 59
			coarse_id: 61
			coarse_id: 70
			coarse_id: 74
			coarse_id: 75
			coarse_id: 79
			coarse_id: 82
		}
		fine2multicoarse_param{
			coarse_id: 43
			coarse_id: 44
			coarse_id: 46
			coarse_id: 53
			coarse_id: 64
			coarse_id: 65
			coarse_id: 67
			coarse_id: 72
		}
		fine2multicoarse_param{
			coarse_id: 39
			coarse_id: 40
			coarse_id: 46
			coarse_id: 49
			coarse_id: 50
			coarse_id: 53
			coarse_id: 56
			coarse_id: 59
			coarse_id: 61
			coarse_id: 62
			coarse_id: 65
			coarse_id: 66
			coarse_id: 67
			coarse_id: 72
			coarse_id: 74
			coarse_id: 75
			coarse_id: 78
			coarse_id: 81
			coarse_id: 82
		}
		fine2multicoarse_param{
			coarse_id: 40
			coarse_id: 50
			coarse_id: 59
			coarse_id: 61
		}
		fine2multicoarse_param{
			coarse_id: 47
			coarse_id: 57
			coarse_id: 58
			coarse_id: 62
			coarse_id: 63
			coarse_id: 68
			coarse_id: 69
			coarse_id: 71
		}
		fine2multicoarse_param{
			coarse_id: 4
			coarse_id: 7
			coarse_id: 9
			coarse_id: 26
			coarse_id: 38
			coarse_id: 41
			coarse_id: 44
			coarse_id: 45
			coarse_id: 46
			coarse_id: 50
			coarse_id: 59
			coarse_id: 61
			coarse_id: 62
			coarse_id: 64
			coarse_id: 66
			coarse_id: 67
			coarse_id: 70
			coarse_id: 74
			coarse_id: 81
			coarse_id: 82
			coarse_id: 88
		}
		fine2multicoarse_param{
			coarse_id: 40
			coarse_id: 46
			coarse_id: 49
			coarse_id: 61
			coarse_id: 66
			coarse_id: 72
			coarse_id: 74
			coarse_id: 75
			coarse_id: 79
			coarse_id: 82
		}
		fine2multicoarse_param{
			coarse_id: 41
			coarse_id: 53
			coarse_id: 54
			coarse_id: 56
			coarse_id: 64
			coarse_id: 66
			coarse_id: 67
			coarse_id: 72
			coarse_id: 78
			coarse_id: 80
		}
		fine2multicoarse_param{
			coarse_id: 3
			coarse_id: 6
			coarse_id: 7
			coarse_id: 10
			coarse_id: 11
			coarse_id: 33
			coarse_id: 41
			coarse_id: 43
			coarse_id: 44
			coarse_id: 49
			coarse_id: 54
			coarse_id: 64
			coarse_id: 66
			coarse_id: 70
			coarse_id: 77
			coarse_id: 79
			coarse_id: 81
			coarse_id: 83
			coarse_id: 85
			coarse_id: 88
		}
		fine2multicoarse_param{
			coarse_id: 0
			coarse_id: 1
			coarse_id: 5
			coarse_id: 6
			coarse_id: 7
			coarse_id: 10
			coarse_id: 33
			coarse_id: 40
			coarse_id: 41
			coarse_id: 43
			coarse_id: 44
			coarse_id: 45
			coarse_id: 46
			coarse_id: 49
			coarse_id: 50
			coarse_id: 55
			coarse_id: 56
			coarse_id: 59
			coarse_id: 60
			coarse_id: 61
			coarse_id: 62
			coarse_id: 66
			coarse_id: 70
			coarse_id: 71
			coarse_id: 72
			coarse_id: 74
			coarse_id: 75
			coarse_id: 79
		}
		fine2multicoarse_param{
			coarse_id: 25
			coarse_id: 50
			coarse_id: 56
			coarse_id: 61
			coarse_id: 64
			coarse_id: 70
			coarse_id: 82
		}
		fine2multicoarse_param{
			coarse_id: 40
			coarse_id: 42
			coarse_id: 50
			coarse_id: 52
			coarse_id: 54
			coarse_id: 55
			coarse_id: 60
			coarse_id: 62
			coarse_id: 71
			coarse_id: 73
			coarse_id: 80
		}
		fine2multicoarse_param{
			coarse_id: 35
			coarse_id: 57
			coarse_id: 58
			coarse_id: 60
			coarse_id: 69
			coarse_id: 71
		}
		fine2multicoarse_param{
			coarse_id: 3
			coarse_id: 40
			coarse_id: 42
			coarse_id: 45
			coarse_id: 46
			coarse_id: 50
			coarse_id: 67
			coarse_id: 71
			coarse_id: 75
			coarse_id: 77
			coarse_id: 79
			coarse_id: 81
		}
		fine2multicoarse_param{
			coarse_id: 43
			coarse_id: 46
			coarse_id: 53
			coarse_id: 54
			coarse_id: 59
			coarse_id: 64
			coarse_id: 65
			coarse_id: 67
			coarse_id: 72
			coarse_id: 75
			coarse_id: 79
			coarse_id: 81
		}
		fine2multicoarse_param{
			coarse_id: 15
			coarse_id: 40
			coarse_id: 41
			coarse_id: 43
			coarse_id: 44
			coarse_id: 45
			coarse_id: 46
			coarse_id: 49
			coarse_id: 50
			coarse_id: 53
			coarse_id: 54
			coarse_id: 56
			coarse_id: 57
			coarse_id: 59
			coarse_id: 61
			coarse_id: 64
			coarse_id: 65
			coarse_id: 66
			coarse_id: 67
			coarse_id: 72
			coarse_id: 74
			coarse_id: 75
			coarse_id: 77
			coarse_id: 78
			coarse_id: 79
			coarse_id: 81
			coarse_id: 82
		}
		fine2multicoarse_param{
			coarse_id: 44
			coarse_id: 83
			coarse_id: 86
		}
		fine2multicoarse_param{
			coarse_id: 40
			coarse_id: 42
			coarse_id: 43
			coarse_id: 46
			coarse_id: 49
			coarse_id: 50
			coarse_id: 54
			coarse_id: 56
			coarse_id: 61
			coarse_id: 70
			coarse_id: 72
			coarse_id: 74
			coarse_id: 75
			coarse_id: 79
			coarse_id: 82
		}
		fine2multicoarse_param{
			coarse_id: 57
			coarse_id: 58
			coarse_id: 63
			coarse_id: 68
			coarse_id: 69
			coarse_id: 72
		}
		fine2multicoarse_param{
			coarse_id: 42
			coarse_id: 43
			coarse_id: 50
			coarse_id: 61
			coarse_id: 70
			coarse_id: 73
			coarse_id: 75
			coarse_id: 82
		}
		fine2multicoarse_param{
			coarse_id: 10
			coarse_id: 33
			coarse_id: 42
			coarse_id: 43
			coarse_id: 44
			coarse_id: 45
			coarse_id: 46
			coarse_id: 52
			coarse_id: 53
			coarse_id: 61
			coarse_id: 65
			coarse_id: 66
			coarse_id: 70
			coarse_id: 74
			coarse_id: 78
			coarse_id: 81
			coarse_id: 83
			coarse_id: 85
		}
		fine2multicoarse_param{
			coarse_id: 57
			coarse_id: 59
			coarse_id: 60
			coarse_id: 63
			coarse_id: 64
			coarse_id: 69
			coarse_id: 78
		}
		fine2multicoarse_param{
			coarse_id: 41
			coarse_id: 43
			coarse_id: 44
			coarse_id: 46
			coarse_id: 49
			coarse_id: 53
			coarse_id: 59
			coarse_id: 65
			coarse_id: 67
			coarse_id: 72
			coarse_id: 74
			coarse_id: 77
			coarse_id: 79
			coarse_id: 82
		}
		fine2multicoarse_param{
			coarse_id: 40
			coarse_id: 49
			coarse_id: 50
			coarse_id: 59
			coarse_id: 61
			coarse_id: 70
			coarse_id: 75
			coarse_id: 78
			coarse_id: 82
		}
		fine2multicoarse_param{
			coarse_id: 42
			coarse_id: 45
			coarse_id: 46
			coarse_id: 49
			coarse_id: 50
			coarse_id: 61
			coarse_id: 66
			coarse_id: 70
			coarse_id: 72
			coarse_id: 73
			coarse_id: 75
			coarse_id: 77
			coarse_id: 81
			coarse_id: 82
		}
		fine2multicoarse_param{
			coarse_id: 6
			coarse_id: 7
			coarse_id: 10
			coarse_id: 33
			coarse_id: 36
			coarse_id: 41
			coarse_id: 43
			coarse_id: 45
			coarse_id: 50
			coarse_id: 64
			coarse_id: 66
			coarse_id: 70
			coarse_id: 74
			coarse_id: 75
			coarse_id: 83
			coarse_id: 84
			coarse_id: 88
		}
		fine2multicoarse_param{
			coarse_id: 40
			coarse_id: 43
			coarse_id: 50
			coarse_id: 54
			coarse_id: 56
			coarse_id: 61
			coarse_id: 66
			coarse_id: 70
			coarse_id: 74
			coarse_id: 75
			coarse_id: 78
			coarse_id: 80
			coarse_id: 81
			coarse_id: 82
		}
		fine2multicoarse_param{
			coarse_id: 11
			coarse_id: 40
			coarse_id: 44
			coarse_id: 45
			coarse_id: 46
			coarse_id: 49
			coarse_id: 50
			coarse_id: 52
			coarse_id: 56
			coarse_id: 64
			coarse_id: 66
			coarse_id: 72
			coarse_id: 74
			coarse_id: 75
			coarse_id: 77
			coarse_id: 79
			coarse_id: 80
			coarse_id: 81
			coarse_id: 82
			coarse_id: 83
		}
		fine2multicoarse_param{
			coarse_id: 41
			coarse_id: 43
			coarse_id: 44
			coarse_id: 45
			coarse_id: 46
			coarse_id: 48
			coarse_id: 49
			coarse_id: 53
			coarse_id: 54
			coarse_id: 56
			coarse_id: 61
			coarse_id: 62
			coarse_id: 70
			coarse_id: 74
			coarse_id: 77
			coarse_id: 78
			coarse_id: 79
			coarse_id: 80
			coarse_id: 81
			coarse_id: 83
		}
		fine2multicoarse_param{
			coarse_id: 43
			coarse_id: 46
			coarse_id: 53
			coarse_id: 54
			coarse_id: 56
			coarse_id: 59
			coarse_id: 63
			coarse_id: 64
			coarse_id: 65
			coarse_id: 67
			coarse_id: 70
			coarse_id: 72
			coarse_id: 75
			coarse_id: 78
			coarse_id: 81
			coarse_id: 82
		}
		fine2multicoarse_param{
			coarse_id: 45
			coarse_id: 50
			coarse_id: 52
			coarse_id: 57
			coarse_id: 58
			coarse_id: 60
			coarse_id: 61
			coarse_id: 64
			coarse_id: 66
			coarse_id: 68
			coarse_id: 69
			coarse_id: 71
			coarse_id: 73
		}
		fine2multicoarse_param{
			coarse_id: 44
			coarse_id: 46
			coarse_id: 49
			coarse_id: 59
			coarse_id: 61
			coarse_id: 65
			coarse_id: 72
			coarse_id: 75
			coarse_id: 77
		}
		fine2multicoarse_param{
			coarse_id: 34
			coarse_id: 40
			coarse_id: 41
			coarse_id: 43
			coarse_id: 45
			coarse_id: 46
			coarse_id: 50
			coarse_id: 53
			coarse_id: 65
			coarse_id: 66
			coarse_id: 74
			coarse_id: 79
			coarse_id: 82
		}
		fine2multicoarse_param{
			coarse_id: 41
			coarse_id: 43
			coarse_id: 48
			coarse_id: 52
			coarse_id: 54
			coarse_id: 57
			coarse_id: 62
			coarse_id: 78
			coarse_id: 80
		}
		fine2multicoarse_param{
			coarse_id: 52
			coarse_id: 55
			coarse_id: 57
			coarse_id: 58
			coarse_id: 62
			coarse_id: 71
			coarse_id: 87
		}
		fine2multicoarse_param{
			coarse_id: 10
			coarse_id: 40
			coarse_id: 43
			coarse_id: 44
			coarse_id: 45
			coarse_id: 46
			coarse_id: 49
			coarse_id: 50
			coarse_id: 54
			coarse_id: 59
			coarse_id: 65
			coarse_id: 66
			coarse_id: 67
			coarse_id: 70
			coarse_id: 72
			coarse_id: 74
			coarse_id: 75
			coarse_id: 77
			coarse_id: 79
			coarse_id: 81
			coarse_id: 82
			coarse_id: 83
		}
		fine2multicoarse_param{
			coarse_id: 48
			coarse_id: 55
			coarse_id: 57
			coarse_id: 63
			coarse_id: 64
			coarse_id: 68
			coarse_id: 78
		}
		fine2multicoarse_param{
			coarse_id: 41
			coarse_id: 48
			coarse_id: 52
			coarse_id: 55
			coarse_id: 57
			coarse_id: 63
			coarse_id: 71
			coarse_id: 87
		}
		fine2multicoarse_param{
			coarse_id: 40
			coarse_id: 44
			coarse_id: 46
			coarse_id: 49
			coarse_id: 50
			coarse_id: 66
			coarse_id: 67
			coarse_id: 70
			coarse_id: 72
			coarse_id: 74
			coarse_id: 75
			coarse_id: 81
		}
		fine2multicoarse_param{
			coarse_id: 40
			coarse_id: 46
			coarse_id: 49
			coarse_id: 52
			coarse_id: 61
			coarse_id: 66
			coarse_id: 75
			coarse_id: 77
			coarse_id: 79
			coarse_id: 82
		}
		fine2multicoarse_param{
			coarse_id: 43
			coarse_id: 44
			coarse_id: 45
			coarse_id: 46
			coarse_id: 54
			coarse_id: 59
			coarse_id: 65
			coarse_id: 67
			coarse_id: 72
			coarse_id: 77
			coarse_id: 79
			coarse_id: 80
			coarse_id: 81
		}
		fine2multicoarse_param{
			coarse_id: 40
			coarse_id: 41
			coarse_id: 43
			coarse_id: 46
			coarse_id: 53
			coarse_id: 54
			coarse_id: 57
			coarse_id: 59
			coarse_id: 63
			coarse_id: 64
			coarse_id: 65
			coarse_id: 67
			coarse_id: 68
			coarse_id: 71
			coarse_id: 72
			coarse_id: 75
			coarse_id: 77
			coarse_id: 80
			coarse_id: 85
		}
		fine2multicoarse_param{
			coarse_id: 40
			coarse_id: 44
			coarse_id: 46
			coarse_id: 49
			coarse_id: 59
			coarse_id: 62
			coarse_id: 65
			coarse_id: 67
			coarse_id: 72
			coarse_id: 73
			coarse_id: 74
			coarse_id: 75
			coarse_id: 77
			coarse_id: 79
			coarse_id: 81
			coarse_id: 82
			coarse_id: 85
		}
		fine2multicoarse_param{
			coarse_id: 38
			coarse_id: 39
			coarse_id: 41
			coarse_id: 43
			coarse_id: 45
			coarse_id: 46
			coarse_id: 48
			coarse_id: 52
			coarse_id: 55
			coarse_id: 57
			coarse_id: 58
			coarse_id: 59
			coarse_id: 63
			coarse_id: 66
			coarse_id: 69
			coarse_id: 71
			coarse_id: 72
			coarse_id: 74
			coarse_id: 77
			coarse_id: 78
			coarse_id: 80
			coarse_id: 87
		}
		fine2multicoarse_param{
			coarse_id: 43
			coarse_id: 44
			coarse_id: 47
			coarse_id: 59
			coarse_id: 64
			coarse_id: 72
			coarse_id: 77
			coarse_id: 82
		}
		fine2multicoarse_param{
			coarse_id: 43
			coarse_id: 44
			coarse_id: 46
			coarse_id: 49
			coarse_id: 50
			coarse_id: 51
			coarse_id: 53
			coarse_id: 54
			coarse_id: 59
			coarse_id: 61
			coarse_id: 66
			coarse_id: 70
			coarse_id: 74
			coarse_id: 75
			coarse_id: 79
			coarse_id: 81
			coarse_id: 82
		}
		fine2multicoarse_param{
			coarse_id: 41
			coarse_id: 43
			coarse_id: 50
			coarse_id: 52
			coarse_id: 54
			coarse_id: 62
			coarse_id: 63
			coarse_id: 67
			coarse_id: 72
			coarse_id: 74
			coarse_id: 78
			coarse_id: 80
			coarse_id: 81
			coarse_id: 84
		}
		fine2multicoarse_param{
			coarse_id: 40
			coarse_id: 42
			coarse_id: 49
			coarse_id: 50
			coarse_id: 61
			coarse_id: 70
			coarse_id: 75
			coarse_id: 80
			coarse_id: 82
		}
		fine2multicoarse_param{
			coarse_id: 42
			coarse_id: 49
			coarse_id: 50
			coarse_id: 61
			coarse_id: 70
			coarse_id: 73
			coarse_id: 75
			coarse_id: 82
			coarse_id: 87
		}
		fine2multicoarse_param{
			coarse_id: 43
			coarse_id: 44
			coarse_id: 52
			coarse_id: 60
			coarse_id: 64
			coarse_id: 66
		}
		fine2multicoarse_param{
			coarse_id: 40
			coarse_id: 42
			coarse_id: 45
			coarse_id: 49
			coarse_id: 50
			coarse_id: 59
			coarse_id: 60
			coarse_id: 61
			coarse_id: 62
			coarse_id: 64
			coarse_id: 65
			coarse_id: 70
			coarse_id: 74
			coarse_id: 75
			coarse_id: 76
			coarse_id: 78
			coarse_id: 81
			coarse_id: 82
			coarse_id: 85
		}
		fine2multicoarse_param{
			coarse_id: 38
			coarse_id: 40
			coarse_id: 43
			coarse_id: 45
			coarse_id: 48
			coarse_id: 50
			coarse_id: 56
			coarse_id: 59
			coarse_id: 61
			coarse_id: 66
			coarse_id: 78
			coarse_id: 80
		}
		fine2multicoarse_param{
			coarse_id: 18
			coarse_id: 31
			coarse_id: 33
			coarse_id: 40
			coarse_id: 43
			coarse_id: 44
			coarse_id: 45
			coarse_id: 49
			coarse_id: 50
			coarse_id: 59
			coarse_id: 61
			coarse_id: 65
			coarse_id: 70
			coarse_id: 72
			coarse_id: 73
			coarse_id: 75
			coarse_id: 77
			coarse_id: 79
			coarse_id: 81
			coarse_id: 82
			coarse_id: 83
		}
		fine2multicoarse_param{
			coarse_id: 7
			coarse_id: 33
			coarse_id: 40
			coarse_id: 41
			coarse_id: 42
			coarse_id: 43
			coarse_id: 44
			coarse_id: 45
			coarse_id: 46
			coarse_id: 50
			coarse_id: 53
			coarse_id: 62
			coarse_id: 65
			coarse_id: 66
			coarse_id: 70
			coarse_id: 74
			coarse_id: 81
		}
		fine2multicoarse_param{
			coarse_id: 41
			coarse_id: 47
			coarse_id: 50
			coarse_id: 62
			coarse_id: 76
			coarse_id: 78
		}
		fine2multicoarse_param{
			coarse_id: 10
			coarse_id: 41
			coarse_id: 48
			coarse_id: 52
			coarse_id: 65
			coarse_id: 66
			coarse_id: 86
			coarse_id: 87
		}
		fine2multicoarse_param{
			coarse_id: 43
			coarse_id: 44
			coarse_id: 45
			coarse_id: 56
			coarse_id: 65
			coarse_id: 77
			coarse_id: 79
			coarse_id: 81
			coarse_id: 83
		}
		fine2multicoarse_param{
			coarse_id: 41
			coarse_id: 43
			coarse_id: 53
			coarse_id: 54
			coarse_id: 56
			coarse_id: 67
			coarse_id: 72
			coarse_id: 78
			coarse_id: 79
			coarse_id: 80
			coarse_id: 81
		}
		fine2multicoarse_param{
			coarse_id: 35
			coarse_id: 39
			coarse_id: 47
			coarse_id: 48
			coarse_id: 52
			coarse_id: 64
			coarse_id: 66
			coarse_id: 70
			coarse_id: 86
		}
		fine2multicoarse_param{
			coarse_id: 40
			coarse_id: 41
			coarse_id: 44
			coarse_id: 45
			coarse_id: 46
			coarse_id: 49
			coarse_id: 50
			coarse_id: 53
			coarse_id: 59
			coarse_id: 61
			coarse_id: 65
			coarse_id: 66
			coarse_id: 70
			coarse_id: 72
			coarse_id: 74
			coarse_id: 75
			coarse_id: 77
			coarse_id: 79
			coarse_id: 81
			coarse_id: 82
		}
		fine2multicoarse_param{
			coarse_id: 43
			coarse_id: 53
			coarse_id: 54
			coarse_id: 56
			coarse_id: 67
			coarse_id: 72
			coarse_id: 79
			coarse_id: 80
		}
		fine2multicoarse_param{
			coarse_id: 40
			coarse_id: 49
			coarse_id: 50
			coarse_id: 51
			coarse_id: 57
			coarse_id: 58
			coarse_id: 60
			coarse_id: 61
			coarse_id: 65
			coarse_id: 70
			coarse_id: 73
			coarse_id: 75
			coarse_id: 78
			coarse_id: 82
		}
		fine2multicoarse_param{
			coarse_id: 40
			coarse_id: 44
			coarse_id: 45
			coarse_id: 46
			coarse_id: 48
			coarse_id: 52
			coarse_id: 67
			coarse_id: 77
			coarse_id: 79
			coarse_id: 80
			coarse_id: 81
			coarse_id: 82
		}
		fine2multicoarse_param{
			coarse_id: 57
			coarse_id: 63
			coarse_id: 66
			coarse_id: 68
		}
		fine2multicoarse_param{
			coarse_id: 18
			coarse_id: 40
			coarse_id: 42
			coarse_id: 49
			coarse_id: 50
			coarse_id: 56
			coarse_id: 61
			coarse_id: 68
			coarse_id: 70
			coarse_id: 75
			coarse_id: 79
			coarse_id: 81
			coarse_id: 82
		}
		fine2multicoarse_param{
			coarse_id: 48
			coarse_id: 57
			coarse_id: 58
			coarse_id: 63
			coarse_id: 66
			coarse_id: 68
			coarse_id: 71
			coarse_id: 78
		}
		fine2multicoarse_param{
			coarse_id: 39
			coarse_id: 45
			coarse_id: 46
			coarse_id: 48
			coarse_id: 50
			coarse_id: 52
			coarse_id: 55
			coarse_id: 57
			coarse_id: 62
			coarse_id: 64
			coarse_id: 71
			coarse_id: 78
			coarse_id: 80
		}
		fine2multicoarse_param{
			coarse_id: 10
			coarse_id: 33
			coarse_id: 45
			coarse_id: 59
			coarse_id: 61
			coarse_id: 70
			coarse_id: 74
			coarse_id: 84
			coarse_id: 85
		}
		fine2multicoarse_param{
			coarse_id: 45
			coarse_id: 59
			coarse_id: 65
			coarse_id: 77
			coarse_id: 79
			coarse_id: 81
			coarse_id: 83
			coarse_id: 84
			coarse_id: 85
			coarse_id: 87
		}
		fine2multicoarse_param{
			coarse_id: 41
			coarse_id: 52
			coarse_id: 57
			coarse_id: 63
			coarse_id: 64
			coarse_id: 66
			coarse_id: 68
			coarse_id: 80
			coarse_id: 86
			coarse_id: 88
		}
		fine2multicoarse_param{
			coarse_id: 57
			coarse_id: 58
			coarse_id: 63
			coarse_id: 64
			coarse_id: 68
		}
		fine2multicoarse_param{
			coarse_id: 41
			coarse_id: 43
			coarse_id: 44
			coarse_id: 46
			coarse_id: 53
			coarse_id: 54
			coarse_id: 59
			coarse_id: 64
			coarse_id: 65
			coarse_id: 67
			coarse_id: 72
			coarse_id: 74
			coarse_id: 75
			coarse_id: 79
		}
		fine2multicoarse_param{
			coarse_id: 47
			coarse_id: 48
			coarse_id: 52
			coarse_id: 55
			coarse_id: 64
			coarse_id: 78
			coarse_id: 86
		}
		fine2multicoarse_param{
			coarse_id: 41
			coarse_id: 43
			coarse_id: 53
			coarse_id: 54
			coarse_id: 57
			coarse_id: 63
			coarse_id: 64
			coarse_id: 65
			coarse_id: 67
			coarse_id: 72
…
			class_id:695
			class_id:792
			class_id:748
			class_id:880
			class_id:582
			class_id:473
			class_id:769
			class_id:464
			class_id:544
			class_id:475
			class_id:858
			class_id:818
			class_id:466
			class_id:801
			class_id:435
			class_id:550
			class_id:428
			class_id:899
			class_id:681
			class_id:898
			class_id:631
			class_id:751
			class_id:893
			class_id:453
			class_id:521
			class_id:629
			class_id:716
			class_id:700
			class_id:865
			class_id:447
			class_id:881
			class_id:981
			class_id:436
			class_id:746
			class_id:470
			class_id:471
			class_id:122
			class_id:563
			class_id:909
		}
		compact_classify_layer_param{
			class_id:436
			class_id:479
			class_id:511
			class_id:581
			class_id:656
			class_id:717
			class_id:751
			class_id:817
			class_id:468
			class_id:627
			class_id:609
			class_id:864
			class_id:654
			class_id:535
			class_id:407
			class_id:734
			class_id:408
			class_id:675
			class_id:575
			class_id:573
			class_id:757
			class_id:661
			class_id:670
			class_id:745
			class_id:475
			class_id:506
			class_id:705
			class_id:729
			class_id:866
			class_id:867
			class_id:569
			class_id:818
			class_id:555
			class_id:778
			class_id:450
			class_id:982
			class_id:660
			class_id:542
			class_id:882
			class_id:859
			class_id:753
			class_id:803
			class_id:703
			class_id:257
			class_id:547
			class_id:410
			class_id:414
			class_id:239
			class_id:791
			class_id:518
			class_id:891
			class_id:333
			class_id:244
			class_id:710
			class_id:595
			class_id:698
			class_id:632
			class_id:744
			class_id:491
			class_id:534
			class_id:655
			class_id:485
			class_id:464
			class_id:531
			class_id:621
			class_id:422
		}
		compact_classify_layer_param{
			class_id:537
			class_id:603
			class_id:690
			class_id:730
			class_id:345
			class_id:866
			class_id:856
			class_id:595
			class_id:428
			class_id:870
			class_id:354
			class_id:167
			class_id:346
			class_id:803
			class_id:612
			class_id:238
			class_id:248
			class_id:439
			class_id:586
			class_id:792
			class_id:444
			class_id:671
			class_id:802
			class_id:795
			class_id:413
			class_id:634
			class_id:808
			class_id:880
			class_id:471
			class_id:913
			class_id:975
			class_id:665
			class_id:350
			class_id:168
			class_id:706
			class_id:101
			class_id:912
			class_id:978
			class_id:170
			class_id:621
			class_id:532
			class_id:489
			class_id:456
			class_id:427
			class_id:421
			class_id:313
			class_id:609
			class_id:703
			class_id:807
			class_id:920
			class_id:830
			class_id:408
			class_id:205
			class_id:353
			class_id:491
		}
		compact_classify_layer_param{
			class_id:474
			class_id:496
			class_id:533
			class_id:552
			class_id:568
			class_id:591
			class_id:658
			class_id:735
			class_id:806
			class_id:824
			class_id:885
			class_id:911
			class_id:452
			class_id:841
			class_id:434
			class_id:411
			class_id:869
			class_id:721
			class_id:903
			class_id:697
			class_id:490
			class_id:443
			class_id:906
			class_id:750
			class_id:834
			class_id:689
			class_id:549
			class_id:816
			class_id:887
			class_id:501
			class_id:797
			class_id:616
			class_id:741
			class_id:748
			class_id:840
			class_id:893
			class_id:794
			class_id:796
			class_id:614
			class_id:539
			class_id:608
			class_id:850
			class_id:529
			class_id:457
			class_id:601
			class_id:502
			class_id:775
			class_id:709
			class_id:514
			class_id:728
			class_id:399
			class_id:643
			class_id:655
			class_id:679
			class_id:700
			class_id:488
			class_id:636
			class_id:109
			class_id:692
			class_id:509
			class_id:578
			class_id:868
			class_id:842
			class_id:599
			class_id:414
			class_id:610
			class_id:419
			class_id:747
			class_id:982
			class_id:327
			class_id:584
			class_id:996
			class_id:813
			class_id:463
			class_id:898
			class_id:433
			class_id:929
			class_id:108
			class_id:772
			class_id:558
			class_id:793
			class_id:889
			class_id:858
			class_id:491
			class_id:650
			class_id:228
			class_id:652
			class_id:769
			class_id:790
			class_id:854
			class_id:695
			class_id:465
			class_id:459
			class_id:639
			class_id:691
			class_id:641
			class_id:831
			class_id:644
			class_id:987
			class_id:111
			class_id:617
			class_id:977
			class_id:585
			class_id:620
			class_id:600
			class_id:973
			class_id:670
			class_id:400
			class_id:464
			class_id:506
			class_id:489
			class_id:543
			class_id:507
			class_id:363
			class_id:845
			class_id:588
			class_id:224
			class_id:948
			class_id:451
			class_id:589
			class_id:615
			class_id:684
			class_id:770
			class_id:904
			class_id:882
			class_id:431
			class_id:551
			class_id:714
			class_id:462
			class_id:611
			class_id:69
			class_id:107
			class_id:153
			class_id:855
			class_id:283
			class_id:626
			class_id:774
			class_id:936
			class_id:737
			class_id:879
			class_id:999
			class_id:208
			class_id:160
			class_id:943
			class_id:876
			class_id:649
			class_id:395
			class_id:838
			class_id:475
			class_id:254
			class_id:422
			class_id:667
			class_id:524
			class_id:678
			class_id:439
			class_id:516
			class_id:112
			class_id:930
			class_id:808
			class_id:210
			class_id:596
			class_id:699
			class_id:669
			class_id:446
			class_id:638
			class_id:54
			class_id:338
			class_id:523
			class_id:629
			class_id:749
			class_id:883
			class_id:183
			class_id:696
			class_id:587
			class_id:971
			class_id:293
			class_id:1
			class_id:619
			class_id:340
			class_id:426
			class_id:719
			class_id:499
			class_id:125
			class_id:556
			class_id:494
			class_id:760
			class_id:260
			class_id:736
			class_id:723
			class_id:961
			class_id:53
			class_id:448
			class_id:7
			class_id:932
			class_id:776
			class_id:865
			class_id:767
			class_id:478
			class_id:731
			class_id:206
		}
		compact_classify_layer_param{
			class_id:403
			class_id:404
			class_id:405
			class_id:471
			class_id:657
			class_id:744
			class_id:847
			class_id:895
			class_id:908
			class_id:408
			class_id:812
			class_id:586
			class_id:628
			class_id:417
			class_id:833
			class_id:536
			class_id:733
			class_id:557
			class_id:517
			class_id:460
			class_id:863
			class_id:701
			class_id:864
			class_id:913
			class_id:978
			class_id:682
			class_id:437
			class_id:820
			class_id:147
			class_id:668
			class_id:21
			class_id:418
			class_id:450
			class_id:705
			class_id:835
			class_id:980
			class_id:466
			class_id:600
			class_id:727
			class_id:562
			class_id:830
			class_id:832
			class_id:491
			class_id:867
			class_id:879
			class_id:595
			class_id:755
			class_id:413
			class_id:540
			class_id:672
			class_id:764
			class_id:758
			class_id:814
			class_id:541
			class_id:856
			class_id:730
			class_id:634
			class_id:525
			class_id:621
			class_id:137
			class_id:807
			class_id:499
			class_id:898
			class_id:920
			class_id:538
			class_id:603
			class_id:561
			class_id:582
			class_id:87
			class_id:506
			class_id:158
			class_id:497
			class_id:751
			class_id:975
			class_id:4
			class_id:919
			class_id:843
			class_id:575
			class_id:535
			class_id:476
			class_id:449
			class_id:729
			class_id:690
			class_id:584
			class_id:778
			class_id:708
			class_id:862
			class_id:974
			class_id:89
			class_id:469
			class_id:140
			class_id:656
			class_id:489
			class_id:484
			class_id:866
			class_id:816
			class_id:703
			class_id:693
			class_id:510
			class_id:632
			class_id:625
			class_id:389
			class_id:950
			class_id:829
			class_id:554
			class_id:428
			class_id:803
			class_id:604
			class_id:448
			class_id:132
			class_id:447
			class_id:845
			class_id:488
			class_id:977
			class_id:602
			class_id:840
			class_id:740
			class_id:563
			class_id:723
			class_id:726
			class_id:146
			class_id:914
			class_id:880
			class_id:724
			class_id:787
			class_id:970
		}
		compact_classify_layer_param{
			class_id:481
			class_id:485
			class_id:550
			class_id:592
			class_id:613
			class_id:632
			class_id:732
			class_id:745
			class_id:754
			class_id:759
			class_id:827
			class_id:848
			class_id:897
			class_id:482
			class_id:662
			class_id:651
			class_id:742
			class_id:811
			class_id:622
			class_id:505
			class_id:844
			class_id:688
			class_id:771
			class_id:710
			class_id:487
			class_id:527
			class_id:605
			class_id:859
			class_id:891
			class_id:477
			class_id:556
			class_id:896
			class_id:507
			class_id:447
			class_id:409
			class_id:464
			class_id:673
			class_id:598
			class_id:786
			class_id:530
			class_id:818
			class_id:909
			class_id:851
			class_id:861
			class_id:446
			class_id:650
			class_id:521
			class_id:492
			class_id:882
			class_id:526
			class_id:872
			class_id:674
			class_id:681
			class_id:531
			class_id:581
			class_id:761
			class_id:473
			class_id:606
			class_id:778
			class_id:760
			class_id:553
			class_id:534
			class_id:664
			class_id:968
			class_id:590
			class_id:707
			class_id:620
			class_id:535
			class_id:782
			class_id:412
			class_id:475
			class_id:545
			class_id:528
			class_id:615
			class_id:571
			class_id:813
			class_id:893
			class_id:480
			class_id:686
			class_id:753
			class_id:921
			class_id:785
			class_id:633
			class_id:713
			class_id:769
			class_id:546
			class_id:589
			class_id:804
			class_id:758
			class_id:823
			class_id:478
			class_id:907
			class_id:748
			class_id:709
			class_id:767
			class_id:798
			class_id:551
			class_id:766
			class_id:731
			class_id:967
			class_id:609
			class_id:826
			class_id:648
			class_id:563
			class_id:899
			class_id:810
			class_id:881
			class_id:714
			class_id:729
			class_id:479
			class_id:495
			class_id:567
			class_id:788
			class_id:999
			class_id:783
			class_id:846
			class_id:506
			class_id:635
			class_id:704
			class_id:695
			class_id:423
			class_id:700
			class_id:739
			class_id:414
			class_id:877
			class_id:886
			class_id:898
			class_id:504
			class_id:519
			class_id:626
			class_id:600
			class_id:746
			class_id:828
			class_id:544
			class_id:969
			class_id:685
			class_id:579
			class_id:570
			class_id:512
			class_id:711
			class_id:455
			class_id:868
			class_id:518
			class_id:792
			class_id:418
			class_id:470
			class_id:424
			class_id:566
			class_id:908
			class_id:548
			class_id:784
			class_id:426
			class_id:876
			class_id:923
			class_id:629
			class_id:427
			class_id:807
			class_id:692
			class_id:763
			class_id:757
			class_id:508
			class_id:549
			class_id:740
			class_id:863
			class_id:503
			class_id:421
			class_id:438
			class_id:762
			class_id:441
			class_id:764
			class_id:435
			class_id:631
			class_id:586
			class_id:836
			class_id:894
			class_id:747
			class_id:883
			class_id:643
			class_id:849
			class_id:499
			class_id:454
			class_id:916
			class_id:559
			class_id:634
			class_id:717
			class_id:637
			class_id:494
			class_id:860
			class_id:577
			class_id:726
			class_id:458
			class_id:532
			class_id:800
			class_id:597
			class_id:515
			class_id:618
			class_id:781
			class_id:608
			class_id:587
			class_id:593
		}
		compact_classify_layer_param{
			class_id:429
			class_id:430
			class_id:560
			class_id:768
			class_id:981
			class_id:805
			class_id:890
			class_id:522
			class_id:615
			class_id:574
			class_id:752
			class_id:518
			class_id:722
			class_id:902
			class_id:610
			class_id:541
			class_id:463
			class_id:450
			class_id:719
			class_id:639
			class_id:879
			class_id:652
			class_id:746
			class_id:787
			class_id:417
			class_id:633
			class_id:880
			class_id:796
			class_id:806
			class_id:643
			class_id:731
			class_id:711
			class_id:575
			class_id:988
			class_id:721
			class_id:758
			class_id:686
			class_id:456
			class_id:733
			class_id:489
			class_id:602
			class_id:862
			class_id:895
			class_id:416
			class_id:830
			class_id:513
			class_id:701
			class_id:863
			class_id:667
			class_id:710
			class_id:455
			class_id:843
			class_id:551
			class_id:983
			class_id:621
			class_id:912
			class_id:404
			class_id:268
			class_id:670
		}
		compact_classify_layer_param{
			class_id:22
			class_id:111
			class_id:251
			class_id:297
			class_id:320
			class_id:418
			class_id:419
			class_id:434
			class_id:443
			class_id:451
			class_id:488
			class_id:491
			class_id:584
			class_id:616
			class_id:626
			class_id:636
			class_id:650
			class_id:699
			class_id:709
			class_id:721
			class_id:731
			class_id:741
			class_id:764
			class_id:767
			class_id:769
			class_id:772
			class_id:781
			class_id:790
			class_id:813
			class_id:823
			class_id:845
			class_id:853
			class_id:872
			class_id:893
			class_id:912
			class_id:989
			class_id:748
			class_id:413
			class_id:319
			class_id:623
			class_id:563
			class_id:692
			class_id:591
			class_id:679
			class_id:600
			class_id:784
			class_id:549
			class_id:464
			class_id:446
			class_id:596
			class_id:558
			class_id:529
			class_id:295
			class_id:696
			class_id:902
			class_id:710
			class_id:21
			class_id:777
			class_id:512
			class_id:542
			class_id:489
			class_id:456
			class_id:629
			class_id:414
			class_id:618
			class_id:783
			class_id:411
			class_id:677
			class_id:587
			class_id:716
			class_id:473
			class_id:644
			class_id:593
			class_id:507
			class_id:714
			class_id:798
			class_id:633
			class_id:462
			class_id:929
			class_id:641
			class_id:957
			class_id:617
			class_id:999
			class_id:858
			class_id:855
			class_id:740
			class_id:478
			class_id:910
			class_id:588
			class_id:911
			class_id:611
			class_id:792
			class_id:797
			class_id:494
			class_id:589
			class_id:700
			class_id:749
			class_id:477
			class_id:499
			class_id:457
			class_id:523
			class_id:791
			class_id:868
			class_id:763
			class_id:816
			class_id:470
			class_id:729
			class_id:840
			class_id:806
			class_id:678
			class_id:695
			class_id:539
			class_id:551
			class_id:720
			class_id:506
			class_id:844
			class_id:680
			class_id:481
			class_id:422
			class_id:921
			class_id:711
			class_id:774
			class_id:882
			class_id:585
			class_id:750
			class_id:533
			class_id:889
			class_id:459
			class_id:733
			class_id:496
			class_id:567
			class_id:398
			class_id:747
			class_id:52
			class_id:918
			class_id:818
			class_id:492
			class_id:758
			class_id:898
			class_id:23
			class_id:862
			class_id:838
			class_id:452
			class_id:785
			class_id:421
			class_id:619
			class_id:674
			class_id:683
			class_id:420
			class_id:773
			class_id:837
			class_id:828
			class_id:843
			class_id:487
			class_id:432
			class_id:752
			class_id:919
			class_id:608
			class_id:735
			class_id:907
			class_id:885
			class_id:722
			class_id:546
			class_id:673
			class_id:875
			class_id:613
			class_id:246
			class_id:761
			class_id:804
			class_id:658
			class_id:606
			class_id:637
			class_id:471
			class_id:896
			class_id:794
			class_id:597
			class_id:892
			class_id:513
			class_id:949
			class_id:570
			class_id:515
			class_id:786
			class_id:110
			class_id:723
			class_id:759
			class_id:841
			class_id:508
			class_id:634
			class_id:448
			class_id:447
			class_id:662
			class_id:440
			class_id:543
			class_id:860
			class_id:728
			class_id:425
			class_id:684
			class_id:474
			class_id:800
			class_id:776
		}
		compact_classify_layer_param{
			class_id:69
			class_id:423
			class_id:475
			class_id:476
			class_id:487
			class_id:529
			class_id:605
			class_id:615
			class_id:736
			class_id:770
			class_id:774
			class_id:779
			class_id:785
			class_id:796
			class_id:801
			class_id:836
			class_id:837
			class_id:841
			class_id:502
			class_id:424
			class_id:590
			class_id:643
			class_id:678
			class_id:691
			class_id:399
			class_id:761
			class_id:630
			class_id:662
			class_id:823
			class_id:433
			class_id:610
			class_id:983
			class_id:419
			class_id:788
			class_id:797
			class_id:655
			class_id:443
			class_id:929
			class_id:606
			class_id:464
			class_id:842
			class_id:633
			class_id:445
			class_id:793
			class_id:697
			class_id:971
			class_id:626
			class_id:465
			class_id:680
			class_id:414
			class_id:570
			class_id:501
			class_id:617
			class_id:885
			class_id:826
			class_id:597
			class_id:499
			class_id:681
			class_id:869
			class_id:515
			class_id:542
			class_id:434
			class_id:452
			class_id:902
			class_id:6
			class_id:608
			class_id:868
			class_id:523
			class_id:834
			class_id:641
			class_id:676
			class_id:851
			class_id:543
			class_id:636
			class_id:584
			class_id:903
			class_id:638
			class_id:838
			class_id:845
			class_id:518
			class_id:882
			class_id:514
			class_id:112
			class_id:457
			class_id:531
			class_id:620
			class_id:754
			class_id:911
			class_id:585
			class_id:999
			class_id:879
			class_id:593
			class_id:714
			class_id:843
			class_id:622
			class_id:898
			class_id:126
			class_id:731
			class_id:447
			class_id:639
			class_id:700
			class_id:748
			class_id:673
			class_id:808
			class_id:844
			class_id:431
			class_id:591
			class_id:765
			class_id:728
			class_id:422
			class_id:684
			class_id:474
			class_id:722
			class_id:650
			class_id:496
			class_id:859
			class_id:861
			class_id:762
			class_id:772
			class_id:906
			class_id:850
			class_id:589
			class_id:813
			class_id:732
			class_id:652
			class_id:439
			class_id:520
			class_id:507
			class_id:667
			class_id:696
			class_id:614
			class_id:490
			class_id:710
			class_id:632
			class_id:893
			class_id:720
			class_id:629
			class_id:752
			class_id:917
			class_id:875
			class_id:618
			class_id:795
			class_id:830
			class_id:411
			class_id:768
			class_id:824
			class_id:759
			class_id:526
			class_id:874
			class_id:482
			class_id:516
			class_id:783
			class_id:907
			class_id:778
			class_id:920
			class_id:450
			class_id:711
			class_id:784
			class_id:968
			class_id:890
			class_id:966
			class_id:876
			class_id:747
			class_id:481
			class_id:549
			class_id:865
			class_id:742
			class_id:600
			class_id:848
			class_id:581
			class_id:672
			class_id:749
			class_id:459
			class_id:982
			class_id:480
			class_id:512
			class_id:562
			class_id:792
			class_id:463
			class_id:693
			class_id:786
			class_id:568
			class_id:664
			class_id:530
			class_id:125
			class_id:702
			class_id:787
			class_id:764
			class_id:829
			class_id:532
			class_id:616
			class_id:804
			class_id:435
			class_id:546
			class_id:473
			class_id:604
			class_id:767
			class_id:558
			class_id:461
			class_id:750
		}
		compact_classify_layer_param{
			class_id:795
			class_id:802
			class_id:970
			class_id:537
			class_id:792
			class_id:803
			class_id:746
			class_id:450
			class_id:670
			class_id:796
			class_id:573
			class_id:872
			class_id:491
			class_id:730
			class_id:672
			class_id:777
			class_id:408
			class_id:522
			class_id:983
			class_id:421
			class_id:472
			class_id:512
			class_id:880
			class_id:456
			class_id:557
			class_id:774
			class_id:782
			class_id:645
			class_id:767
			class_id:917
			class_id:641
			class_id:895
		}
		compact_classify_layer_param{
			class_id:469
			class_id:521
			class_id:544
			class_id:567
			class_id:809
			class_id:828
			class_id:909
			class_id:925
			class_id:926
			class_id:927
			class_id:928
			class_id:959
			class_id:960
			class_id:967
			class_id:923
			class_id:659
			class_id:968
			class_id:969
			class_id:935
			class_id:618
			class_id:962
			class_id:964
			class_id:910
			class_id:934
			class_id:813
			class_id:504
			class_id:666
			class_id:965
			class_id:961
			class_id:891
			class_id:868
			class_id:987
			class_id:924
			class_id:463
			class_id:849
			class_id:647
			class_id:942
			class_id:712
			class_id:653
			class_id:505
			class_id:932
			class_id:938
			class_id:931
			class_id:415
			class_id:118
			class_id:551
			class_id:940
			class_id:937
			class_id:949
			class_id:773
			class_id:441
			class_id:827
			class_id:633
			class_id:739
			class_id:470
			class_id:963
			class_id:945
			class_id:861
			class_id:947
			class_id:720
			class_id:550
			class_id:818
			class_id:572
			class_id:876
			class_id:941
			class_id:966
			class_id:541
			class_id:700
			class_id:427
			class_id:455
			class_id:124
			class_id:528
			class_id:746
			class_id:1
			class_id:766
			class_id:577
			class_id:883
			class_id:622
			class_id:787
			class_id:121
			class_id:822
			class_id:996
			class_id:643
			class_id:748
			class_id:507
			class_id:599
			class_id:650
			class_id:473
			class_id:762
			class_id:731
			class_id:896
			class_id:855
			class_id:930
			class_id:464
			class_id:950
			class_id:584
			class_id:752
			class_id:738
			class_id:711
			class_id:898
			class_id:951
			class_id:509
			class_id:630
			class_id:506
			class_id:619
			class_id:823
			class_id:535
			class_id:112
			class_id:686
			class_id:412
			class_id:952
			class_id:604
			class_id:589
			class_id:696
			class_id:503
			class_id:837
			class_id:725
			class_id:804
			class_id:808
			class_id:933
			class_id:635
			class_id:631
			class_id:954
			class_id:988
			class_id:515
			class_id:943
			class_id:944
			class_id:452
			class_id:122
			class_id:956
			class_id:626
			class_id:904
			class_id:845
			class_id:227
			class_id:774
			class_id:438
			class_id:634
			class_id:901
			class_id:556
			class_id:461
			class_id:754
			class_id:435
			class_id:955
			class_id:37
			class_id:722
			class_id:899
			class_id:111
			class_id:117
			class_id:585
			class_id:329
			class_id:737
			class_id:69
			class_id:532
			class_id:606
			class_id:852
			class_id:673
			class_id:545
			class_id:494
			class_id:948
			class_id:588
			class_id:836
			class_id:756
			class_id:719
			class_id:999
			class_id:319
			class_id:6
			class_id:543
			class_id:667
			class_id:499
			class_id:0
			class_id:788
			class_id:502
			class_id:549
			class_id:514
			class_id:75
			class_id:582
			class_id:708
			class_id:674
			class_id:749
			class_id:253
			class_id:632
			class_id:939
			class_id:929
			class_id:911
			class_id:45
			class_id:426
			class_id:758
			class_id:411
			class_id:816
			class_id:475
			class_id:531
			class_id:615
			class_id:824
			class_id:840
			class_id:518
			class_id:314
			class_id:328
			class_id:613
			class_id:990
			class_id:165
		}
		compact_classify_layer_param{
			class_id:424
			class_id:454
			class_id:467
			class_id:498
			class_id:509
			class_id:582
			class_id:624
			class_id:762
			class_id:788
			class_id:800
			class_id:860
			class_id:865
			class_id:917
			class_id:415
			class_id:453
			class_id:921
			class_id:423
			class_id:886
			class_id:398
			class_id:692
			class_id:648
			class_id:790
			class_id:476
			class_id:766
			class_id:611
			class_id:532
			class_id:706
			class_id:499
			class_id:778
			class_id:781
			class_id:664
			class_id:121
			class_id:588
			class_id:598
			class_id:614
			class_id:791
			class_id:741
			class_id:406
			class_id:585
			class_id:854
			class_id:770
			class_id:502
			class_id:711
			class_id:561
			class_id:571
			class_id:922
			class_id:953
			class_id:526
			class_id:957
			class_id:862
			class_id:743
			class_id:468
			class_id:470
			class_id:731
			class_id:822
			class_id:497
			class_id:919
			class_id:789
			class_id:808
			class_id:641
			class_id:495
			class_id:565
			class_id:678
			class_id:850
			class_id:480
			class_id:956
			class_id:819
			class_id:905
			class_id:642
			class_id:737
			class_id:877
			class_id:517
			class_id:932
			class_id:606
			class_id:530
			class_id:704
			class_id:519
			class_id:478
			class_id:893
			class_id:579
			class_id:645
			class_id:954
			class_id:617
			class_id:652
			class_id:583
			class_id:707
			class_id:481
			class_id:698
			class_id:934
			class_id:909
			class_id:627
			class_id:945
			class_id:849
			class_id:851
			class_id:764
			class_id:541
			class_id:619
			class_id:747
			class_id:124
			class_id:760
			class_id:858
			class_id:521
			class_id:612
			class_id:687
			class_id:894
			class_id:767
			class_id:455
			class_id:936
			class_id:786
			class_id:863
			class_id:728
			class_id:567
			class_id:457
			class_id:401
			class_id:799
			class_id:740
			class_id:482
			class_id:879
			class_id:696
			class_id:916
			class_id:724
			class_id:552
			class_id:716
			class_id:887
			class_id:943
			class_id:888
			class_id:593
			class_id:705
			class_id:750
			class_id:723
			class_id:950
			class_id:929
			class_id:539
			class_id:840
			class_id:514
			class_id:580
			class_id:861
			class_id:419
			class_id:829
			class_id:634
			class_id:761
			class_id:443
			class_id:875
			class_id:848
			class_id:903
			class_id:548
			class_id:589
			class_id:637
			class_id:962
			class_id:446
			class_id:736
			class_id:577
			class_id:620
			class_id:709
			class_id:520
			class_id:412
			class_id:558
			class_id:982
			class_id:477
			class_id:930
			class_id:966
			class_id:657
			class_id:428
			class_id:670
			class_id:907
			class_id:490
			class_id:699
			class_id:938
			class_id:587
			class_id:496
			class_id:158
			class_id:965
			class_id:828
			class_id:449
			class_id:830
			class_id:416
			class_id:727
			class_id:961
			class_id:776
			class_id:536
			class_id:576
			class_id:421
			class_id:902
			class_id:542
			class_id:410
			class_id:998
			class_id:118
			class_id:656
			class_id:821
			class_id:409
			class_id:578
			class_id:186
			class_id:560
			class_id:971
			class_id:413
			class_id:161
			class_id:133
			class_id:122
			class_id:729
			class_id:663
		}
		compact_classify_layer_param{
			class_id:361
			class_id:362
			class_id:410
			class_id:435
			class_id:464
			class_id:505
			class_id:514
			class_id:618
			class_id:653
			class_id:700
			class_id:739
			class_id:748
			class_id:766
			class_id:794
			class_id:804
			class_id:849
			class_id:861
			class_id:876
			class_id:891
			class_id:896
			class_id:968
			class_id:899
			class_id:504
			class_id:999
			class_id:636
			class_id:725
			class_id:550
			class_id:967
			class_id:773
			class_id:828
			class_id:648
			class_id:630
			class_id:599
			class_id:809
			class_id:893
			class_id:859
			class_id:503
			class_id:502
			class_id:521
			class_id:910
			class_id:469
			class_id:463
			class_id:473
			class_id:731
			class_id:659
			class_id:868
			class_id:551
			class_id:883
			class_id:666
			class_id:597
			class_id:774
			class_id:434
			class_id:909
			class_id:412
			class_id:529
			class_id:728
			class_id:674
			class_id:756
			class_id:897
			class_id:711
			class_id:532
			class_id:969
			class_id:813
			class_id:427
			class_id:438
			class_id:443
			class_id:470
			class_id:760
			class_id:742
			class_id:898
			class_id:827
			class_id:905
			class_id:712
			class_id:623
			class_id:499
			class_id:606
			class_id:534
			class_id:844
			class_id:696
			class_id:414
			class_id:786
			class_id:631
			class_id:709
			class_id:589
			class_id:600
			class_id:591
			class_id:772
			class_id:588
			class_id:604
			class_id:431
			class_id:673
			class_id:845
			class_id:516
			class_id:902
			class_id:619
			class_id:669
			class_id:492
			class_id:526
			class_id:747
			class_id:962
			class_id:846
			class_id:721
			class_id:719
			class_id:647
			class_id:651
			class_id:882
			class_id:613
			class_id:680
			class_id:475
			class_id:737
			class_id:778
			class_id:790
			class_id:695
			class_id:818
			class_id:823
			class_id:539
			class_id:686
			class_id:901
			class_id:567
			class_id:788
			class_id:543
			class_id:655
			class_id:792
			class_id:894
			class_id:811
			class_id:729
			class_id:837
			class_id:710
			class_id:451
			class_id:441
			class_id:608
			class_id:455
			class_id:678
			class_id:572
			class_id:738
			class_id:633
			class_id:446
			class_id:831
			class_id:520
			class_id:478
			class_id:925
			class_id:507
			class_id:785
			class_id:461
			class_id:419
			class_id:749
			class_id:753
			class_id:626
			class_id:375
			class_id:720
			class_id:926
			class_id:907
			class_id:515
			class_id:677
			class_id:577
			class_id:447
			class_id:556
			class_id:605
			class_id:929
			class_id:496
			class_id:822
			class_id:787
			class_id:509
			class_id:415
			class_id:643
			class_id:650
			class_id:519
			class_id:541
			class_id:713
			class_id:428
			class_id:506
			class_id:851
			class_id:662
			class_id:726
			class_id:796
			class_id:754
			class_id:793
			class_id:528
			class_id:816
			class_id:512
			class_id:714
			class_id:411
			class_id:587
			class_id:838
			class_id:960
			class_id:356
			class_id:585
			class_id:544
			class_id:679
			class_id:457
			class_id:487
			class_id:692
			class_id:928
			class_id:745
			class_id:799
			class_id:524
			class_id:767
			class_id:904
			class_id:808
			class_id:310
		}
		compact_classify_layer_param{
			class_id:453
			class_id:493
			class_id:495
			class_id:648
			class_id:743
			class_id:789
			class_id:799
			class_id:877
			class_id:894
			class_id:553
			class_id:904
			class_id:905
			class_id:421
			class_id:548
			class_id:454
			class_id:624
			class_id:771
			class_id:760
			class_id:896
			class_id:492
			class_id:706
			class_id:532
			class_id:480
			class_id:519
			class_id:860
			class_id:651
			class_id:729
			class_id:526
			class_id:598
			class_id:534
			class_id:884
			class_id:858
			class_id:831
			class_id:794
			class_id:564
			class_id:762
			class_id:881
			class_id:753
			class_id:424
			class_id:861
			class_id:844
			class_id:917
			class_id:478
			class_id:585
			class_id:556
			class_id:489
			class_id:791
			class_id:660
			class_id:423
			class_id:778
			class_id:708
			class_id:579
			class_id:745
			class_id:876
			class_id:539
			class_id:886
			class_id:707
			class_id:851
			class_id:588
			class_id:446
			class_id:580
			class_id:410
			class_id:583
			class_id:700
			class_id:750
			class_id:412
			class_id:854
			class_id:435
			class_id:982
			class_id:738
			class_id:462
			class_id:631
			class_id:733
			class_id:892
			class_id:669
			class_id:561
			class_id:865
			class_id:528
			class_id:846
			class_id:482
			class_id:920
			class_id:855
			class_id:487
			class_id:571
			class_id:747
			class_id:494
			class_id:716
			class_id:523
			class_id:664
			class_id:702
			class_id:500
			class_id:756
			class_id:602
			class_id:477
			class_id:887
			class_id:811
			class_id:618
			class_id:868
			class_id:427
			class_id:617
			class_id:543
			class_id:313
			class_id:757
			class_id:818
			class_id:731
			class_id:456
			class_id:968
			class_id:481
			class_id:954
			class_id:736
			class_id:409
			class_id:840
			class_id:872
			class_id:912
			class_id:704
			class_id:684
			class_id:498
			class_id:827
			class_id:406
			class_id:718
			class_id:888
			class_id:653
			class_id:705
			class_id:677
			class_id:520
			class_id:742
			class_id:907
			class_id:740
			class_id:792
			class_id:713
			class_id:619
			class_id:686
			class_id:804
			class_id:698
			class_id:642
			class_id:488
			class_id:637
			class_id:457
			class_id:634
			class_id:853
			class_id:788
			class_id:695
			class_id:741
			class_id:657
			class_id:767
			class_id:687
			class_id:458
			class_id:897
			class_id:859
			class_id:398
			class_id:790
			class_id:541
			class_id:638
			class_id:632
			class_id:419
		}
		compact_classify_layer_param{
			class_id:427
			class_id:438
			class_id:440
			class_id:441
			class_id:461
			class_id:503
			class_id:585
			class_id:604
			class_id:631
			class_id:637
			class_id:711
			class_id:712
			class_id:719
			class_id:720
			class_id:737
			class_id:747
			class_id:773
			class_id:838
			class_id:883
			class_id:898
			class_id:907
			class_id:969
			class_id:524
			class_id:647
			class_id:966
			class_id:680
			class_id:899
			class_id:756
			class_id:804
			class_id:653
			class_id:725
			class_id:968
			class_id:551
			class_id:901
			class_id:572
			class_id:412
			class_id:855
			class_id:463
			class_id:505
			class_id:470
			class_id:504
			class_id:686
			class_id:659
			class_id:626
			class_id:999
			class_id:455
			class_id:543
			class_id:419
			class_id:473
			class_id:692
			class_id:845
			class_id:678
			class_id:619
			class_id:710
			class_id:849
			class_id:929
			class_id:902
			class_id:684
			class_id:828
			class_id:707
			class_id:818
			class_id:925
			class_id:633
			class_id:927
			class_id:541
			class_id:700
			class_id:509
			class_id:418
			class_id:787
			class_id:641
			class_id:502
			class_id:577
			class_id:767
			class_id:967
			class_id:666
			class_id:615
			class_id:783
			class_id:531
			class_id:910
			class_id:960
			class_id:805
			class_id:731
			class_id:861
			class_id:738
			class_id:740
			class_id:784
			class_id:691
			class_id:596
			class_id:971
			class_id:760
			class_id:512
			class_id:882
			class_id:445
			class_id:515
			class_id:673
			class_id:629
			class_id:846
			class_id:708
			class_id:507
			class_id:903
			class_id:739
			class_id:521
			class_id:447
			class_id:842
			class_id:951
			class_id:469
			class_id:809
			class_id:492
			class_id:679
			class_id:911
			class_id:589
			class_id:928
			class_id:722
			class_id:618
			class_id:605
			class_id:648
			class_id:643
			class_id:696
			class_id:464
			class_id:728
			class_id:487
			class_id:478
			class_id:570
			class_id:655
			class_id:813
			class_id:398
			class_id:650
			class_id:788
			class_id:563
			class_id:424
			class_id:892
			class_id:617
			class_id:529
			class_id:868
			class_id:891
			class_id:539
			class_id:761
			class_id:746
			class_id:695
			class_id:860
			class_id:456
			class_id:886
			class_id:961
			class_id:715
			class_id:534
			class_id:446
			class_id:506
			class_id:872
			class_id:758
			class_id:593
			class_id:909
			class_id:644
			class_id:726
			class_id:401
			class_id:822
			class_id:414
			class_id:896
			class_id:611
			class_id:778
			class_id:499
			class_id:823
			class_id:542
			class_id:571
			class_id:714
			class_id:811
			class_id:514
			class_id:771
			class_id:748
			class_id:620
			class_id:749
			class_id:921
			class_id:420
			class_id:793
			class_id:471
			class_id:840
			class_id:785
			class_id:850
			class_id:674
			class_id:606
			class_id:859
			class_id:743
			class_id:508
			class_id:550
			class_id:494
			class_id:790
			class_id:998
			class_id:709
			class_id:530
			class_id:426
			class_id:490
			class_id:599
			class_id:474
			class_id:636
			class_id:769
			class_id:549
			class_id:567
			class_id:442
			class_id:582
			class_id:518
			class_id:716
		}
		compact_classify_layer_param{
			class_id:76
			class_id:400
			class_id:413
			class_id:457
			class_id:465
			class_id:570
			class_id:608
			class_id:610
			class_id:617
			class_id:630
			class_id:906
			class_id:667
			class_id:764
			class_id:841
			class_id:834
			class_id:691
			class_id:77
			class_id:652
			class_id:869
			class_id:887
			class_id:823
			class_id:728
			class_id:774
			class_id:514
			class_id:502
			class_id:740
			class_id:464
			class_id:655
			class_id:638
			class_id:597
			class_id:411
			class_id:474
			class_id:982
			class_id:763
			class_id:456
			class_id:414
			class_id:615
			class_id:678
			class_id:399
			class_id:447
			class_id:614
			class_id:796
			class_id:836
			class_id:813
			class_id:501
			class_id:523
			class_id:650
			class_id:842
			class_id:524
			class_id:643
			class_id:459
			class_id:929
			class_id:885
			class_id:830
			class_id:419
			class_id:585
			class_id:633
			class_id:822
			class_id:770
			class_id:587
			class_id:700
			class_id:785
			class_id:432
			class_id:568
			class_id:889
			class_id:797
			class_id:434
			class_id:420
			class_id:903
			class_id:73
			class_id:748
			class_id:589
			class_id:689
			class_id:499
			class_id:792
			class_id:578
			class_id:788
			class_id:824
			class_id:683
			class_id:491
			class_id:772
			class_id:623
			class_id:845
			class_id:697
			class_id:558
			class_id:750
			class_id:596
			class_id:424
			class_id:452
			class_id:515
			class_id:917
			class_id:843
			class_id:808
			class_id:461
			class_id:776
			class_id:902
			class_id:859
			class_id:451
			class_id:545
			class_id:731
			class_id:543
			class_id:641
			class_id:806
			class_id:636
			class_id:784
			class_id:999
			class_id:862
			class_id:310
			class_id:793
			class_id:861
			class_id:487
			class_id:613
			class_id:28
			class_id:721
			class_id:719
			class_id:490
			class_id:606
			class_id:593
			class_id:778
			class_id:837
			class_id:747
			class_id:911
			class_id:882
			class_id:412
			class_id:723
			class_id:439
			class_id:268
			class_id:88
			class_id:284
			class_id:893
			class_id:699
			class_id:591
			class_id:811
			class_id:905
			class_id:423
			class_id:513
			class_id:101
			class_id:552
			class_id:759
			class_id:676
			class_id:445
			class_id:739
			class_id:758
			class_id:775
			class_id:199
			class_id:546
			class_id:981
			class_id:478
			class_id:752
			class_id:635
			class_id:715
			class_id:921
			class_id:726
			class_id:27
			class_id:819
			class_id:971
			class_id:542
			class_id:438
			class_id:512
			class_id:876
			class_id:744
			class_id:378
			class_id:529
			class_id:781
			class_id:504
			class_id:626
			class_id:735
			class_id:549
			class_id:373
			class_id:879
			class_id:795
			class_id:575
			class_id:737
			class_id:577
			class_id:968
			class_id:777
			class_id:875
			class_id:471
			class_id:620
			class_id:618
			class_id:397
			class_id:713
			class_id:760
			class_id:601
			class_id:733
			class_id:910
			class_id:332
			class_id:762
			class_id:769
			class_id:703
			class_id:356
			class_id:687
			class_id:639
			class_id:653
			class_id:305
			class_id:753
			class_id:743
			class_id:840
			class_id:516
			class_id:518
		}
		compact_classify_layer_param{
			class_id:118
			class_id:415
			class_id:923
			class_id:924
			class_id:930
			class_id:931
			class_id:932
			class_id:933
			class_id:934
			class_id:935
			class_id:940
			class_id:941
			class_id:942
			class_id:961
			class_id:962
			class_id:963
			class_id:964
			class_id:965
			class_id:928
			class_id:121
			class_id:809
			class_id:960
			class_id:959
			class_id:926
			class_id:119
			class_id:937
			class_id:938
			class_id:582
			class_id:659
			class_id:943
			class_id:567
			class_id:813
			class_id:951
			class_id:925
			class_id:998
			class_id:954
			class_id:909
			class_id:544
			class_id:112
			class_id:927
			class_id:939
			class_id:467
			class_id:766
			class_id:969
			class_id:950
			class_id:122
			class_id:945
			class_id:987
			class_id:910
			class_id:956
			class_id:868
			class_id:996
			class_id:502
			class_id:692
			class_id:936
			class_id:762
			class_id:666
			class_id:454
			class_id:599
			class_id:463
			class_id:952
			class_id:123
			class_id:521
			class_id:124
			class_id:967
			class_id:891
			class_id:712
			class_id:618
			class_id:125
			class_id:944
			class_id:551
			class_id:955
			class_id:997
			class_id:126
			class_id:828
			class_id:424
			class_id:111
			class_id:56
			class_id:577
			class_id:329
			class_id:860
			class_id:492
			class_id:499
			class_id:470
			class_id:506
			class_id:719
			class_id:988
			class_id:738
			class_id:700
			class_id:788
			class_id:991
			class_id:947
			class_id:509
			class_id:739
			class_id:515
			class_id:861
			class_id:852
			class_id:62
			class_id:588
			class_id:558
			class_id:778
			class_id:110
			class_id:929
			class_id:519
			class_id:681
			class_id:114
			class_id:443
			class_id:120
			class_id:865
			class_id:469
			class_id:850
			class_id:840
			class_id:115
			class_id:953
			class_id:452
			class_id:773
			class_id:750
			class_id:816
			class_id:478
			class_id:532
			class_id:883
			class_id:748
			class_id:109
			class_id:808
			class_id:616
			class_id:539
			class_id:328
			class_id:116
			class_id:695
			class_id:720
			class_id:948
			class_id:503
			class_id:903
			class_id:419
			class_id:461
			class_id:60
			class_id:61
			class_id:845
			class_id:568
			class_id:680
			class_id:966
			class_id:611
			class_id:302
			class_id:390
			class_id:71
			class_id:711
			class_id:259
			class_id:607
			class_id:46
			class_id:410
			class_id:990
			class_id:911
			class_id:69
			class_id:626
			class_id:973
			class_id:784
			class_id:806
			class_id:587
			class_id:473
			class_id:885
			class_id:541
			class_id:291
			class_id:647
			class_id:619
			class_id:855
			class_id:113
			class_id:797
			class_id:455
			class_id:505
			class_id:533
			class_id:584
			class_id:898
			class_id:31
			class_id:398
			class_id:876
			class_id:39
			class_id:957
			class_id:673
			class_id:563
			class_id:171
			class_id:397
			class_id:836
			class_id:76
			class_id:949
			class_id:683
			class_id:790
			class_id:516
			class_id:837
			class_id:55
			class_id:213
			class_id:709
			class_id:441
			class_id:574
			class_id:643
			class_id:500
		}
		compact_classify_layer_param{
			class_id:738
			class_id:936
			class_id:937
			class_id:938
			class_id:939
			class_id:943
			class_id:944
			class_id:953
			class_id:956
			class_id:946
			class_id:924
			class_id:945
			class_id:935
			class_id:941
			class_id:582
			class_id:954
			class_id:948
			class_id:923
			class_id:931
			class_id:990
			class_id:987
			class_id:313
			class_id:952
			class_id:998
			class_id:883
			class_id:959
			class_id:951
			class_id:985
			class_id:962
			class_id:955
			class_id:988
			class_id:55
			class_id:942
			class_id:965
			class_id:706
			class_id:59
			class_id:809
			class_id:940
			class_id:36
			class_id:412
			class_id:533
			class_id:934
			class_id:899
			class_id:659
			class_id:580
			class_id:909
			class_id:926
			class_id:994
			class_id:852
			class_id:928
			class_id:317
			class_id:868
			class_id:463
			class_id:309
			class_id:666
			class_id:61
			class_id:925
			class_id:949
			class_id:544
			class_id:616
			class_id:991
			class_id:574
			class_id:964
			class_id:911
			class_id:31
			class_id:324
			class_id:64
			class_id:910
			class_id:32
			class_id:961
			class_id:989
			class_id:658
			class_id:725
			class_id:118
			class_id:567
			class_id:963
			class_id:559
			class_id:637
			class_id:363
			class_id:996
			class_id:752
			class_id:438
			class_id:904
			class_id:333
			class_id:957
			class_id:960
			class_id:532
			class_id:865
			class_id:995
			class_id:125
			class_id:427
			class_id:192
			class_id:828
			class_id:428
			class_id:716
			class_id:825
			class_id:47
			class_id:29
			class_id:116
			class_id:583
			class_id:469
			class_id:122
			class_id:720
			class_id:552
			class_id:721
			class_id:40
			class_id:765
			class_id:584
			class_id:206
			class_id:160
			class_id:509
			class_id:415
			class_id:435
		}
		compact_classify_layer_param{
			class_id:945
			class_id:948
			class_id:949
			class_id:950
			class_id:951
			class_id:952
			class_id:954
			class_id:955
			class_id:957
			class_id:988
			class_id:940
			class_id:943
			class_id:956
			class_id:582
			class_id:942
			class_id:941
			class_id:990
			class_id:989
			class_id:852
			class_id:928
			class_id:998
			class_id:953
			class_id:927
			class_id:944
			class_id:997
			class_id:113
			class_id:923
			class_id:939
			class_id:987
			class_id:962
			class_id:937
			class_id:809
			class_id:641
			class_id:868
			class_id:931
			class_id:960
			class_id:995
			class_id:378
			class_id:934
			class_id:738
			class_id:463
			class_id:947
			class_id:728
			class_id:828
			class_id:124
			class_id:584
			class_id:499
			class_id:909
			class_id:925
			class_id:633
			class_id:933
			class_id:125
			class_id:930
			class_id:714
			class_id:90
			class_id:986
			class_id:911
			class_id:985
			class_id:901
			class_id:971
			class_id:27
			class_id:658
			class_id:313
			class_id:110
			class_id:488
			class_id:599
			class_id:961
			class_id:845
			class_id:932
			class_id:936
			class_id:816
			class_id:659
			class_id:924
			class_id:5
			class_id:109
			class_id:121
			class_id:700
			class_id:326
			class_id:421
			class_id:611
			class_id:965
			class_id:709
			class_id:632
			class_id:938
			class_id:588
			class_id:325
			class_id:16
			class_id:13
			class_id:580
			class_id:722
			class_id:935
			class_id:301
			class_id:40
			class_id:398
			class_id:55
			class_id:315
			class_id:328
			class_id:563
			class_id:572
			class_id:963
			class_id:910
			class_id:112
			class_id:60
			class_id:333
			class_id:319
			class_id:382
			class_id:487
			class_id:470
			class_id:883
			class_id:902
			class_id:78
			class_id:415
			class_id:666
			class_id:929
		}
		compact_classify_layer_param{
			class_id:500
			class_id:649
			class_id:970
			class_id:972
			class_id:976
			class_id:979
			class_id:980
			class_id:978
			class_id:975
			class_id:825
			class_id:460
			class_id:974
			class_id:977
			class_id:663
			class_id:483
			class_id:912
			class_id:795
			class_id:671
			class_id:437
			class_id:646
			class_id:958
			class_id:913
			class_id:853
			class_id:884
			class_id:983
			class_id:147
			class_id:525
			class_id:488
			class_id:802
			class_id:682
			class_id:841
			class_id:297
			class_id:286
			class_id:425
			class_id:350
			class_id:672
			class_id:888
			class_id:34
			class_id:835
			class_id:832
			class_id:349
			class_id:973
			class_id:43
			class_id:2
			class_id:39
			class_id:863
			class_id:876
			class_id:197
			class_id:336
			class_id:145
			class_id:839
			class_id:708
			class_id:123
			class_id:462
			class_id:753
			class_id:899
			class_id:107
			class_id:491
			class_id:830
			class_id:755
			class_id:327
			class_id:305
			class_id:412
			class_id:986
			class_id:908
			class_id:347
			class_id:471
			class_id:733
			class_id:449
			class_id:238
			class_id:183
			class_id:106
			class_id:812
			class_id:428
			class_id:895
			class_id:660
			class_id:814
			class_id:829
			class_id:354
			class_id:265
			class_id:1
			class_id:879
			class_id:584
			class_id:807
			class_id:738
			class_id:444
			class_id:744
			class_id:150
			class_id:701
			class_id:36
			class_id:607
		}
		compact_classify_layer_param{
			class_id:460
			class_id:472
			class_id:693
			class_id:913
			class_id:977
			class_id:978
			class_id:975
			class_id:976
			class_id:814
			class_id:972
			class_id:718
			class_id:536
			class_id:625
			class_id:842
			class_id:724
			class_id:833
			class_id:576
			class_id:979
			class_id:974
			class_id:403
			class_id:908
			class_id:150
			class_id:112
			class_id:510
			class_id:525
			class_id:733
			class_id:6
			class_id:801
			class_id:408
			class_id:437
			class_id:795
			class_id:980
			class_id:445
			class_id:148
			class_id:628
			class_id:33
			class_id:540
			class_id:449
			class_id:694
			class_id:983
			class_id:914
			class_id:484
			class_id:775
			class_id:890
			class_id:147
			class_id:871
			class_id:144
			class_id:879
			class_id:394
			class_id:780
			class_id:634
			class_id:34
			class_id:557
			class_id:973
			class_id:872
			class_id:327
			class_id:825
			class_id:839
			class_id:639
			class_id:698
			class_id:39
			class_id:395
			class_id:856
			class_id:802
			class_id:803
			class_id:562
			class_id:421
			class_id:813
			class_id:456
			class_id:970
			class_id:912
			class_id:730
			class_id:838
			class_id:554
			class_id:758
			class_id:646
			class_id:354
			class_id:506
			class_id:211
			class_id:483
			class_id:450
			class_id:541
			class_id:49
			class_id:563
			class_id:444
			class_id:843
			class_id:35
			class_id:888
			class_id:346
			class_id:273
			class_id:414
			class_id:671
			class_id:840
			class_id:417
			class_id:864
			class_id:835
			class_id:672
			class_id:149
			class_id:787
			class_id:223
			class_id:792
			class_id:50
			class_id:659
			class_id:910
			class_id:433
			class_id:581
			class_id:791
			class_id:830
			class_id:755
			class_id:130
			class_id:760
			class_id:701
			class_id:895
		}
		compact_classify_layer_param{
			class_id:126
			class_id:947
			class_id:990
			class_id:991
			class_id:993
			class_id:994
			class_id:995
			class_id:996
			class_id:997
			class_id:992
			class_id:988
			class_id:114
			class_id:310
			class_id:599
			class_id:112
			class_id:27
			class_id:677
			class_id:116
			class_id:71
			class_id:302
			class_id:911
			class_id:329
			class_id:119
			class_id:125
			class_id:305
			class_id:738
			class_id:936
			class_id:113
			class_id:115
			class_id:363
			class_id:852
			class_id:998
			class_id:953
			class_id:43
			class_id:955
			class_id:728
			class_id:121
			class_id:973
			class_id:79
			class_id:965
			class_id:574
			class_id:103
			class_id:32
			class_id:69
			class_id:325
			class_id:933
			class_id:931
			class_id:73
			class_id:117
			class_id:109
			class_id:314
			class_id:301
			class_id:950
			class_id:961
			class_id:962
			class_id:910
			class_id:68
			class_id:38
			class_id:82
			class_id:337
			class_id:580
			class_id:328
			class_id:989
			class_id:52
			class_id:304
			class_id:954
			class_id:318
			class_id:35
			class_id:968
			class_id:108
			class_id:312
			class_id:415
			class_id:124
			class_id:346
			class_id:63
			class_id:660
			class_id:946
			class_id:26
			class_id:274
			class_id:60
			class_id:714
			class_id:825
			class_id:47
			class_id:118
			class_id:62
			class_id:944
			class_id:749
			class_id:942
			class_id:985
			class_id:311
			class_id:930
			class_id:66
			class_id:923
			class_id:315
			class_id:322
			class_id:940
			class_id:952
			class_id:865
			class_id:324
			class_id:390
			class_id:67
			class_id:78
			class_id:957
			class_id:951
			class_id:58
			class_id:452
			class_id:964
			class_id:61
			class_id:65
			class_id:960
			class_id:20
			class_id:331
			class_id:110
			class_id:596
			class_id:483
			class_id:120
			class_id:29
			class_id:275
			class_id:36
			class_id:397
			class_id:766
			class_id:33
			class_id:616
			class_id:522
			class_id:956
			class_id:327
		}
	}
}
